{
  "nodes": [
    {
      "op": "null", 
      "name": "data", 
      "inputs": []
    }, 
    {
      "op": "_contrib_quantize_v2", 
      "name": "data_quantize", 
      "attrs": {"out_type": "auto"}, 
      "inputs": [[0, 0, 0]]
    }, 
    {
      "op": "null", 
      "name": "ssd0_mobilenet0_conv0_weight", 
      "attrs": {
        "__dtype__": "0", 
        "__lr_mult__": "1.0", 
        "__shape__": "(32, 0, 3, 3)", 
        "__storage_type__": "0", 
        "__wd_mult__": "1.0"
      }, 
      "inputs": []
    }, 
    {
      "op": "null", 
      "name": "ssd0_mobilenet0_batchnorm0_gamma", 
      "attrs": {
        "__dtype__": "0", 
        "__init__": "ones", 
        "__lr_mult__": "1.0", 
        "__shape__": "(0,)", 
        "__storage_type__": "0", 
        "__wd_mult__": "1.0"
      }, 
      "inputs": []
    }, 
    {
      "op": "null", 
      "name": "ssd0_mobilenet0_batchnorm0_beta", 
      "attrs": {
        "__dtype__": "0", 
        "__init__": "zeros", 
        "__lr_mult__": "1.0", 
        "__shape__": "(0,)", 
        "__storage_type__": "0", 
        "__wd_mult__": "1.0"
      }, 
      "inputs": []
    }, 
    {
      "op": "null", 
      "name": "ssd0_mobilenet0_batchnorm0_running_mean", 
      "attrs": {
        "__dtype__": "0", 
        "__init__": "zeros", 
        "__lr_mult__": "1.0", 
        "__shape__": "(0,)", 
        "__storage_type__": "0", 
        "__wd_mult__": "1.0"
      }, 
      "inputs": []
    }, 
    {
      "op": "null", 
      "name": "ssd0_mobilenet0_batchnorm0_running_var", 
      "attrs": {
        "__dtype__": "0", 
        "__init__": "ones", 
        "__lr_mult__": "1.0", 
        "__shape__": "(0,)", 
        "__storage_type__": "0", 
        "__wd_mult__": "1.0"
      }, 
      "inputs": []
    }, 
    {
      "op": "_sg_mkldnn_conv", 
      "name": "quantized_sg_mkldnn_conv_bn_relu_0", 
      "attrs": {
        "max_calib_range": "1.971370", 
        "min_calib_range": "-0.000000", 
        "quantized": "true", 
        "with_bn": "true", 
        "with_relu": "true"
      }, 
      "inputs": [[1, 0, 0], [2, 0, 0], [3, 0, 0], [4, 0, 0], [5, 0, 1], [6, 0, 1], [1, 1, 0], [1, 2, 0]], 
      "subgraphs": [
        {
          "nodes": [
            {
              "op": "null", 
              "name": "data0", 
              "inputs": []
            }, 
            {
              "op": "null", 
              "name": "ssd0_mobilenet0_conv0_weight0", 
              "inputs": []
            }, 
            {
              "op": "Convolution", 
              "name": "ssd0_mobilenet0_conv0_fwd", 
              "attrs": {
                "dilate": "(1, 1)", 
                "kernel": "(3, 3)", 
                "layout": "NCHW", 
                "no_bias": "True", 
                "num_filter": "32", 
                "num_group": "1", 
                "pad": "(1, 1)", 
                "stride": "(2, 2)"
              }, 
              "inputs": [[0, 0, 0], [1, 0, 0]]
            }, 
            {
              "op": "null", 
              "name": "ssd0_mobilenet0_batchnorm0_gamma0", 
              "inputs": []
            }, 
            {
              "op": "null", 
              "name": "ssd0_mobilenet0_batchnorm0_beta0", 
              "inputs": []
            }, 
            {
              "op": "null", 
              "name": "ssd0_mobilenet0_batchnorm0_running_mean0", 
              "inputs": []
            }, 
            {
              "op": "null", 
              "name": "ssd0_mobilenet0_batchnorm0_running_var0", 
              "inputs": []
            }, 
            {
              "op": "BatchNorm", 
              "name": "ssd0_mobilenet0_batchnorm0_fwd", 
              "attrs": {
                "axis": "1", 
                "eps": "1e-05", 
                "fix_gamma": "False", 
                "momentum": "0.9", 
                "use_global_stats": "False"
              }, 
              "inputs": [[2, 0, 0], [3, 0, 0], [4, 0, 0], [5, 0, 0], [6, 0, 0]]
            }, 
            {
              "op": "Activation", 
              "name": "ssd0_mobilenet0_relu0_fwd", 
              "attrs": {"act_type": "relu"}, 
              "inputs": [[7, 0, 0]]
            }
          ], 
          "arg_nodes": [0, 1, 3, 4, 5, 6], 
          "node_row_ptr": [0, 1, 2, 3, 4, 5, 6, 7, 10, 11], 
          "heads": [[8, 0, 0]]
        }
      ]
    }, 
    {
      "op": "null", 
      "name": "ssd0_mobilenet0_conv1_weight", 
      "attrs": {
        "__dtype__": "0", 
        "__lr_mult__": "1.0", 
        "__shape__": "(32, 0, 3, 3)", 
        "__storage_type__": "0", 
        "__wd_mult__": "1.0"
      }, 
      "inputs": []
    }, 
    {
      "op": "null", 
      "name": "ssd0_mobilenet0_batchnorm1_gamma", 
      "attrs": {
        "__dtype__": "0", 
        "__init__": "ones", 
        "__lr_mult__": "1.0", 
        "__shape__": "(0,)", 
        "__storage_type__": "0", 
        "__wd_mult__": "1.0"
      }, 
      "inputs": []
    }, 
    {
      "op": "null", 
      "name": "ssd0_mobilenet0_batchnorm1_beta", 
      "attrs": {
        "__dtype__": "0", 
        "__init__": "zeros", 
        "__lr_mult__": "1.0", 
        "__shape__": "(0,)", 
        "__storage_type__": "0", 
        "__wd_mult__": "1.0"
      }, 
      "inputs": []
    }, 
    {
      "op": "null", 
      "name": "ssd0_mobilenet0_batchnorm1_running_mean", 
      "attrs": {
        "__dtype__": "0", 
        "__init__": "zeros", 
        "__lr_mult__": "1.0", 
        "__shape__": "(0,)", 
        "__storage_type__": "0", 
        "__wd_mult__": "1.0"
      }, 
      "inputs": []
    }, 
    {
      "op": "null", 
      "name": "ssd0_mobilenet0_batchnorm1_running_var", 
      "attrs": {
        "__dtype__": "0", 
        "__init__": "ones", 
        "__lr_mult__": "1.0", 
        "__shape__": "(0,)", 
        "__storage_type__": "0", 
        "__wd_mult__": "1.0"
      }, 
      "inputs": []
    }, 
    {
      "op": "_sg_mkldnn_conv", 
      "name": "quantized_sg_mkldnn_conv_bn_relu_1", 
      "attrs": {
        "max_calib_range": "4.843816", 
        "min_calib_range": "-0.000000", 
        "quantized": "true", 
        "with_bn": "true", 
        "with_relu": "true"
      }, 
      "inputs": [[7, 0, 0], [8, 0, 0], [9, 0, 0], [10, 0, 0], [11, 0, 1], [12, 0, 1], [7, 1, 0], [7, 2, 0]], 
      "subgraphs": [
        {
          "nodes": [
            {
              "op": "null", 
              "name": "sg_mkldnn_conv_bn_relu_0_output0", 
              "inputs": []
            }, 
            {
              "op": "null", 
              "name": "ssd0_mobilenet0_conv1_weight0", 
              "inputs": []
            }, 
            {
              "op": "Convolution", 
              "name": "ssd0_mobilenet0_conv1_fwd", 
              "attrs": {
                "dilate": "(1, 1)", 
                "kernel": "(3, 3)", 
                "layout": "NCHW", 
                "no_bias": "True", 
                "num_filter": "32", 
                "num_group": "32", 
                "pad": "(1, 1)", 
                "stride": "(1, 1)"
              }, 
              "inputs": [[0, 0, 0], [1, 0, 0]]
            }, 
            {
              "op": "null", 
              "name": "ssd0_mobilenet0_batchnorm1_gamma0", 
              "inputs": []
            }, 
            {
              "op": "null", 
              "name": "ssd0_mobilenet0_batchnorm1_beta0", 
              "inputs": []
            }, 
            {
              "op": "null", 
              "name": "ssd0_mobilenet0_batchnorm1_running_mean0", 
              "inputs": []
            }, 
            {
              "op": "null", 
              "name": "ssd0_mobilenet0_batchnorm1_running_var0", 
              "inputs": []
            }, 
            {
              "op": "BatchNorm", 
              "name": "ssd0_mobilenet0_batchnorm1_fwd", 
              "attrs": {
                "axis": "1", 
                "eps": "1e-05", 
                "fix_gamma": "False", 
                "momentum": "0.9", 
                "use_global_stats": "False"
              }, 
              "inputs": [[2, 0, 0], [3, 0, 0], [4, 0, 0], [5, 0, 0], [6, 0, 0]]
            }, 
            {
              "op": "Activation", 
              "name": "ssd0_mobilenet0_relu1_fwd", 
              "attrs": {"act_type": "relu"}, 
              "inputs": [[7, 0, 0]]
            }
          ], 
          "arg_nodes": [0, 1, 3, 4, 5, 6], 
          "node_row_ptr": [0, 1, 2, 3, 4, 5, 6, 7, 10, 11], 
          "heads": [[8, 0, 0]]
        }
      ]
    }, 
    {
      "op": "null", 
      "name": "ssd0_mobilenet0_conv2_weight", 
      "attrs": {
        "__dtype__": "0", 
        "__lr_mult__": "1.0", 
        "__shape__": "(64, 0, 1, 1)", 
        "__storage_type__": "0", 
        "__wd_mult__": "1.0"
      }, 
      "inputs": []
    }, 
    {
      "op": "null", 
      "name": "ssd0_mobilenet0_batchnorm2_gamma", 
      "attrs": {
        "__dtype__": "0", 
        "__init__": "ones", 
        "__lr_mult__": "1.0", 
        "__shape__": "(0,)", 
        "__storage_type__": "0", 
        "__wd_mult__": "1.0"
      }, 
      "inputs": []
    }, 
    {
      "op": "null", 
      "name": "ssd0_mobilenet0_batchnorm2_beta", 
      "attrs": {
        "__dtype__": "0", 
        "__init__": "zeros", 
        "__lr_mult__": "1.0", 
        "__shape__": "(0,)", 
        "__storage_type__": "0", 
        "__wd_mult__": "1.0"
      }, 
      "inputs": []
    }, 
    {
      "op": "null", 
      "name": "ssd0_mobilenet0_batchnorm2_running_mean", 
      "attrs": {
        "__dtype__": "0", 
        "__init__": "zeros", 
        "__lr_mult__": "1.0", 
        "__shape__": "(0,)", 
        "__storage_type__": "0", 
        "__wd_mult__": "1.0"
      }, 
      "inputs": []
    }, 
    {
      "op": "null", 
      "name": "ssd0_mobilenet0_batchnorm2_running_var", 
      "attrs": {
        "__dtype__": "0", 
        "__init__": "ones", 
        "__lr_mult__": "1.0", 
        "__shape__": "(0,)", 
        "__storage_type__": "0", 
        "__wd_mult__": "1.0"
      }, 
      "inputs": []
    }, 
    {
      "op": "_sg_mkldnn_conv", 
      "name": "quantized_sg_mkldnn_conv_bn_relu_2", 
      "attrs": {
        "max_calib_range": "12.230622", 
        "min_calib_range": "-0.000000", 
        "quantized": "true", 
        "with_bn": "true", 
        "with_relu": "true"
      }, 
      "inputs": [[13, 0, 0], [14, 0, 0], [15, 0, 0], [16, 0, 0], [17, 0, 1], [18, 0, 1], [13, 1, 0], [13, 2, 0]], 
      "subgraphs": [
        {
          "nodes": [
            {
              "op": "null", 
              "name": "sg_mkldnn_conv_bn_relu_1_output0", 
              "inputs": []
            }, 
            {
              "op": "null", 
              "name": "ssd0_mobilenet0_conv2_weight0", 
              "inputs": []
            }, 
            {
              "op": "Convolution", 
              "name": "ssd0_mobilenet0_conv2_fwd", 
              "attrs": {
                "dilate": "(1, 1)", 
                "kernel": "(1, 1)", 
                "layout": "NCHW", 
                "no_bias": "True", 
                "num_filter": "64", 
                "num_group": "1", 
                "pad": "(0, 0)", 
                "stride": "(1, 1)"
              }, 
              "inputs": [[0, 0, 0], [1, 0, 0]]
            }, 
            {
              "op": "null", 
              "name": "ssd0_mobilenet0_batchnorm2_gamma0", 
              "inputs": []
            }, 
            {
              "op": "null", 
              "name": "ssd0_mobilenet0_batchnorm2_beta0", 
              "inputs": []
            }, 
            {
              "op": "null", 
              "name": "ssd0_mobilenet0_batchnorm2_running_mean0", 
              "inputs": []
            }, 
            {
              "op": "null", 
              "name": "ssd0_mobilenet0_batchnorm2_running_var0", 
              "inputs": []
            }, 
            {
              "op": "BatchNorm", 
              "name": "ssd0_mobilenet0_batchnorm2_fwd", 
              "attrs": {
                "axis": "1", 
                "eps": "1e-05", 
                "fix_gamma": "False", 
                "momentum": "0.9", 
                "use_global_stats": "False"
              }, 
              "inputs": [[2, 0, 0], [3, 0, 0], [4, 0, 0], [5, 0, 0], [6, 0, 0]]
            }, 
            {
              "op": "Activation", 
              "name": "ssd0_mobilenet0_relu2_fwd", 
              "attrs": {"act_type": "relu"}, 
              "inputs": [[7, 0, 0]]
            }
          ], 
          "arg_nodes": [0, 1, 3, 4, 5, 6], 
          "node_row_ptr": [0, 1, 2, 3, 4, 5, 6, 7, 10, 11], 
          "heads": [[8, 0, 0]]
        }
      ]
    }, 
    {
      "op": "null", 
      "name": "ssd0_mobilenet0_conv3_weight", 
      "attrs": {
        "__dtype__": "0", 
        "__lr_mult__": "1.0", 
        "__shape__": "(64, 0, 3, 3)", 
        "__storage_type__": "0", 
        "__wd_mult__": "1.0"
      }, 
      "inputs": []
    }, 
    {
      "op": "null", 
      "name": "ssd0_mobilenet0_batchnorm3_gamma", 
      "attrs": {
        "__dtype__": "0", 
        "__init__": "ones", 
        "__lr_mult__": "1.0", 
        "__shape__": "(0,)", 
        "__storage_type__": "0", 
        "__wd_mult__": "1.0"
      }, 
      "inputs": []
    }, 
    {
      "op": "null", 
      "name": "ssd0_mobilenet0_batchnorm3_beta", 
      "attrs": {
        "__dtype__": "0", 
        "__init__": "zeros", 
        "__lr_mult__": "1.0", 
        "__shape__": "(0,)", 
        "__storage_type__": "0", 
        "__wd_mult__": "1.0"
      }, 
      "inputs": []
    }, 
    {
      "op": "null", 
      "name": "ssd0_mobilenet0_batchnorm3_running_mean", 
      "attrs": {
        "__dtype__": "0", 
        "__init__": "zeros", 
        "__lr_mult__": "1.0", 
        "__shape__": "(0,)", 
        "__storage_type__": "0", 
        "__wd_mult__": "1.0"
      }, 
      "inputs": []
    }, 
    {
      "op": "null", 
      "name": "ssd0_mobilenet0_batchnorm3_running_var", 
      "attrs": {
        "__dtype__": "0", 
        "__init__": "ones", 
        "__lr_mult__": "1.0", 
        "__shape__": "(0,)", 
        "__storage_type__": "0", 
        "__wd_mult__": "1.0"
      }, 
      "inputs": []
    }, 
    {
      "op": "_sg_mkldnn_conv", 
      "name": "quantized_sg_mkldnn_conv_bn_relu_3", 
      "attrs": {
        "max_calib_range": "4.503809", 
        "min_calib_range": "-0.000000", 
        "quantized": "true", 
        "with_bn": "true", 
        "with_relu": "true"
      }, 
      "inputs": [[19, 0, 0], [20, 0, 0], [21, 0, 0], [22, 0, 0], [23, 0, 1], [24, 0, 1], [19, 1, 0], [19, 2, 0]], 
      "subgraphs": [
        {
          "nodes": [
            {
              "op": "null", 
              "name": "sg_mkldnn_conv_bn_relu_2_output0", 
              "inputs": []
            }, 
            {
              "op": "null", 
              "name": "ssd0_mobilenet0_conv3_weight0", 
              "inputs": []
            }, 
            {
              "op": "Convolution", 
              "name": "ssd0_mobilenet0_conv3_fwd", 
              "attrs": {
                "dilate": "(1, 1)", 
                "kernel": "(3, 3)", 
                "layout": "NCHW", 
                "no_bias": "True", 
                "num_filter": "64", 
                "num_group": "64", 
                "pad": "(1, 1)", 
                "stride": "(2, 2)"
              }, 
              "inputs": [[0, 0, 0], [1, 0, 0]]
            }, 
            {
              "op": "null", 
              "name": "ssd0_mobilenet0_batchnorm3_gamma0", 
              "inputs": []
            }, 
            {
              "op": "null", 
              "name": "ssd0_mobilenet0_batchnorm3_beta0", 
              "inputs": []
            }, 
            {
              "op": "null", 
              "name": "ssd0_mobilenet0_batchnorm3_running_mean0", 
              "inputs": []
            }, 
            {
              "op": "null", 
              "name": "ssd0_mobilenet0_batchnorm3_running_var0", 
              "inputs": []
            }, 
            {
              "op": "BatchNorm", 
              "name": "ssd0_mobilenet0_batchnorm3_fwd", 
              "attrs": {
                "axis": "1", 
                "eps": "1e-05", 
                "fix_gamma": "False", 
                "momentum": "0.9", 
                "use_global_stats": "False"
              }, 
              "inputs": [[2, 0, 0], [3, 0, 0], [4, 0, 0], [5, 0, 0], [6, 0, 0]]
            }, 
            {
              "op": "Activation", 
              "name": "ssd0_mobilenet0_relu3_fwd", 
              "attrs": {"act_type": "relu"}, 
              "inputs": [[7, 0, 0]]
            }
          ], 
          "arg_nodes": [0, 1, 3, 4, 5, 6], 
          "node_row_ptr": [0, 1, 2, 3, 4, 5, 6, 7, 10, 11], 
          "heads": [[8, 0, 0]]
        }
      ]
    }, 
    {
      "op": "null", 
      "name": "ssd0_mobilenet0_conv4_weight", 
      "attrs": {
        "__dtype__": "0", 
        "__lr_mult__": "1.0", 
        "__shape__": "(128, 0, 1, 1)", 
        "__storage_type__": "0", 
        "__wd_mult__": "1.0"
      }, 
      "inputs": []
    }, 
    {
      "op": "null", 
      "name": "ssd0_mobilenet0_batchnorm4_gamma", 
      "attrs": {
        "__dtype__": "0", 
        "__init__": "ones", 
        "__lr_mult__": "1.0", 
        "__shape__": "(0,)", 
        "__storage_type__": "0", 
        "__wd_mult__": "1.0"
      }, 
      "inputs": []
    }, 
    {
      "op": "null", 
      "name": "ssd0_mobilenet0_batchnorm4_beta", 
      "attrs": {
        "__dtype__": "0", 
        "__init__": "zeros", 
        "__lr_mult__": "1.0", 
        "__shape__": "(0,)", 
        "__storage_type__": "0", 
        "__wd_mult__": "1.0"
      }, 
      "inputs": []
    }, 
    {
      "op": "null", 
      "name": "ssd0_mobilenet0_batchnorm4_running_mean", 
      "attrs": {
        "__dtype__": "0", 
        "__init__": "zeros", 
        "__lr_mult__": "1.0", 
        "__shape__": "(0,)", 
        "__storage_type__": "0", 
        "__wd_mult__": "1.0"
      }, 
      "inputs": []
    }, 
    {
      "op": "null", 
      "name": "ssd0_mobilenet0_batchnorm4_running_var", 
      "attrs": {
        "__dtype__": "0", 
        "__init__": "ones", 
        "__lr_mult__": "1.0", 
        "__shape__": "(0,)", 
        "__storage_type__": "0", 
        "__wd_mult__": "1.0"
      }, 
      "inputs": []
    }, 
    {
      "op": "_sg_mkldnn_conv", 
      "name": "quantized_sg_mkldnn_conv_bn_relu_4", 
      "attrs": {
        "max_calib_range": "3.454003", 
        "min_calib_range": "-0.000000", 
        "quantized": "true", 
        "with_bn": "true", 
        "with_relu": "true"
      }, 
      "inputs": [[25, 0, 0], [26, 0, 0], [27, 0, 0], [28, 0, 0], [29, 0, 1], [30, 0, 1], [25, 1, 0], [25, 2, 0]], 
      "subgraphs": [
        {
          "nodes": [
            {
              "op": "null", 
              "name": "sg_mkldnn_conv_bn_relu_3_output0", 
              "inputs": []
            }, 
            {
              "op": "null", 
              "name": "ssd0_mobilenet0_conv4_weight0", 
              "inputs": []
            }, 
            {
              "op": "Convolution", 
              "name": "ssd0_mobilenet0_conv4_fwd", 
              "attrs": {
                "dilate": "(1, 1)", 
                "kernel": "(1, 1)", 
                "layout": "NCHW", 
                "no_bias": "True", 
                "num_filter": "128", 
                "num_group": "1", 
                "pad": "(0, 0)", 
                "stride": "(1, 1)"
              }, 
              "inputs": [[0, 0, 0], [1, 0, 0]]
            }, 
            {
              "op": "null", 
              "name": "ssd0_mobilenet0_batchnorm4_gamma0", 
              "inputs": []
            }, 
            {
              "op": "null", 
              "name": "ssd0_mobilenet0_batchnorm4_beta0", 
              "inputs": []
            }, 
            {
              "op": "null", 
              "name": "ssd0_mobilenet0_batchnorm4_running_mean0", 
              "inputs": []
            }, 
            {
              "op": "null", 
              "name": "ssd0_mobilenet0_batchnorm4_running_var0", 
              "inputs": []
            }, 
            {
              "op": "BatchNorm", 
              "name": "ssd0_mobilenet0_batchnorm4_fwd", 
              "attrs": {
                "axis": "1", 
                "eps": "1e-05", 
                "fix_gamma": "False", 
                "momentum": "0.9", 
                "use_global_stats": "False"
              }, 
              "inputs": [[2, 0, 0], [3, 0, 0], [4, 0, 0], [5, 0, 0], [6, 0, 0]]
            }, 
            {
              "op": "Activation", 
              "name": "ssd0_mobilenet0_relu4_fwd", 
              "attrs": {"act_type": "relu"}, 
              "inputs": [[7, 0, 0]]
            }
          ], 
          "arg_nodes": [0, 1, 3, 4, 5, 6], 
          "node_row_ptr": [0, 1, 2, 3, 4, 5, 6, 7, 10, 11], 
          "heads": [[8, 0, 0]]
        }
      ]
    }, 
    {
      "op": "null", 
      "name": "ssd0_mobilenet0_conv5_weight", 
      "attrs": {
        "__dtype__": "0", 
        "__lr_mult__": "1.0", 
        "__shape__": "(128, 0, 3, 3)", 
        "__storage_type__": "0", 
        "__wd_mult__": "1.0"
      }, 
      "inputs": []
    }, 
    {
      "op": "null", 
      "name": "ssd0_mobilenet0_batchnorm5_gamma", 
      "attrs": {
        "__dtype__": "0", 
        "__init__": "ones", 
        "__lr_mult__": "1.0", 
        "__shape__": "(0,)", 
        "__storage_type__": "0", 
        "__wd_mult__": "1.0"
      }, 
      "inputs": []
    }, 
    {
      "op": "null", 
      "name": "ssd0_mobilenet0_batchnorm5_beta", 
      "attrs": {
        "__dtype__": "0", 
        "__init__": "zeros", 
        "__lr_mult__": "1.0", 
        "__shape__": "(0,)", 
        "__storage_type__": "0", 
        "__wd_mult__": "1.0"
      }, 
      "inputs": []
    }, 
    {
      "op": "null", 
      "name": "ssd0_mobilenet0_batchnorm5_running_mean", 
      "attrs": {
        "__dtype__": "0", 
        "__init__": "zeros", 
        "__lr_mult__": "1.0", 
        "__shape__": "(0,)", 
        "__storage_type__": "0", 
        "__wd_mult__": "1.0"
      }, 
      "inputs": []
    }, 
    {
      "op": "null", 
      "name": "ssd0_mobilenet0_batchnorm5_running_var", 
      "attrs": {
        "__dtype__": "0", 
        "__init__": "ones", 
        "__lr_mult__": "1.0", 
        "__shape__": "(0,)", 
        "__storage_type__": "0", 
        "__wd_mult__": "1.0"
      }, 
      "inputs": []
    }, 
    {
      "op": "_sg_mkldnn_conv", 
      "name": "quantized_sg_mkldnn_conv_bn_relu_5", 
      "attrs": {
        "max_calib_range": "4.388649", 
        "min_calib_range": "-0.000000", 
        "quantized": "true", 
        "with_bn": "true", 
        "with_relu": "true"
      }, 
      "inputs": [[31, 0, 0], [32, 0, 0], [33, 0, 0], [34, 0, 0], [35, 0, 1], [36, 0, 1], [31, 1, 0], [31, 2, 0]], 
      "subgraphs": [
        {
          "nodes": [
            {
              "op": "null", 
              "name": "sg_mkldnn_conv_bn_relu_4_output0", 
              "inputs": []
            }, 
            {
              "op": "null", 
              "name": "ssd0_mobilenet0_conv5_weight0", 
              "inputs": []
            }, 
            {
              "op": "Convolution", 
              "name": "ssd0_mobilenet0_conv5_fwd", 
              "attrs": {
                "dilate": "(1, 1)", 
                "kernel": "(3, 3)", 
                "layout": "NCHW", 
                "no_bias": "True", 
                "num_filter": "128", 
                "num_group": "128", 
                "pad": "(1, 1)", 
                "stride": "(1, 1)"
              }, 
              "inputs": [[0, 0, 0], [1, 0, 0]]
            }, 
            {
              "op": "null", 
              "name": "ssd0_mobilenet0_batchnorm5_gamma0", 
              "inputs": []
            }, 
            {
              "op": "null", 
              "name": "ssd0_mobilenet0_batchnorm5_beta0", 
              "inputs": []
            }, 
            {
              "op": "null", 
              "name": "ssd0_mobilenet0_batchnorm5_running_mean0", 
              "inputs": []
            }, 
            {
              "op": "null", 
              "name": "ssd0_mobilenet0_batchnorm5_running_var0", 
              "inputs": []
            }, 
            {
              "op": "BatchNorm", 
              "name": "ssd0_mobilenet0_batchnorm5_fwd", 
              "attrs": {
                "axis": "1", 
                "eps": "1e-05", 
                "fix_gamma": "False", 
                "momentum": "0.9", 
                "use_global_stats": "False"
              }, 
              "inputs": [[2, 0, 0], [3, 0, 0], [4, 0, 0], [5, 0, 0], [6, 0, 0]]
            }, 
            {
              "op": "Activation", 
              "name": "ssd0_mobilenet0_relu5_fwd", 
              "attrs": {"act_type": "relu"}, 
              "inputs": [[7, 0, 0]]
            }
          ], 
          "arg_nodes": [0, 1, 3, 4, 5, 6], 
          "node_row_ptr": [0, 1, 2, 3, 4, 5, 6, 7, 10, 11], 
          "heads": [[8, 0, 0]]
        }
      ]
    }, 
    {
      "op": "null", 
      "name": "ssd0_mobilenet0_conv6_weight", 
      "attrs": {
        "__dtype__": "0", 
        "__lr_mult__": "1.0", 
        "__shape__": "(128, 0, 1, 1)", 
        "__storage_type__": "0", 
        "__wd_mult__": "1.0"
      }, 
      "inputs": []
    }, 
    {
      "op": "null", 
      "name": "ssd0_mobilenet0_batchnorm6_gamma", 
      "attrs": {
        "__dtype__": "0", 
        "__init__": "ones", 
        "__lr_mult__": "1.0", 
        "__shape__": "(0,)", 
        "__storage_type__": "0", 
        "__wd_mult__": "1.0"
      }, 
      "inputs": []
    }, 
    {
      "op": "null", 
      "name": "ssd0_mobilenet0_batchnorm6_beta", 
      "attrs": {
        "__dtype__": "0", 
        "__init__": "zeros", 
        "__lr_mult__": "1.0", 
        "__shape__": "(0,)", 
        "__storage_type__": "0", 
        "__wd_mult__": "1.0"
      }, 
      "inputs": []
    }, 
    {
      "op": "null", 
      "name": "ssd0_mobilenet0_batchnorm6_running_mean", 
      "attrs": {
        "__dtype__": "0", 
        "__init__": "zeros", 
        "__lr_mult__": "1.0", 
        "__shape__": "(0,)", 
        "__storage_type__": "0", 
        "__wd_mult__": "1.0"
      }, 
      "inputs": []
    }, 
    {
      "op": "null", 
      "name": "ssd0_mobilenet0_batchnorm6_running_var", 
      "attrs": {
        "__dtype__": "0", 
        "__init__": "ones", 
        "__lr_mult__": "1.0", 
        "__shape__": "(0,)", 
        "__storage_type__": "0", 
        "__wd_mult__": "1.0"
      }, 
      "inputs": []
    }, 
    {
      "op": "_sg_mkldnn_conv", 
      "name": "quantized_sg_mkldnn_conv_bn_relu_6", 
      "attrs": {
        "max_calib_range": "3.698938", 
        "min_calib_range": "-0.000000", 
        "quantized": "true", 
        "with_bn": "true", 
        "with_relu": "true"
      }, 
      "inputs": [[37, 0, 0], [38, 0, 0], [39, 0, 0], [40, 0, 0], [41, 0, 1], [42, 0, 1], [37, 1, 0], [37, 2, 0]], 
      "subgraphs": [
        {
          "nodes": [
            {
              "op": "null", 
              "name": "sg_mkldnn_conv_bn_relu_5_output0", 
              "inputs": []
            }, 
            {
              "op": "null", 
              "name": "ssd0_mobilenet0_conv6_weight0", 
              "inputs": []
            }, 
            {
              "op": "Convolution", 
              "name": "ssd0_mobilenet0_conv6_fwd", 
              "attrs": {
                "dilate": "(1, 1)", 
                "kernel": "(1, 1)", 
                "layout": "NCHW", 
                "no_bias": "True", 
                "num_filter": "128", 
                "num_group": "1", 
                "pad": "(0, 0)", 
                "stride": "(1, 1)"
              }, 
              "inputs": [[0, 0, 0], [1, 0, 0]]
            }, 
            {
              "op": "null", 
              "name": "ssd0_mobilenet0_batchnorm6_gamma0", 
              "inputs": []
            }, 
            {
              "op": "null", 
              "name": "ssd0_mobilenet0_batchnorm6_beta0", 
              "inputs": []
            }, 
            {
              "op": "null", 
              "name": "ssd0_mobilenet0_batchnorm6_running_mean0", 
              "inputs": []
            }, 
            {
              "op": "null", 
              "name": "ssd0_mobilenet0_batchnorm6_running_var0", 
              "inputs": []
            }, 
            {
              "op": "BatchNorm", 
              "name": "ssd0_mobilenet0_batchnorm6_fwd", 
              "attrs": {
                "axis": "1", 
                "eps": "1e-05", 
                "fix_gamma": "False", 
                "momentum": "0.9", 
                "use_global_stats": "False"
              }, 
              "inputs": [[2, 0, 0], [3, 0, 0], [4, 0, 0], [5, 0, 0], [6, 0, 0]]
            }, 
            {
              "op": "Activation", 
              "name": "ssd0_mobilenet0_relu6_fwd", 
              "attrs": {"act_type": "relu"}, 
              "inputs": [[7, 0, 0]]
            }
          ], 
          "arg_nodes": [0, 1, 3, 4, 5, 6], 
          "node_row_ptr": [0, 1, 2, 3, 4, 5, 6, 7, 10, 11], 
          "heads": [[8, 0, 0]]
        }
      ]
    }, 
    {
      "op": "null", 
      "name": "ssd0_mobilenet0_conv7_weight", 
      "attrs": {
        "__dtype__": "0", 
        "__lr_mult__": "1.0", 
        "__shape__": "(128, 0, 3, 3)", 
        "__storage_type__": "0", 
        "__wd_mult__": "1.0"
      }, 
      "inputs": []
    }, 
    {
      "op": "null", 
      "name": "ssd0_mobilenet0_batchnorm7_gamma", 
      "attrs": {
        "__dtype__": "0", 
        "__init__": "ones", 
        "__lr_mult__": "1.0", 
        "__shape__": "(0,)", 
        "__storage_type__": "0", 
        "__wd_mult__": "1.0"
      }, 
      "inputs": []
    }, 
    {
      "op": "null", 
      "name": "ssd0_mobilenet0_batchnorm7_beta", 
      "attrs": {
        "__dtype__": "0", 
        "__init__": "zeros", 
        "__lr_mult__": "1.0", 
        "__shape__": "(0,)", 
        "__storage_type__": "0", 
        "__wd_mult__": "1.0"
      }, 
      "inputs": []
    }, 
    {
      "op": "null", 
      "name": "ssd0_mobilenet0_batchnorm7_running_mean", 
      "attrs": {
        "__dtype__": "0", 
        "__init__": "zeros", 
        "__lr_mult__": "1.0", 
        "__shape__": "(0,)", 
        "__storage_type__": "0", 
        "__wd_mult__": "1.0"
      }, 
      "inputs": []
    }, 
    {
      "op": "null", 
      "name": "ssd0_mobilenet0_batchnorm7_running_var", 
      "attrs": {
        "__dtype__": "0", 
        "__init__": "ones", 
        "__lr_mult__": "1.0", 
        "__shape__": "(0,)", 
        "__storage_type__": "0", 
        "__wd_mult__": "1.0"
      }, 
      "inputs": []
    }, 
    {
      "op": "_sg_mkldnn_conv", 
      "name": "quantized_sg_mkldnn_conv_bn_relu_7", 
      "attrs": {
        "max_calib_range": "3.953003", 
        "min_calib_range": "-0.000000", 
        "quantized": "true", 
        "with_bn": "true", 
        "with_relu": "true"
      }, 
      "inputs": [[43, 0, 0], [44, 0, 0], [45, 0, 0], [46, 0, 0], [47, 0, 1], [48, 0, 1], [43, 1, 0], [43, 2, 0]], 
      "subgraphs": [
        {
          "nodes": [
            {
              "op": "null", 
              "name": "sg_mkldnn_conv_bn_relu_6_output0", 
              "inputs": []
            }, 
            {
              "op": "null", 
              "name": "ssd0_mobilenet0_conv7_weight0", 
              "inputs": []
            }, 
            {
              "op": "Convolution", 
              "name": "ssd0_mobilenet0_conv7_fwd", 
              "attrs": {
                "dilate": "(1, 1)", 
                "kernel": "(3, 3)", 
                "layout": "NCHW", 
                "no_bias": "True", 
                "num_filter": "128", 
                "num_group": "128", 
                "pad": "(1, 1)", 
                "stride": "(2, 2)"
              }, 
              "inputs": [[0, 0, 0], [1, 0, 0]]
            }, 
            {
              "op": "null", 
              "name": "ssd0_mobilenet0_batchnorm7_gamma0", 
              "inputs": []
            }, 
            {
              "op": "null", 
              "name": "ssd0_mobilenet0_batchnorm7_beta0", 
              "inputs": []
            }, 
            {
              "op": "null", 
              "name": "ssd0_mobilenet0_batchnorm7_running_mean0", 
              "inputs": []
            }, 
            {
              "op": "null", 
              "name": "ssd0_mobilenet0_batchnorm7_running_var0", 
              "inputs": []
            }, 
            {
              "op": "BatchNorm", 
              "name": "ssd0_mobilenet0_batchnorm7_fwd", 
              "attrs": {
                "axis": "1", 
                "eps": "1e-05", 
                "fix_gamma": "False", 
                "momentum": "0.9", 
                "use_global_stats": "False"
              }, 
              "inputs": [[2, 0, 0], [3, 0, 0], [4, 0, 0], [5, 0, 0], [6, 0, 0]]
            }, 
            {
              "op": "Activation", 
              "name": "ssd0_mobilenet0_relu7_fwd", 
              "attrs": {"act_type": "relu"}, 
              "inputs": [[7, 0, 0]]
            }
          ], 
          "arg_nodes": [0, 1, 3, 4, 5, 6], 
          "node_row_ptr": [0, 1, 2, 3, 4, 5, 6, 7, 10, 11], 
          "heads": [[8, 0, 0]]
        }
      ]
    }, 
    {
      "op": "null", 
      "name": "ssd0_mobilenet0_conv8_weight", 
      "attrs": {
        "__dtype__": "0", 
        "__lr_mult__": "1.0", 
        "__shape__": "(256, 0, 1, 1)", 
        "__storage_type__": "0", 
        "__wd_mult__": "1.0"
      }, 
      "inputs": []
    }, 
    {
      "op": "null", 
      "name": "ssd0_mobilenet0_batchnorm8_gamma", 
      "attrs": {
        "__dtype__": "0", 
        "__init__": "ones", 
        "__lr_mult__": "1.0", 
        "__shape__": "(0,)", 
        "__storage_type__": "0", 
        "__wd_mult__": "1.0"
      }, 
      "inputs": []
    }, 
    {
      "op": "null", 
      "name": "ssd0_mobilenet0_batchnorm8_beta", 
      "attrs": {
        "__dtype__": "0", 
        "__init__": "zeros", 
        "__lr_mult__": "1.0", 
        "__shape__": "(0,)", 
        "__storage_type__": "0", 
        "__wd_mult__": "1.0"
      }, 
      "inputs": []
    }, 
    {
      "op": "null", 
      "name": "ssd0_mobilenet0_batchnorm8_running_mean", 
      "attrs": {
        "__dtype__": "0", 
        "__init__": "zeros", 
        "__lr_mult__": "1.0", 
        "__shape__": "(0,)", 
        "__storage_type__": "0", 
        "__wd_mult__": "1.0"
      }, 
      "inputs": []
    }, 
    {
      "op": "null", 
      "name": "ssd0_mobilenet0_batchnorm8_running_var", 
      "attrs": {
        "__dtype__": "0", 
        "__init__": "ones", 
        "__lr_mult__": "1.0", 
        "__shape__": "(0,)", 
        "__storage_type__": "0", 
        "__wd_mult__": "1.0"
      }, 
      "inputs": []
    }, 
    {
      "op": "_sg_mkldnn_conv", 
      "name": "quantized_sg_mkldnn_conv_bn_relu_8", 
      "attrs": {
        "max_calib_range": "2.041146", 
        "min_calib_range": "-0.000000", 
        "quantized": "true", 
        "with_bn": "true", 
        "with_relu": "true"
      }, 
      "inputs": [[49, 0, 0], [50, 0, 0], [51, 0, 0], [52, 0, 0], [53, 0, 1], [54, 0, 1], [49, 1, 0], [49, 2, 0]], 
      "subgraphs": [
        {
          "nodes": [
            {
              "op": "null", 
              "name": "sg_mkldnn_conv_bn_relu_7_output0", 
              "inputs": []
            }, 
            {
              "op": "null", 
              "name": "ssd0_mobilenet0_conv8_weight0", 
              "inputs": []
            }, 
            {
              "op": "Convolution", 
              "name": "ssd0_mobilenet0_conv8_fwd", 
              "attrs": {
                "dilate": "(1, 1)", 
                "kernel": "(1, 1)", 
                "layout": "NCHW", 
                "no_bias": "True", 
                "num_filter": "256", 
                "num_group": "1", 
                "pad": "(0, 0)", 
                "stride": "(1, 1)"
              }, 
              "inputs": [[0, 0, 0], [1, 0, 0]]
            }, 
            {
              "op": "null", 
              "name": "ssd0_mobilenet0_batchnorm8_gamma0", 
              "inputs": []
            }, 
            {
              "op": "null", 
              "name": "ssd0_mobilenet0_batchnorm8_beta0", 
              "inputs": []
            }, 
            {
              "op": "null", 
              "name": "ssd0_mobilenet0_batchnorm8_running_mean0", 
              "inputs": []
            }, 
            {
              "op": "null", 
              "name": "ssd0_mobilenet0_batchnorm8_running_var0", 
              "inputs": []
            }, 
            {
              "op": "BatchNorm", 
              "name": "ssd0_mobilenet0_batchnorm8_fwd", 
              "attrs": {
                "axis": "1", 
                "eps": "1e-05", 
                "fix_gamma": "False", 
                "momentum": "0.9", 
                "use_global_stats": "False"
              }, 
              "inputs": [[2, 0, 0], [3, 0, 0], [4, 0, 0], [5, 0, 0], [6, 0, 0]]
            }, 
            {
              "op": "Activation", 
              "name": "ssd0_mobilenet0_relu8_fwd", 
              "attrs": {"act_type": "relu"}, 
              "inputs": [[7, 0, 0]]
            }
          ], 
          "arg_nodes": [0, 1, 3, 4, 5, 6], 
          "node_row_ptr": [0, 1, 2, 3, 4, 5, 6, 7, 10, 11], 
          "heads": [[8, 0, 0]]
        }
      ]
    }, 
    {
      "op": "null", 
      "name": "ssd0_mobilenet0_conv9_weight", 
      "attrs": {
        "__dtype__": "0", 
        "__lr_mult__": "1.0", 
        "__shape__": "(256, 0, 3, 3)", 
        "__storage_type__": "0", 
        "__wd_mult__": "1.0"
      }, 
      "inputs": []
    }, 
    {
      "op": "null", 
      "name": "ssd0_mobilenet0_batchnorm9_gamma", 
      "attrs": {
        "__dtype__": "0", 
        "__init__": "ones", 
        "__lr_mult__": "1.0", 
        "__shape__": "(0,)", 
        "__storage_type__": "0", 
        "__wd_mult__": "1.0"
      }, 
      "inputs": []
    }, 
    {
      "op": "null", 
      "name": "ssd0_mobilenet0_batchnorm9_beta", 
      "attrs": {
        "__dtype__": "0", 
        "__init__": "zeros", 
        "__lr_mult__": "1.0", 
        "__shape__": "(0,)", 
        "__storage_type__": "0", 
        "__wd_mult__": "1.0"
      }, 
      "inputs": []
    }, 
    {
      "op": "null", 
      "name": "ssd0_mobilenet0_batchnorm9_running_mean", 
      "attrs": {
        "__dtype__": "0", 
        "__init__": "zeros", 
        "__lr_mult__": "1.0", 
        "__shape__": "(0,)", 
        "__storage_type__": "0", 
        "__wd_mult__": "1.0"
      }, 
      "inputs": []
    }, 
    {
      "op": "null", 
      "name": "ssd0_mobilenet0_batchnorm9_running_var", 
      "attrs": {
        "__dtype__": "0", 
        "__init__": "ones", 
        "__lr_mult__": "1.0", 
        "__shape__": "(0,)", 
        "__storage_type__": "0", 
        "__wd_mult__": "1.0"
      }, 
      "inputs": []
    }, 
    {
      "op": "_sg_mkldnn_conv", 
      "name": "quantized_sg_mkldnn_conv_bn_relu_9", 
      "attrs": {
        "max_calib_range": "3.181829", 
        "min_calib_range": "-0.000000", 
        "quantized": "true", 
        "with_bn": "true", 
        "with_relu": "true"
      }, 
      "inputs": [[55, 0, 0], [56, 0, 0], [57, 0, 0], [58, 0, 0], [59, 0, 1], [60, 0, 1], [55, 1, 0], [55, 2, 0]], 
      "subgraphs": [
        {
          "nodes": [
            {
              "op": "null", 
              "name": "sg_mkldnn_conv_bn_relu_8_output0", 
              "inputs": []
            }, 
            {
              "op": "null", 
              "name": "ssd0_mobilenet0_conv9_weight0", 
              "inputs": []
            }, 
            {
              "op": "Convolution", 
              "name": "ssd0_mobilenet0_conv9_fwd", 
              "attrs": {
                "dilate": "(1, 1)", 
                "kernel": "(3, 3)", 
                "layout": "NCHW", 
                "no_bias": "True", 
                "num_filter": "256", 
                "num_group": "256", 
                "pad": "(1, 1)", 
                "stride": "(1, 1)"
              }, 
              "inputs": [[0, 0, 0], [1, 0, 0]]
            }, 
            {
              "op": "null", 
              "name": "ssd0_mobilenet0_batchnorm9_gamma0", 
              "inputs": []
            }, 
            {
              "op": "null", 
              "name": "ssd0_mobilenet0_batchnorm9_beta0", 
              "inputs": []
            }, 
            {
              "op": "null", 
              "name": "ssd0_mobilenet0_batchnorm9_running_mean0", 
              "inputs": []
            }, 
            {
              "op": "null", 
              "name": "ssd0_mobilenet0_batchnorm9_running_var0", 
              "inputs": []
            }, 
            {
              "op": "BatchNorm", 
              "name": "ssd0_mobilenet0_batchnorm9_fwd", 
              "attrs": {
                "axis": "1", 
                "eps": "1e-05", 
                "fix_gamma": "False", 
                "momentum": "0.9", 
                "use_global_stats": "False"
              }, 
              "inputs": [[2, 0, 0], [3, 0, 0], [4, 0, 0], [5, 0, 0], [6, 0, 0]]
            }, 
            {
              "op": "Activation", 
              "name": "ssd0_mobilenet0_relu9_fwd", 
              "attrs": {"act_type": "relu"}, 
              "inputs": [[7, 0, 0]]
            }
          ], 
          "arg_nodes": [0, 1, 3, 4, 5, 6], 
          "node_row_ptr": [0, 1, 2, 3, 4, 5, 6, 7, 10, 11], 
          "heads": [[8, 0, 0]]
        }
      ]
    }, 
    {
      "op": "null", 
      "name": "ssd0_mobilenet0_conv10_weight", 
      "attrs": {
        "__dtype__": "0", 
        "__lr_mult__": "1.0", 
        "__shape__": "(256, 0, 1, 1)", 
        "__storage_type__": "0", 
        "__wd_mult__": "1.0"
      }, 
      "inputs": []
    }, 
    {
      "op": "null", 
      "name": "ssd0_mobilenet0_batchnorm10_gamma", 
      "attrs": {
        "__dtype__": "0", 
        "__init__": "ones", 
        "__lr_mult__": "1.0", 
        "__shape__": "(0,)", 
        "__storage_type__": "0", 
        "__wd_mult__": "1.0"
      }, 
      "inputs": []
    }, 
    {
      "op": "null", 
      "name": "ssd0_mobilenet0_batchnorm10_beta", 
      "attrs": {
        "__dtype__": "0", 
        "__init__": "zeros", 
        "__lr_mult__": "1.0", 
        "__shape__": "(0,)", 
        "__storage_type__": "0", 
        "__wd_mult__": "1.0"
      }, 
      "inputs": []
    }, 
    {
      "op": "null", 
      "name": "ssd0_mobilenet0_batchnorm10_running_mean", 
      "attrs": {
        "__dtype__": "0", 
        "__init__": "zeros", 
        "__lr_mult__": "1.0", 
        "__shape__": "(0,)", 
        "__storage_type__": "0", 
        "__wd_mult__": "1.0"
      }, 
      "inputs": []
    }, 
    {
      "op": "null", 
      "name": "ssd0_mobilenet0_batchnorm10_running_var", 
      "attrs": {
        "__dtype__": "0", 
        "__init__": "ones", 
        "__lr_mult__": "1.0", 
        "__shape__": "(0,)", 
        "__storage_type__": "0", 
        "__wd_mult__": "1.0"
      }, 
      "inputs": []
    }, 
    {
      "op": "_sg_mkldnn_conv", 
      "name": "quantized_sg_mkldnn_conv_bn_relu_10", 
      "attrs": {
        "max_calib_range": "1.957919", 
        "min_calib_range": "-0.000000", 
        "quantized": "true", 
        "with_bn": "true", 
        "with_relu": "true"
      }, 
      "inputs": [[61, 0, 0], [62, 0, 0], [63, 0, 0], [64, 0, 0], [65, 0, 1], [66, 0, 1], [61, 1, 0], [61, 2, 0]], 
      "subgraphs": [
        {
          "nodes": [
            {
              "op": "null", 
              "name": "sg_mkldnn_conv_bn_relu_9_output0", 
              "inputs": []
            }, 
            {
              "op": "null", 
              "name": "ssd0_mobilenet0_conv10_weight0", 
              "inputs": []
            }, 
            {
              "op": "Convolution", 
              "name": "ssd0_mobilenet0_conv10_fwd", 
              "attrs": {
                "dilate": "(1, 1)", 
                "kernel": "(1, 1)", 
                "layout": "NCHW", 
                "no_bias": "True", 
                "num_filter": "256", 
                "num_group": "1", 
                "pad": "(0, 0)", 
                "stride": "(1, 1)"
              }, 
              "inputs": [[0, 0, 0], [1, 0, 0]]
            }, 
            {
              "op": "null", 
              "name": "ssd0_mobilenet0_batchnorm10_gamma0", 
              "inputs": []
            }, 
            {
              "op": "null", 
              "name": "ssd0_mobilenet0_batchnorm10_beta0", 
              "inputs": []
            }, 
            {
              "op": "null", 
              "name": "ssd0_mobilenet0_batchnorm10_running_mean0", 
              "inputs": []
            }, 
            {
              "op": "null", 
              "name": "ssd0_mobilenet0_batchnorm10_running_var0", 
              "inputs": []
            }, 
            {
              "op": "BatchNorm", 
              "name": "ssd0_mobilenet0_batchnorm10_fwd", 
              "attrs": {
                "axis": "1", 
                "eps": "1e-05", 
                "fix_gamma": "False", 
                "momentum": "0.9", 
                "use_global_stats": "False"
              }, 
              "inputs": [[2, 0, 0], [3, 0, 0], [4, 0, 0], [5, 0, 0], [6, 0, 0]]
            }, 
            {
              "op": "Activation", 
              "name": "ssd0_mobilenet0_relu10_fwd", 
              "attrs": {"act_type": "relu"}, 
              "inputs": [[7, 0, 0]]
            }
          ], 
          "arg_nodes": [0, 1, 3, 4, 5, 6], 
          "node_row_ptr": [0, 1, 2, 3, 4, 5, 6, 7, 10, 11], 
          "heads": [[8, 0, 0]]
        }
      ]
    }, 
    {
      "op": "null", 
      "name": "ssd0_mobilenet0_conv11_weight", 
      "attrs": {
        "__dtype__": "0", 
        "__lr_mult__": "1.0", 
        "__shape__": "(256, 0, 3, 3)", 
        "__storage_type__": "0", 
        "__wd_mult__": "1.0"
      }, 
      "inputs": []
    }, 
    {
      "op": "null", 
      "name": "ssd0_mobilenet0_batchnorm11_gamma", 
      "attrs": {
        "__dtype__": "0", 
        "__init__": "ones", 
        "__lr_mult__": "1.0", 
        "__shape__": "(0,)", 
        "__storage_type__": "0", 
        "__wd_mult__": "1.0"
      }, 
      "inputs": []
    }, 
    {
      "op": "null", 
      "name": "ssd0_mobilenet0_batchnorm11_beta", 
      "attrs": {
        "__dtype__": "0", 
        "__init__": "zeros", 
        "__lr_mult__": "1.0", 
        "__shape__": "(0,)", 
        "__storage_type__": "0", 
        "__wd_mult__": "1.0"
      }, 
      "inputs": []
    }, 
    {
      "op": "null", 
      "name": "ssd0_mobilenet0_batchnorm11_running_mean", 
      "attrs": {
        "__dtype__": "0", 
        "__init__": "zeros", 
        "__lr_mult__": "1.0", 
        "__shape__": "(0,)", 
        "__storage_type__": "0", 
        "__wd_mult__": "1.0"
      }, 
      "inputs": []
    }, 
    {
      "op": "null", 
      "name": "ssd0_mobilenet0_batchnorm11_running_var", 
      "attrs": {
        "__dtype__": "0", 
        "__init__": "ones", 
        "__lr_mult__": "1.0", 
        "__shape__": "(0,)", 
        "__storage_type__": "0", 
        "__wd_mult__": "1.0"
      }, 
      "inputs": []
    }, 
    {
      "op": "_sg_mkldnn_conv", 
      "name": "quantized_sg_mkldnn_conv_bn_relu_11", 
      "attrs": {
        "max_calib_range": "3.375719", 
        "min_calib_range": "-0.000000", 
        "quantized": "true", 
        "with_bn": "true", 
        "with_relu": "true"
      }, 
      "inputs": [[67, 0, 0], [68, 0, 0], [69, 0, 0], [70, 0, 0], [71, 0, 1], [72, 0, 1], [67, 1, 0], [67, 2, 0]], 
      "subgraphs": [
        {
          "nodes": [
            {
              "op": "null", 
              "name": "sg_mkldnn_conv_bn_relu_10_output0", 
              "inputs": []
            }, 
            {
              "op": "null", 
              "name": "ssd0_mobilenet0_conv11_weight0", 
              "inputs": []
            }, 
            {
              "op": "Convolution", 
              "name": "ssd0_mobilenet0_conv11_fwd", 
              "attrs": {
                "dilate": "(1, 1)", 
                "kernel": "(3, 3)", 
                "layout": "NCHW", 
                "no_bias": "True", 
                "num_filter": "256", 
                "num_group": "256", 
                "pad": "(1, 1)", 
                "stride": "(2, 2)"
              }, 
              "inputs": [[0, 0, 0], [1, 0, 0]]
            }, 
            {
              "op": "null", 
              "name": "ssd0_mobilenet0_batchnorm11_gamma0", 
              "inputs": []
            }, 
            {
              "op": "null", 
              "name": "ssd0_mobilenet0_batchnorm11_beta0", 
              "inputs": []
            }, 
            {
              "op": "null", 
              "name": "ssd0_mobilenet0_batchnorm11_running_mean0", 
              "inputs": []
            }, 
            {
              "op": "null", 
              "name": "ssd0_mobilenet0_batchnorm11_running_var0", 
              "inputs": []
            }, 
            {
              "op": "BatchNorm", 
              "name": "ssd0_mobilenet0_batchnorm11_fwd", 
              "attrs": {
                "axis": "1", 
                "eps": "1e-05", 
                "fix_gamma": "False", 
                "momentum": "0.9", 
                "use_global_stats": "False"
              }, 
              "inputs": [[2, 0, 0], [3, 0, 0], [4, 0, 0], [5, 0, 0], [6, 0, 0]]
            }, 
            {
              "op": "Activation", 
              "name": "ssd0_mobilenet0_relu11_fwd", 
              "attrs": {"act_type": "relu"}, 
              "inputs": [[7, 0, 0]]
            }
          ], 
          "arg_nodes": [0, 1, 3, 4, 5, 6], 
          "node_row_ptr": [0, 1, 2, 3, 4, 5, 6, 7, 10, 11], 
          "heads": [[8, 0, 0]]
        }
      ]
    }, 
    {
      "op": "null", 
      "name": "ssd0_mobilenet0_conv12_weight", 
      "attrs": {
        "__dtype__": "0", 
        "__lr_mult__": "1.0", 
        "__shape__": "(512, 0, 1, 1)", 
        "__storage_type__": "0", 
        "__wd_mult__": "1.0"
      }, 
      "inputs": []
    }, 
    {
      "op": "null", 
      "name": "ssd0_mobilenet0_batchnorm12_gamma", 
      "attrs": {
        "__dtype__": "0", 
        "__init__": "ones", 
        "__lr_mult__": "1.0", 
        "__shape__": "(0,)", 
        "__storage_type__": "0", 
        "__wd_mult__": "1.0"
      }, 
      "inputs": []
    }, 
    {
      "op": "null", 
      "name": "ssd0_mobilenet0_batchnorm12_beta", 
      "attrs": {
        "__dtype__": "0", 
        "__init__": "zeros", 
        "__lr_mult__": "1.0", 
        "__shape__": "(0,)", 
        "__storage_type__": "0", 
        "__wd_mult__": "1.0"
      }, 
      "inputs": []
    }, 
    {
      "op": "null", 
      "name": "ssd0_mobilenet0_batchnorm12_running_mean", 
      "attrs": {
        "__dtype__": "0", 
        "__init__": "zeros", 
        "__lr_mult__": "1.0", 
        "__shape__": "(0,)", 
        "__storage_type__": "0", 
        "__wd_mult__": "1.0"
      }, 
      "inputs": []
    }, 
    {
      "op": "null", 
      "name": "ssd0_mobilenet0_batchnorm12_running_var", 
      "attrs": {
        "__dtype__": "0", 
        "__init__": "ones", 
        "__lr_mult__": "1.0", 
        "__shape__": "(0,)", 
        "__storage_type__": "0", 
        "__wd_mult__": "1.0"
      }, 
      "inputs": []
    }, 
    {
      "op": "_sg_mkldnn_conv", 
      "name": "quantized_sg_mkldnn_conv_bn_relu_12", 
      "attrs": {
        "max_calib_range": "1.671821", 
        "min_calib_range": "-0.000000", 
        "quantized": "true", 
        "with_bn": "true", 
        "with_relu": "true"
      }, 
      "inputs": [[73, 0, 0], [74, 0, 0], [75, 0, 0], [76, 0, 0], [77, 0, 1], [78, 0, 1], [73, 1, 0], [73, 2, 0]], 
      "subgraphs": [
        {
          "nodes": [
            {
              "op": "null", 
              "name": "sg_mkldnn_conv_bn_relu_11_output0", 
              "inputs": []
            }, 
            {
              "op": "null", 
              "name": "ssd0_mobilenet0_conv12_weight0", 
              "inputs": []
            }, 
            {
              "op": "Convolution", 
              "name": "ssd0_mobilenet0_conv12_fwd", 
              "attrs": {
                "dilate": "(1, 1)", 
                "kernel": "(1, 1)", 
                "layout": "NCHW", 
                "no_bias": "True", 
                "num_filter": "512", 
                "num_group": "1", 
                "pad": "(0, 0)", 
                "stride": "(1, 1)"
              }, 
              "inputs": [[0, 0, 0], [1, 0, 0]]
            }, 
            {
              "op": "null", 
              "name": "ssd0_mobilenet0_batchnorm12_gamma0", 
              "inputs": []
            }, 
            {
              "op": "null", 
              "name": "ssd0_mobilenet0_batchnorm12_beta0", 
              "inputs": []
            }, 
            {
              "op": "null", 
              "name": "ssd0_mobilenet0_batchnorm12_running_mean0", 
              "inputs": []
            }, 
            {
              "op": "null", 
              "name": "ssd0_mobilenet0_batchnorm12_running_var0", 
              "inputs": []
            }, 
            {
              "op": "BatchNorm", 
              "name": "ssd0_mobilenet0_batchnorm12_fwd", 
              "attrs": {
                "axis": "1", 
                "eps": "1e-05", 
                "fix_gamma": "False", 
                "momentum": "0.9", 
                "use_global_stats": "False"
              }, 
              "inputs": [[2, 0, 0], [3, 0, 0], [4, 0, 0], [5, 0, 0], [6, 0, 0]]
            }, 
            {
              "op": "Activation", 
              "name": "ssd0_mobilenet0_relu12_fwd", 
              "attrs": {"act_type": "relu"}, 
              "inputs": [[7, 0, 0]]
            }
          ], 
          "arg_nodes": [0, 1, 3, 4, 5, 6], 
          "node_row_ptr": [0, 1, 2, 3, 4, 5, 6, 7, 10, 11], 
          "heads": [[8, 0, 0]]
        }
      ]
    }, 
    {
      "op": "null", 
      "name": "ssd0_mobilenet0_conv13_weight", 
      "attrs": {
        "__dtype__": "0", 
        "__lr_mult__": "1.0", 
        "__shape__": "(512, 0, 3, 3)", 
        "__storage_type__": "0", 
        "__wd_mult__": "1.0"
      }, 
      "inputs": []
    }, 
    {
      "op": "null", 
      "name": "ssd0_mobilenet0_batchnorm13_gamma", 
      "attrs": {
        "__dtype__": "0", 
        "__init__": "ones", 
        "__lr_mult__": "1.0", 
        "__shape__": "(0,)", 
        "__storage_type__": "0", 
        "__wd_mult__": "1.0"
      }, 
      "inputs": []
    }, 
    {
      "op": "null", 
      "name": "ssd0_mobilenet0_batchnorm13_beta", 
      "attrs": {
        "__dtype__": "0", 
        "__init__": "zeros", 
        "__lr_mult__": "1.0", 
        "__shape__": "(0,)", 
        "__storage_type__": "0", 
        "__wd_mult__": "1.0"
      }, 
      "inputs": []
    }, 
    {
      "op": "null", 
      "name": "ssd0_mobilenet0_batchnorm13_running_mean", 
      "attrs": {
        "__dtype__": "0", 
        "__init__": "zeros", 
        "__lr_mult__": "1.0", 
        "__shape__": "(0,)", 
        "__storage_type__": "0", 
        "__wd_mult__": "1.0"
      }, 
      "inputs": []
    }, 
    {
      "op": "null", 
      "name": "ssd0_mobilenet0_batchnorm13_running_var", 
      "attrs": {
        "__dtype__": "0", 
        "__init__": "ones", 
        "__lr_mult__": "1.0", 
        "__shape__": "(0,)", 
        "__storage_type__": "0", 
        "__wd_mult__": "1.0"
      }, 
      "inputs": []
    }, 
    {
      "op": "_sg_mkldnn_conv", 
      "name": "quantized_sg_mkldnn_conv_bn_relu_13", 
      "attrs": {
        "max_calib_range": "3.777070", 
        "min_calib_range": "-0.000000", 
        "quantized": "true", 
        "with_bn": "true", 
        "with_relu": "true"
      }, 
      "inputs": [[79, 0, 0], [80, 0, 0], [81, 0, 0], [82, 0, 0], [83, 0, 1], [84, 0, 1], [79, 1, 0], [79, 2, 0]], 
      "subgraphs": [
        {
          "nodes": [
            {
              "op": "null", 
              "name": "sg_mkldnn_conv_bn_relu_12_output0", 
              "inputs": []
            }, 
            {
              "op": "null", 
              "name": "ssd0_mobilenet0_conv13_weight0", 
              "inputs": []
            }, 
            {
              "op": "Convolution", 
              "name": "ssd0_mobilenet0_conv13_fwd", 
              "attrs": {
                "dilate": "(1, 1)", 
                "kernel": "(3, 3)", 
                "layout": "NCHW", 
                "no_bias": "True", 
                "num_filter": "512", 
                "num_group": "512", 
                "pad": "(1, 1)", 
                "stride": "(1, 1)"
              }, 
              "inputs": [[0, 0, 0], [1, 0, 0]]
            }, 
            {
              "op": "null", 
              "name": "ssd0_mobilenet0_batchnorm13_gamma0", 
              "inputs": []
            }, 
            {
              "op": "null", 
              "name": "ssd0_mobilenet0_batchnorm13_beta0", 
              "inputs": []
            }, 
            {
              "op": "null", 
              "name": "ssd0_mobilenet0_batchnorm13_running_mean0", 
              "inputs": []
            }, 
            {
              "op": "null", 
              "name": "ssd0_mobilenet0_batchnorm13_running_var0", 
              "inputs": []
            }, 
            {
              "op": "BatchNorm", 
              "name": "ssd0_mobilenet0_batchnorm13_fwd", 
              "attrs": {
                "axis": "1", 
                "eps": "1e-05", 
                "fix_gamma": "False", 
                "momentum": "0.9", 
                "use_global_stats": "False"
              }, 
              "inputs": [[2, 0, 0], [3, 0, 0], [4, 0, 0], [5, 0, 0], [6, 0, 0]]
            }, 
            {
              "op": "Activation", 
              "name": "ssd0_mobilenet0_relu13_fwd", 
              "attrs": {"act_type": "relu"}, 
              "inputs": [[7, 0, 0]]
            }
          ], 
          "arg_nodes": [0, 1, 3, 4, 5, 6], 
          "node_row_ptr": [0, 1, 2, 3, 4, 5, 6, 7, 10, 11], 
          "heads": [[8, 0, 0]]
        }
      ]
    }, 
    {
      "op": "null", 
      "name": "ssd0_mobilenet0_conv14_weight", 
      "attrs": {
        "__dtype__": "0", 
        "__lr_mult__": "1.0", 
        "__shape__": "(512, 0, 1, 1)", 
        "__storage_type__": "0", 
        "__wd_mult__": "1.0"
      }, 
      "inputs": []
    }, 
    {
      "op": "null", 
      "name": "ssd0_mobilenet0_batchnorm14_gamma", 
      "attrs": {
        "__dtype__": "0", 
        "__init__": "ones", 
        "__lr_mult__": "1.0", 
        "__shape__": "(0,)", 
        "__storage_type__": "0", 
        "__wd_mult__": "1.0"
      }, 
      "inputs": []
    }, 
    {
      "op": "null", 
      "name": "ssd0_mobilenet0_batchnorm14_beta", 
      "attrs": {
        "__dtype__": "0", 
        "__init__": "zeros", 
        "__lr_mult__": "1.0", 
        "__shape__": "(0,)", 
        "__storage_type__": "0", 
        "__wd_mult__": "1.0"
      }, 
      "inputs": []
    }, 
    {
      "op": "null", 
      "name": "ssd0_mobilenet0_batchnorm14_running_mean", 
      "attrs": {
        "__dtype__": "0", 
        "__init__": "zeros", 
        "__lr_mult__": "1.0", 
        "__shape__": "(0,)", 
        "__storage_type__": "0", 
        "__wd_mult__": "1.0"
      }, 
      "inputs": []
    }, 
    {
      "op": "null", 
      "name": "ssd0_mobilenet0_batchnorm14_running_var", 
      "attrs": {
        "__dtype__": "0", 
        "__init__": "ones", 
        "__lr_mult__": "1.0", 
        "__shape__": "(0,)", 
        "__storage_type__": "0", 
        "__wd_mult__": "1.0"
      }, 
      "inputs": []
    }, 
    {
      "op": "_sg_mkldnn_conv", 
      "name": "quantized_sg_mkldnn_conv_bn_relu_14", 
      "attrs": {
        "max_calib_range": "1.441661", 
        "min_calib_range": "-0.000000", 
        "quantized": "true", 
        "with_bn": "true", 
        "with_relu": "true"
      }, 
      "inputs": [[85, 0, 0], [86, 0, 0], [87, 0, 0], [88, 0, 0], [89, 0, 1], [90, 0, 1], [85, 1, 0], [85, 2, 0]], 
      "subgraphs": [
        {
          "nodes": [
            {
              "op": "null", 
              "name": "sg_mkldnn_conv_bn_relu_13_output0", 
              "inputs": []
            }, 
            {
              "op": "null", 
              "name": "ssd0_mobilenet0_conv14_weight0", 
              "inputs": []
            }, 
            {
              "op": "Convolution", 
              "name": "ssd0_mobilenet0_conv14_fwd", 
              "attrs": {
                "dilate": "(1, 1)", 
                "kernel": "(1, 1)", 
                "layout": "NCHW", 
                "no_bias": "True", 
                "num_filter": "512", 
                "num_group": "1", 
                "pad": "(0, 0)", 
                "stride": "(1, 1)"
              }, 
              "inputs": [[0, 0, 0], [1, 0, 0]]
            }, 
            {
              "op": "null", 
              "name": "ssd0_mobilenet0_batchnorm14_gamma0", 
              "inputs": []
            }, 
            {
              "op": "null", 
              "name": "ssd0_mobilenet0_batchnorm14_beta0", 
              "inputs": []
            }, 
            {
              "op": "null", 
              "name": "ssd0_mobilenet0_batchnorm14_running_mean0", 
              "inputs": []
            }, 
            {
              "op": "null", 
              "name": "ssd0_mobilenet0_batchnorm14_running_var0", 
              "inputs": []
            }, 
            {
              "op": "BatchNorm", 
              "name": "ssd0_mobilenet0_batchnorm14_fwd", 
              "attrs": {
                "axis": "1", 
                "eps": "1e-05", 
                "fix_gamma": "False", 
                "momentum": "0.9", 
                "use_global_stats": "False"
              }, 
              "inputs": [[2, 0, 0], [3, 0, 0], [4, 0, 0], [5, 0, 0], [6, 0, 0]]
            }, 
            {
              "op": "Activation", 
              "name": "ssd0_mobilenet0_relu14_fwd", 
              "attrs": {"act_type": "relu"}, 
              "inputs": [[7, 0, 0]]
            }
          ], 
          "arg_nodes": [0, 1, 3, 4, 5, 6], 
          "node_row_ptr": [0, 1, 2, 3, 4, 5, 6, 7, 10, 11], 
          "heads": [[8, 0, 0]]
        }
      ]
    }, 
    {
      "op": "null", 
      "name": "ssd0_mobilenet0_conv15_weight", 
      "attrs": {
        "__dtype__": "0", 
        "__lr_mult__": "1.0", 
        "__shape__": "(512, 0, 3, 3)", 
        "__storage_type__": "0", 
        "__wd_mult__": "1.0"
      }, 
      "inputs": []
    }, 
    {
      "op": "null", 
      "name": "ssd0_mobilenet0_batchnorm15_gamma", 
      "attrs": {
        "__dtype__": "0", 
        "__init__": "ones", 
        "__lr_mult__": "1.0", 
        "__shape__": "(0,)", 
        "__storage_type__": "0", 
        "__wd_mult__": "1.0"
      }, 
      "inputs": []
    }, 
    {
      "op": "null", 
      "name": "ssd0_mobilenet0_batchnorm15_beta", 
      "attrs": {
        "__dtype__": "0", 
        "__init__": "zeros", 
        "__lr_mult__": "1.0", 
        "__shape__": "(0,)", 
        "__storage_type__": "0", 
        "__wd_mult__": "1.0"
      }, 
      "inputs": []
    }, 
    {
      "op": "null", 
      "name": "ssd0_mobilenet0_batchnorm15_running_mean", 
      "attrs": {
        "__dtype__": "0", 
        "__init__": "zeros", 
        "__lr_mult__": "1.0", 
        "__shape__": "(0,)", 
        "__storage_type__": "0", 
        "__wd_mult__": "1.0"
      }, 
      "inputs": []
    }, 
    {
      "op": "null", 
      "name": "ssd0_mobilenet0_batchnorm15_running_var", 
      "attrs": {
        "__dtype__": "0", 
        "__init__": "ones", 
        "__lr_mult__": "1.0", 
        "__shape__": "(0,)", 
        "__storage_type__": "0", 
        "__wd_mult__": "1.0"
      }, 
      "inputs": []
    }, 
    {
      "op": "_sg_mkldnn_conv", 
      "name": "quantized_sg_mkldnn_conv_bn_relu_15", 
      "attrs": {
        "max_calib_range": "3.497429", 
        "min_calib_range": "-0.000000", 
        "quantized": "true", 
        "with_bn": "true", 
        "with_relu": "true"
      }, 
      "inputs": [[91, 0, 0], [92, 0, 0], [93, 0, 0], [94, 0, 0], [95, 0, 1], [96, 0, 1], [91, 1, 0], [91, 2, 0]], 
      "subgraphs": [
        {
          "nodes": [
            {
              "op": "null", 
              "name": "sg_mkldnn_conv_bn_relu_14_output0", 
              "inputs": []
            }, 
            {
              "op": "null", 
              "name": "ssd0_mobilenet0_conv15_weight0", 
              "inputs": []
            }, 
            {
              "op": "Convolution", 
              "name": "ssd0_mobilenet0_conv15_fwd", 
              "attrs": {
                "dilate": "(1, 1)", 
                "kernel": "(3, 3)", 
                "layout": "NCHW", 
                "no_bias": "True", 
                "num_filter": "512", 
                "num_group": "512", 
                "pad": "(1, 1)", 
                "stride": "(1, 1)"
              }, 
              "inputs": [[0, 0, 0], [1, 0, 0]]
            }, 
            {
              "op": "null", 
              "name": "ssd0_mobilenet0_batchnorm15_gamma0", 
              "inputs": []
            }, 
            {
              "op": "null", 
              "name": "ssd0_mobilenet0_batchnorm15_beta0", 
              "inputs": []
            }, 
            {
              "op": "null", 
              "name": "ssd0_mobilenet0_batchnorm15_running_mean0", 
              "inputs": []
            }, 
            {
              "op": "null", 
              "name": "ssd0_mobilenet0_batchnorm15_running_var0", 
              "inputs": []
            }, 
            {
              "op": "BatchNorm", 
              "name": "ssd0_mobilenet0_batchnorm15_fwd", 
              "attrs": {
                "axis": "1", 
                "eps": "1e-05", 
                "fix_gamma": "False", 
                "momentum": "0.9", 
                "use_global_stats": "False"
              }, 
              "inputs": [[2, 0, 0], [3, 0, 0], [4, 0, 0], [5, 0, 0], [6, 0, 0]]
            }, 
            {
              "op": "Activation", 
              "name": "ssd0_mobilenet0_relu15_fwd", 
              "attrs": {"act_type": "relu"}, 
              "inputs": [[7, 0, 0]]
            }
          ], 
          "arg_nodes": [0, 1, 3, 4, 5, 6], 
          "node_row_ptr": [0, 1, 2, 3, 4, 5, 6, 7, 10, 11], 
          "heads": [[8, 0, 0]]
        }
      ]
    }, 
    {
      "op": "null", 
      "name": "ssd0_mobilenet0_conv16_weight", 
      "attrs": {
        "__dtype__": "0", 
        "__lr_mult__": "1.0", 
        "__shape__": "(512, 0, 1, 1)", 
        "__storage_type__": "0", 
        "__wd_mult__": "1.0"
      }, 
      "inputs": []
    }, 
    {
      "op": "null", 
      "name": "ssd0_mobilenet0_batchnorm16_gamma", 
      "attrs": {
        "__dtype__": "0", 
        "__init__": "ones", 
        "__lr_mult__": "1.0", 
        "__shape__": "(0,)", 
        "__storage_type__": "0", 
        "__wd_mult__": "1.0"
      }, 
      "inputs": []
    }, 
    {
      "op": "null", 
      "name": "ssd0_mobilenet0_batchnorm16_beta", 
      "attrs": {
        "__dtype__": "0", 
        "__init__": "zeros", 
        "__lr_mult__": "1.0", 
        "__shape__": "(0,)", 
        "__storage_type__": "0", 
        "__wd_mult__": "1.0"
      }, 
      "inputs": []
    }, 
    {
      "op": "null", 
      "name": "ssd0_mobilenet0_batchnorm16_running_mean", 
      "attrs": {
        "__dtype__": "0", 
        "__init__": "zeros", 
        "__lr_mult__": "1.0", 
        "__shape__": "(0,)", 
        "__storage_type__": "0", 
        "__wd_mult__": "1.0"
      }, 
      "inputs": []
    }, 
    {
      "op": "null", 
      "name": "ssd0_mobilenet0_batchnorm16_running_var", 
      "attrs": {
        "__dtype__": "0", 
        "__init__": "ones", 
        "__lr_mult__": "1.0", 
        "__shape__": "(0,)", 
        "__storage_type__": "0", 
        "__wd_mult__": "1.0"
      }, 
      "inputs": []
    }, 
    {
      "op": "_sg_mkldnn_conv", 
      "name": "quantized_sg_mkldnn_conv_bn_relu_16", 
      "attrs": {
        "max_calib_range": "1.592348", 
        "min_calib_range": "-0.000000", 
        "quantized": "true", 
        "with_bn": "true", 
        "with_relu": "true"
      }, 
      "inputs": [[97, 0, 0], [98, 0, 0], [99, 0, 0], [100, 0, 0], [101, 0, 1], [102, 0, 1], [97, 1, 0], [97, 2, 0]], 
      "subgraphs": [
        {
          "nodes": [
            {
              "op": "null", 
              "name": "sg_mkldnn_conv_bn_relu_15_output0", 
              "inputs": []
            }, 
            {
              "op": "null", 
              "name": "ssd0_mobilenet0_conv16_weight0", 
              "inputs": []
            }, 
            {
              "op": "Convolution", 
              "name": "ssd0_mobilenet0_conv16_fwd", 
              "attrs": {
                "dilate": "(1, 1)", 
                "kernel": "(1, 1)", 
                "layout": "NCHW", 
                "no_bias": "True", 
                "num_filter": "512", 
                "num_group": "1", 
                "pad": "(0, 0)", 
                "stride": "(1, 1)"
              }, 
              "inputs": [[0, 0, 0], [1, 0, 0]]
            }, 
            {
              "op": "null", 
              "name": "ssd0_mobilenet0_batchnorm16_gamma0", 
              "inputs": []
            }, 
            {
              "op": "null", 
              "name": "ssd0_mobilenet0_batchnorm16_beta0", 
              "inputs": []
            }, 
            {
              "op": "null", 
              "name": "ssd0_mobilenet0_batchnorm16_running_mean0", 
              "inputs": []
            }, 
            {
              "op": "null", 
              "name": "ssd0_mobilenet0_batchnorm16_running_var0", 
              "inputs": []
            }, 
            {
              "op": "BatchNorm", 
              "name": "ssd0_mobilenet0_batchnorm16_fwd", 
              "attrs": {
                "axis": "1", 
                "eps": "1e-05", 
                "fix_gamma": "False", 
                "momentum": "0.9", 
                "use_global_stats": "False"
              }, 
              "inputs": [[2, 0, 0], [3, 0, 0], [4, 0, 0], [5, 0, 0], [6, 0, 0]]
            }, 
            {
              "op": "Activation", 
              "name": "ssd0_mobilenet0_relu16_fwd", 
              "attrs": {"act_type": "relu"}, 
              "inputs": [[7, 0, 0]]
            }
          ], 
          "arg_nodes": [0, 1, 3, 4, 5, 6], 
          "node_row_ptr": [0, 1, 2, 3, 4, 5, 6, 7, 10, 11], 
          "heads": [[8, 0, 0]]
        }
      ]
    }, 
    {
      "op": "null", 
      "name": "ssd0_mobilenet0_conv17_weight", 
      "attrs": {
        "__dtype__": "0", 
        "__lr_mult__": "1.0", 
        "__shape__": "(512, 0, 3, 3)", 
        "__storage_type__": "0", 
        "__wd_mult__": "1.0"
      }, 
      "inputs": []
    }, 
    {
      "op": "null", 
      "name": "ssd0_mobilenet0_batchnorm17_gamma", 
      "attrs": {
        "__dtype__": "0", 
        "__init__": "ones", 
        "__lr_mult__": "1.0", 
        "__shape__": "(0,)", 
        "__storage_type__": "0", 
        "__wd_mult__": "1.0"
      }, 
      "inputs": []
    }, 
    {
      "op": "null", 
      "name": "ssd0_mobilenet0_batchnorm17_beta", 
      "attrs": {
        "__dtype__": "0", 
        "__init__": "zeros", 
        "__lr_mult__": "1.0", 
        "__shape__": "(0,)", 
        "__storage_type__": "0", 
        "__wd_mult__": "1.0"
      }, 
      "inputs": []
    }, 
    {
      "op": "null", 
      "name": "ssd0_mobilenet0_batchnorm17_running_mean", 
      "attrs": {
        "__dtype__": "0", 
        "__init__": "zeros", 
        "__lr_mult__": "1.0", 
        "__shape__": "(0,)", 
        "__storage_type__": "0", 
        "__wd_mult__": "1.0"
      }, 
      "inputs": []
    }, 
    {
      "op": "null", 
      "name": "ssd0_mobilenet0_batchnorm17_running_var", 
      "attrs": {
        "__dtype__": "0", 
        "__init__": "ones", 
        "__lr_mult__": "1.0", 
        "__shape__": "(0,)", 
        "__storage_type__": "0", 
        "__wd_mult__": "1.0"
      }, 
      "inputs": []
    }, 
    {
      "op": "_sg_mkldnn_conv", 
      "name": "quantized_sg_mkldnn_conv_bn_relu_17", 
      "attrs": {
        "max_calib_range": "5.516345", 
        "min_calib_range": "-0.000000", 
        "quantized": "true", 
        "with_bn": "true", 
        "with_relu": "true"
      }, 
      "inputs": [[103, 0, 0], [104, 0, 0], [105, 0, 0], [106, 0, 0], [107, 0, 1], [108, 0, 1], [103, 1, 0], [103, 2, 0]], 
      "subgraphs": [
        {
          "nodes": [
            {
              "op": "null", 
              "name": "sg_mkldnn_conv_bn_relu_16_output0", 
              "inputs": []
            }, 
            {
              "op": "null", 
              "name": "ssd0_mobilenet0_conv17_weight0", 
              "inputs": []
            }, 
            {
              "op": "Convolution", 
              "name": "ssd0_mobilenet0_conv17_fwd", 
              "attrs": {
                "dilate": "(1, 1)", 
                "kernel": "(3, 3)", 
                "layout": "NCHW", 
                "no_bias": "True", 
                "num_filter": "512", 
                "num_group": "512", 
                "pad": "(1, 1)", 
                "stride": "(1, 1)"
              }, 
              "inputs": [[0, 0, 0], [1, 0, 0]]
            }, 
            {
              "op": "null", 
              "name": "ssd0_mobilenet0_batchnorm17_gamma0", 
              "inputs": []
            }, 
            {
              "op": "null", 
              "name": "ssd0_mobilenet0_batchnorm17_beta0", 
              "inputs": []
            }, 
            {
              "op": "null", 
              "name": "ssd0_mobilenet0_batchnorm17_running_mean0", 
              "inputs": []
            }, 
            {
              "op": "null", 
              "name": "ssd0_mobilenet0_batchnorm17_running_var0", 
              "inputs": []
            }, 
            {
              "op": "BatchNorm", 
              "name": "ssd0_mobilenet0_batchnorm17_fwd", 
              "attrs": {
                "axis": "1", 
                "eps": "1e-05", 
                "fix_gamma": "False", 
                "momentum": "0.9", 
                "use_global_stats": "False"
              }, 
              "inputs": [[2, 0, 0], [3, 0, 0], [4, 0, 0], [5, 0, 0], [6, 0, 0]]
            }, 
            {
              "op": "Activation", 
              "name": "ssd0_mobilenet0_relu17_fwd", 
              "attrs": {"act_type": "relu"}, 
              "inputs": [[7, 0, 0]]
            }
          ], 
          "arg_nodes": [0, 1, 3, 4, 5, 6], 
          "node_row_ptr": [0, 1, 2, 3, 4, 5, 6, 7, 10, 11], 
          "heads": [[8, 0, 0]]
        }
      ]
    }, 
    {
      "op": "null", 
      "name": "ssd0_mobilenet0_conv18_weight", 
      "attrs": {
        "__dtype__": "0", 
        "__lr_mult__": "1.0", 
        "__shape__": "(512, 0, 1, 1)", 
        "__storage_type__": "0", 
        "__wd_mult__": "1.0"
      }, 
      "inputs": []
    }, 
    {
      "op": "null", 
      "name": "ssd0_mobilenet0_batchnorm18_gamma", 
      "attrs": {
        "__dtype__": "0", 
        "__init__": "ones", 
        "__lr_mult__": "1.0", 
        "__shape__": "(0,)", 
        "__storage_type__": "0", 
        "__wd_mult__": "1.0"
      }, 
      "inputs": []
    }, 
    {
      "op": "null", 
      "name": "ssd0_mobilenet0_batchnorm18_beta", 
      "attrs": {
        "__dtype__": "0", 
        "__init__": "zeros", 
        "__lr_mult__": "1.0", 
        "__shape__": "(0,)", 
        "__storage_type__": "0", 
        "__wd_mult__": "1.0"
      }, 
      "inputs": []
    }, 
    {
      "op": "null", 
      "name": "ssd0_mobilenet0_batchnorm18_running_mean", 
      "attrs": {
        "__dtype__": "0", 
        "__init__": "zeros", 
        "__lr_mult__": "1.0", 
        "__shape__": "(0,)", 
        "__storage_type__": "0", 
        "__wd_mult__": "1.0"
      }, 
      "inputs": []
    }, 
    {
      "op": "null", 
      "name": "ssd0_mobilenet0_batchnorm18_running_var", 
      "attrs": {
        "__dtype__": "0", 
        "__init__": "ones", 
        "__lr_mult__": "1.0", 
        "__shape__": "(0,)", 
        "__storage_type__": "0", 
        "__wd_mult__": "1.0"
      }, 
      "inputs": []
    }, 
    {
      "op": "_sg_mkldnn_conv", 
      "name": "quantized_sg_mkldnn_conv_bn_relu_18", 
      "attrs": {
        "max_calib_range": "1.715310", 
        "min_calib_range": "-0.000000", 
        "quantized": "true", 
        "with_bn": "true", 
        "with_relu": "true"
      }, 
      "inputs": [[109, 0, 0], [110, 0, 0], [111, 0, 0], [112, 0, 0], [113, 0, 1], [114, 0, 1], [109, 1, 0], [109, 2, 0]], 
      "subgraphs": [
        {
          "nodes": [
            {
              "op": "null", 
              "name": "sg_mkldnn_conv_bn_relu_17_output0", 
              "inputs": []
            }, 
            {
              "op": "null", 
              "name": "ssd0_mobilenet0_conv18_weight0", 
              "inputs": []
            }, 
            {
              "op": "Convolution", 
              "name": "ssd0_mobilenet0_conv18_fwd", 
              "attrs": {
                "dilate": "(1, 1)", 
                "kernel": "(1, 1)", 
                "layout": "NCHW", 
                "no_bias": "True", 
                "num_filter": "512", 
                "num_group": "1", 
                "pad": "(0, 0)", 
                "stride": "(1, 1)"
              }, 
              "inputs": [[0, 0, 0], [1, 0, 0]]
            }, 
            {
              "op": "null", 
              "name": "ssd0_mobilenet0_batchnorm18_gamma0", 
              "inputs": []
            }, 
            {
              "op": "null", 
              "name": "ssd0_mobilenet0_batchnorm18_beta0", 
              "inputs": []
            }, 
            {
              "op": "null", 
              "name": "ssd0_mobilenet0_batchnorm18_running_mean0", 
              "inputs": []
            }, 
            {
              "op": "null", 
              "name": "ssd0_mobilenet0_batchnorm18_running_var0", 
              "inputs": []
            }, 
            {
              "op": "BatchNorm", 
              "name": "ssd0_mobilenet0_batchnorm18_fwd", 
              "attrs": {
                "axis": "1", 
                "eps": "1e-05", 
                "fix_gamma": "False", 
                "momentum": "0.9", 
                "use_global_stats": "False"
              }, 
              "inputs": [[2, 0, 0], [3, 0, 0], [4, 0, 0], [5, 0, 0], [6, 0, 0]]
            }, 
            {
              "op": "Activation", 
              "name": "ssd0_mobilenet0_relu18_fwd", 
              "attrs": {"act_type": "relu"}, 
              "inputs": [[7, 0, 0]]
            }
          ], 
          "arg_nodes": [0, 1, 3, 4, 5, 6], 
          "node_row_ptr": [0, 1, 2, 3, 4, 5, 6, 7, 10, 11], 
          "heads": [[8, 0, 0]]
        }
      ]
    }, 
    {
      "op": "null", 
      "name": "ssd0_mobilenet0_conv19_weight", 
      "attrs": {
        "__dtype__": "0", 
        "__lr_mult__": "1.0", 
        "__shape__": "(512, 0, 3, 3)", 
        "__storage_type__": "0", 
        "__wd_mult__": "1.0"
      }, 
      "inputs": []
    }, 
    {
      "op": "null", 
      "name": "ssd0_mobilenet0_batchnorm19_gamma", 
      "attrs": {
        "__dtype__": "0", 
        "__init__": "ones", 
        "__lr_mult__": "1.0", 
        "__shape__": "(0,)", 
        "__storage_type__": "0", 
        "__wd_mult__": "1.0"
      }, 
      "inputs": []
    }, 
    {
      "op": "null", 
      "name": "ssd0_mobilenet0_batchnorm19_beta", 
      "attrs": {
        "__dtype__": "0", 
        "__init__": "zeros", 
        "__lr_mult__": "1.0", 
        "__shape__": "(0,)", 
        "__storage_type__": "0", 
        "__wd_mult__": "1.0"
      }, 
      "inputs": []
    }, 
    {
      "op": "null", 
      "name": "ssd0_mobilenet0_batchnorm19_running_mean", 
      "attrs": {
        "__dtype__": "0", 
        "__init__": "zeros", 
        "__lr_mult__": "1.0", 
        "__shape__": "(0,)", 
        "__storage_type__": "0", 
        "__wd_mult__": "1.0"
      }, 
      "inputs": []
    }, 
    {
      "op": "null", 
      "name": "ssd0_mobilenet0_batchnorm19_running_var", 
      "attrs": {
        "__dtype__": "0", 
        "__init__": "ones", 
        "__lr_mult__": "1.0", 
        "__shape__": "(0,)", 
        "__storage_type__": "0", 
        "__wd_mult__": "1.0"
      }, 
      "inputs": []
    }, 
    {
      "op": "_sg_mkldnn_conv", 
      "name": "quantized_sg_mkldnn_conv_bn_relu_19", 
      "attrs": {
        "max_calib_range": "3.596492", 
        "min_calib_range": "-0.000000", 
        "quantized": "true", 
        "with_bn": "true", 
        "with_relu": "true"
      }, 
      "inputs": [[115, 0, 0], [116, 0, 0], [117, 0, 0], [118, 0, 0], [119, 0, 1], [120, 0, 1], [115, 1, 0], [115, 2, 0]], 
      "subgraphs": [
        {
          "nodes": [
            {
              "op": "null", 
              "name": "sg_mkldnn_conv_bn_relu_18_output0", 
              "inputs": []
            }, 
            {
              "op": "null", 
              "name": "ssd0_mobilenet0_conv19_weight0", 
              "inputs": []
            }, 
            {
              "op": "Convolution", 
              "name": "ssd0_mobilenet0_conv19_fwd", 
              "attrs": {
                "dilate": "(1, 1)", 
                "kernel": "(3, 3)", 
                "layout": "NCHW", 
                "no_bias": "True", 
                "num_filter": "512", 
                "num_group": "512", 
                "pad": "(1, 1)", 
                "stride": "(1, 1)"
              }, 
              "inputs": [[0, 0, 0], [1, 0, 0]]
            }, 
            {
              "op": "null", 
              "name": "ssd0_mobilenet0_batchnorm19_gamma0", 
              "inputs": []
            }, 
            {
              "op": "null", 
              "name": "ssd0_mobilenet0_batchnorm19_beta0", 
              "inputs": []
            }, 
            {
              "op": "null", 
              "name": "ssd0_mobilenet0_batchnorm19_running_mean0", 
              "inputs": []
            }, 
            {
              "op": "null", 
              "name": "ssd0_mobilenet0_batchnorm19_running_var0", 
              "inputs": []
            }, 
            {
              "op": "BatchNorm", 
              "name": "ssd0_mobilenet0_batchnorm19_fwd", 
              "attrs": {
                "axis": "1", 
                "eps": "1e-05", 
                "fix_gamma": "False", 
                "momentum": "0.9", 
                "use_global_stats": "False"
              }, 
              "inputs": [[2, 0, 0], [3, 0, 0], [4, 0, 0], [5, 0, 0], [6, 0, 0]]
            }, 
            {
              "op": "Activation", 
              "name": "ssd0_mobilenet0_relu19_fwd", 
              "attrs": {"act_type": "relu"}, 
              "inputs": [[7, 0, 0]]
            }
          ], 
          "arg_nodes": [0, 1, 3, 4, 5, 6], 
          "node_row_ptr": [0, 1, 2, 3, 4, 5, 6, 7, 10, 11], 
          "heads": [[8, 0, 0]]
        }
      ]
    }, 
    {
      "op": "null", 
      "name": "ssd0_mobilenet0_conv20_weight", 
      "attrs": {
        "__dtype__": "0", 
        "__lr_mult__": "1.0", 
        "__shape__": "(512, 0, 1, 1)", 
        "__storage_type__": "0", 
        "__wd_mult__": "1.0"
      }, 
      "inputs": []
    }, 
    {
      "op": "null", 
      "name": "ssd0_mobilenet0_batchnorm20_gamma", 
      "attrs": {
        "__dtype__": "0", 
        "__init__": "ones", 
        "__lr_mult__": "1.0", 
        "__shape__": "(0,)", 
        "__storage_type__": "0", 
        "__wd_mult__": "1.0"
      }, 
      "inputs": []
    }, 
    {
      "op": "null", 
      "name": "ssd0_mobilenet0_batchnorm20_beta", 
      "attrs": {
        "__dtype__": "0", 
        "__init__": "zeros", 
        "__lr_mult__": "1.0", 
        "__shape__": "(0,)", 
        "__storage_type__": "0", 
        "__wd_mult__": "1.0"
      }, 
      "inputs": []
    }, 
    {
      "op": "null", 
      "name": "ssd0_mobilenet0_batchnorm20_running_mean", 
      "attrs": {
        "__dtype__": "0", 
        "__init__": "zeros", 
        "__lr_mult__": "1.0", 
        "__shape__": "(0,)", 
        "__storage_type__": "0", 
        "__wd_mult__": "1.0"
      }, 
      "inputs": []
    }, 
    {
      "op": "null", 
      "name": "ssd0_mobilenet0_batchnorm20_running_var", 
      "attrs": {
        "__dtype__": "0", 
        "__init__": "ones", 
        "__lr_mult__": "1.0", 
        "__shape__": "(0,)", 
        "__storage_type__": "0", 
        "__wd_mult__": "1.0"
      }, 
      "inputs": []
    }, 
    {
      "op": "_sg_mkldnn_conv", 
      "name": "quantized_sg_mkldnn_conv_bn_relu_20", 
      "attrs": {
        "max_calib_range": "1.897627", 
        "min_calib_range": "-0.000000", 
        "quantized": "true", 
        "with_bn": "true", 
        "with_relu": "true"
      }, 
      "inputs": [[121, 0, 0], [122, 0, 0], [123, 0, 0], [124, 0, 0], [125, 0, 1], [126, 0, 1], [121, 1, 0], [121, 2, 0]], 
      "subgraphs": [
        {
          "nodes": [
            {
              "op": "null", 
              "name": "sg_mkldnn_conv_bn_relu_19_output0", 
              "inputs": []
            }, 
            {
              "op": "null", 
              "name": "ssd0_mobilenet0_conv20_weight0", 
              "inputs": []
            }, 
            {
              "op": "Convolution", 
              "name": "ssd0_mobilenet0_conv20_fwd", 
              "attrs": {
                "dilate": "(1, 1)", 
                "kernel": "(1, 1)", 
                "layout": "NCHW", 
                "no_bias": "True", 
                "num_filter": "512", 
                "num_group": "1", 
                "pad": "(0, 0)", 
                "stride": "(1, 1)"
              }, 
              "inputs": [[0, 0, 0], [1, 0, 0]]
            }, 
            {
              "op": "null", 
              "name": "ssd0_mobilenet0_batchnorm20_gamma0", 
              "inputs": []
            }, 
            {
              "op": "null", 
              "name": "ssd0_mobilenet0_batchnorm20_beta0", 
              "inputs": []
            }, 
            {
              "op": "null", 
              "name": "ssd0_mobilenet0_batchnorm20_running_mean0", 
              "inputs": []
            }, 
            {
              "op": "null", 
              "name": "ssd0_mobilenet0_batchnorm20_running_var0", 
              "inputs": []
            }, 
            {
              "op": "BatchNorm", 
              "name": "ssd0_mobilenet0_batchnorm20_fwd", 
              "attrs": {
                "axis": "1", 
                "eps": "1e-05", 
                "fix_gamma": "False", 
                "momentum": "0.9", 
                "use_global_stats": "False"
              }, 
              "inputs": [[2, 0, 0], [3, 0, 0], [4, 0, 0], [5, 0, 0], [6, 0, 0]]
            }, 
            {
              "op": "Activation", 
              "name": "ssd0_mobilenet0_relu20_fwd", 
              "attrs": {"act_type": "relu"}, 
              "inputs": [[7, 0, 0]]
            }
          ], 
          "arg_nodes": [0, 1, 3, 4, 5, 6], 
          "node_row_ptr": [0, 1, 2, 3, 4, 5, 6, 7, 10, 11], 
          "heads": [[8, 0, 0]]
        }
      ]
    }, 
    {
      "op": "null", 
      "name": "ssd0_mobilenet0_conv21_weight", 
      "attrs": {
        "__dtype__": "0", 
        "__lr_mult__": "1.0", 
        "__shape__": "(512, 0, 3, 3)", 
        "__storage_type__": "0", 
        "__wd_mult__": "1.0"
      }, 
      "inputs": []
    }, 
    {
      "op": "null", 
      "name": "ssd0_mobilenet0_batchnorm21_gamma", 
      "attrs": {
        "__dtype__": "0", 
        "__init__": "ones", 
        "__lr_mult__": "1.0", 
        "__shape__": "(0,)", 
        "__storage_type__": "0", 
        "__wd_mult__": "1.0"
      }, 
      "inputs": []
    }, 
    {
      "op": "null", 
      "name": "ssd0_mobilenet0_batchnorm21_beta", 
      "attrs": {
        "__dtype__": "0", 
        "__init__": "zeros", 
        "__lr_mult__": "1.0", 
        "__shape__": "(0,)", 
        "__storage_type__": "0", 
        "__wd_mult__": "1.0"
      }, 
      "inputs": []
    }, 
    {
      "op": "null", 
      "name": "ssd0_mobilenet0_batchnorm21_running_mean", 
      "attrs": {
        "__dtype__": "0", 
        "__init__": "zeros", 
        "__lr_mult__": "1.0", 
        "__shape__": "(0,)", 
        "__storage_type__": "0", 
        "__wd_mult__": "1.0"
      }, 
      "inputs": []
    }, 
    {
      "op": "null", 
      "name": "ssd0_mobilenet0_batchnorm21_running_var", 
      "attrs": {
        "__dtype__": "0", 
        "__init__": "ones", 
        "__lr_mult__": "1.0", 
        "__shape__": "(0,)", 
        "__storage_type__": "0", 
        "__wd_mult__": "1.0"
      }, 
      "inputs": []
    }, 
    {
      "op": "_sg_mkldnn_conv", 
      "name": "quantized_sg_mkldnn_conv_bn_relu_21", 
      "attrs": {
        "max_calib_range": "3.805538", 
        "min_calib_range": "-0.000000", 
        "quantized": "true", 
        "with_bn": "true", 
        "with_relu": "true"
      }, 
      "inputs": [[127, 0, 0], [128, 0, 0], [129, 0, 0], [130, 0, 0], [131, 0, 1], [132, 0, 1], [127, 1, 0], [127, 2, 0]], 
      "subgraphs": [
        {
          "nodes": [
            {
              "op": "null", 
              "name": "sg_mkldnn_conv_bn_relu_20_output0", 
              "inputs": []
            }, 
            {
              "op": "null", 
              "name": "ssd0_mobilenet0_conv21_weight0", 
              "inputs": []
            }, 
            {
              "op": "Convolution", 
              "name": "ssd0_mobilenet0_conv21_fwd", 
              "attrs": {
                "dilate": "(1, 1)", 
                "kernel": "(3, 3)", 
                "layout": "NCHW", 
                "no_bias": "True", 
                "num_filter": "512", 
                "num_group": "512", 
                "pad": "(1, 1)", 
                "stride": "(1, 1)"
              }, 
              "inputs": [[0, 0, 0], [1, 0, 0]]
            }, 
            {
              "op": "null", 
              "name": "ssd0_mobilenet0_batchnorm21_gamma0", 
              "inputs": []
            }, 
            {
              "op": "null", 
              "name": "ssd0_mobilenet0_batchnorm21_beta0", 
              "inputs": []
            }, 
            {
              "op": "null", 
              "name": "ssd0_mobilenet0_batchnorm21_running_mean0", 
              "inputs": []
            }, 
            {
              "op": "null", 
              "name": "ssd0_mobilenet0_batchnorm21_running_var0", 
              "inputs": []
            }, 
            {
              "op": "BatchNorm", 
              "name": "ssd0_mobilenet0_batchnorm21_fwd", 
              "attrs": {
                "axis": "1", 
                "eps": "1e-05", 
                "fix_gamma": "False", 
                "momentum": "0.9", 
                "use_global_stats": "False"
              }, 
              "inputs": [[2, 0, 0], [3, 0, 0], [4, 0, 0], [5, 0, 0], [6, 0, 0]]
            }, 
            {
              "op": "Activation", 
              "name": "ssd0_mobilenet0_relu21_fwd", 
              "attrs": {"act_type": "relu"}, 
              "inputs": [[7, 0, 0]]
            }
          ], 
          "arg_nodes": [0, 1, 3, 4, 5, 6], 
          "node_row_ptr": [0, 1, 2, 3, 4, 5, 6, 7, 10, 11], 
          "heads": [[8, 0, 0]]
        }
      ]
    }, 
    {
      "op": "null", 
      "name": "ssd0_mobilenet0_conv22_weight", 
      "attrs": {
        "__dtype__": "0", 
        "__lr_mult__": "1.0", 
        "__shape__": "(512, 0, 1, 1)", 
        "__storage_type__": "0", 
        "__wd_mult__": "1.0"
      }, 
      "inputs": []
    }, 
    {
      "op": "null", 
      "name": "ssd0_mobilenet0_batchnorm22_gamma", 
      "attrs": {
        "__dtype__": "0", 
        "__init__": "ones", 
        "__lr_mult__": "1.0", 
        "__shape__": "(0,)", 
        "__storage_type__": "0", 
        "__wd_mult__": "1.0"
      }, 
      "inputs": []
    }, 
    {
      "op": "null", 
      "name": "ssd0_mobilenet0_batchnorm22_beta", 
      "attrs": {
        "__dtype__": "0", 
        "__init__": "zeros", 
        "__lr_mult__": "1.0", 
        "__shape__": "(0,)", 
        "__storage_type__": "0", 
        "__wd_mult__": "1.0"
      }, 
      "inputs": []
    }, 
    {
      "op": "null", 
      "name": "ssd0_mobilenet0_batchnorm22_running_mean", 
      "attrs": {
        "__dtype__": "0", 
        "__init__": "zeros", 
        "__lr_mult__": "1.0", 
        "__shape__": "(0,)", 
        "__storage_type__": "0", 
        "__wd_mult__": "1.0"
      }, 
      "inputs": []
    }, 
    {
      "op": "null", 
      "name": "ssd0_mobilenet0_batchnorm22_running_var", 
      "attrs": {
        "__dtype__": "0", 
        "__init__": "ones", 
        "__lr_mult__": "1.0", 
        "__shape__": "(0,)", 
        "__storage_type__": "0", 
        "__wd_mult__": "1.0"
      }, 
      "inputs": []
    }, 
    {
      "op": "_sg_mkldnn_conv", 
      "name": "quantized_sg_mkldnn_conv_bn_relu_22", 
      "attrs": {
        "max_calib_range": "9.088818", 
        "min_calib_range": "-0.000000", 
        "quantized": "true", 
        "with_bn": "true", 
        "with_relu": "true"
      }, 
      "inputs": [[133, 0, 0], [134, 0, 0], [135, 0, 0], [136, 0, 0], [137, 0, 1], [138, 0, 1], [133, 1, 0], [133, 2, 0]], 
      "subgraphs": [
        {
          "nodes": [
            {
              "op": "null", 
              "name": "sg_mkldnn_conv_bn_relu_21_output0", 
              "inputs": []
            }, 
            {
              "op": "null", 
              "name": "ssd0_mobilenet0_conv22_weight0", 
              "inputs": []
            }, 
            {
              "op": "Convolution", 
              "name": "ssd0_mobilenet0_conv22_fwd", 
              "attrs": {
                "dilate": "(1, 1)", 
                "kernel": "(1, 1)", 
                "layout": "NCHW", 
                "no_bias": "True", 
                "num_filter": "512", 
                "num_group": "1", 
                "pad": "(0, 0)", 
                "stride": "(1, 1)"
              }, 
              "inputs": [[0, 0, 0], [1, 0, 0]]
            }, 
            {
              "op": "null", 
              "name": "ssd0_mobilenet0_batchnorm22_gamma0", 
              "inputs": []
            }, 
            {
              "op": "null", 
              "name": "ssd0_mobilenet0_batchnorm22_beta0", 
              "inputs": []
            }, 
            {
              "op": "null", 
              "name": "ssd0_mobilenet0_batchnorm22_running_mean0", 
              "inputs": []
            }, 
            {
              "op": "null", 
              "name": "ssd0_mobilenet0_batchnorm22_running_var0", 
              "inputs": []
            }, 
            {
              "op": "BatchNorm", 
              "name": "ssd0_mobilenet0_batchnorm22_fwd", 
              "attrs": {
                "axis": "1", 
                "eps": "1e-05", 
                "fix_gamma": "False", 
                "momentum": "0.9", 
                "use_global_stats": "False"
              }, 
              "inputs": [[2, 0, 0], [3, 0, 0], [4, 0, 0], [5, 0, 0], [6, 0, 0]]
            }, 
            {
              "op": "Activation", 
              "name": "ssd0_mobilenet0_relu22_fwd", 
              "attrs": {"act_type": "relu"}, 
              "inputs": [[7, 0, 0]]
            }
          ], 
          "arg_nodes": [0, 1, 3, 4, 5, 6], 
          "node_row_ptr": [0, 1, 2, 3, 4, 5, 6, 7, 10, 11], 
          "heads": [[8, 0, 0]]
        }
      ]
    }, 
    {
      "op": "null", 
      "name": "ssd0_convpredictor0_conv0_weight", 
      "attrs": {
        "__dtype__": "0", 
        "__init__": "[\"xavier\", {\"rnd_type\": \"uniform\", \"factor_type\": \"avg\", \"magnitude\": 2}]", 
        "__lr_mult__": "1.0", 
        "__shape__": "(84, 512, 3, 3)", 
        "__storage_type__": "0", 
        "__wd_mult__": "1.0"
      }, 
      "inputs": []
    }, 
    {
      "op": "null", 
      "name": "ssd0_convpredictor0_conv0_bias", 
      "attrs": {
        "__dtype__": "0", 
        "__init__": "zeros", 
        "__lr_mult__": "1.0", 
        "__shape__": "(84,)", 
        "__storage_type__": "0", 
        "__wd_mult__": "1.0"
      }, 
      "inputs": []
    }, 
    {
      "op": "_sg_mkldnn_conv", 
      "name": "quantized_sg_mkldnn_conv_23", 
      "attrs": {
        "max_calib_range": "19.190063", 
        "min_calib_range": "-9.174813", 
        "quantized": "true"
      }, 
      "inputs": [[139, 0, 0], [140, 0, 0], [141, 0, 0], [139, 1, 0], [139, 2, 0]], 
      "subgraphs": [
        {
          "nodes": [
            {
              "op": "null", 
              "name": "sg_mkldnn_conv_bn_relu_22_output0", 
              "inputs": []
            }, 
            {
              "op": "null", 
              "name": "ssd0_convpredictor0_conv0_weight0", 
              "inputs": []
            }, 
            {
              "op": "null", 
              "name": "ssd0_convpredictor0_conv0_bias0", 
              "inputs": []
            }, 
            {
              "op": "Convolution", 
              "name": "ssd0_convpredictor0_conv0_fwd", 
              "attrs": {
                "dilate": "(1, 1)", 
                "kernel": "(3, 3)", 
                "layout": "NCHW", 
                "no_bias": "False", 
                "num_filter": "84", 
                "num_group": "1", 
                "pad": "(1, 1)", 
                "stride": "(1, 1)"
              }, 
              "inputs": [[0, 0, 0], [1, 0, 0], [2, 0, 0]]
            }
          ], 
          "arg_nodes": [0, 1, 2], 
          "node_row_ptr": [0, 1, 2, 3, 4], 
          "heads": [[3, 0, 0]]
        }
      ]
    }, 
    {
      "op": "_contrib_dequantize", 
      "name": "sg_mkldnn_conv_23_dequantize", 
      "inputs": [[142, 0, 0], [142, 1, 0], [142, 2, 0]]
    }, 
    {
      "op": "transpose", 
      "name": "ssd0_transpose0", 
      "attrs": {"axes": "(0, 2, 3, 1)"}, 
      "inputs": [[143, 0, 0]]
    }, 
    {
      "op": "Flatten", 
      "name": "ssd0_flatten0", 
      "inputs": [[144, 0, 0]]
    }, 
    {
      "op": "null", 
      "name": "ssd0_mobilenet0_conv23_weight", 
      "attrs": {
        "__dtype__": "0", 
        "__lr_mult__": "1.0", 
        "__shape__": "(512, 0, 3, 3)", 
        "__storage_type__": "0", 
        "__wd_mult__": "1.0"
      }, 
      "inputs": []
    }, 
    {
      "op": "null", 
      "name": "ssd0_mobilenet0_batchnorm23_gamma", 
      "attrs": {
        "__dtype__": "0", 
        "__init__": "ones", 
        "__lr_mult__": "1.0", 
        "__shape__": "(0,)", 
        "__storage_type__": "0", 
        "__wd_mult__": "1.0"
      }, 
      "inputs": []
    }, 
    {
      "op": "null", 
      "name": "ssd0_mobilenet0_batchnorm23_beta", 
      "attrs": {
        "__dtype__": "0", 
        "__init__": "zeros", 
        "__lr_mult__": "1.0", 
        "__shape__": "(0,)", 
        "__storage_type__": "0", 
        "__wd_mult__": "1.0"
      }, 
      "inputs": []
    }, 
    {
      "op": "null", 
      "name": "ssd0_mobilenet0_batchnorm23_running_mean", 
      "attrs": {
        "__dtype__": "0", 
        "__init__": "zeros", 
        "__lr_mult__": "1.0", 
        "__shape__": "(0,)", 
        "__storage_type__": "0", 
        "__wd_mult__": "1.0"
      }, 
      "inputs": []
    }, 
    {
      "op": "null", 
      "name": "ssd0_mobilenet0_batchnorm23_running_var", 
      "attrs": {
        "__dtype__": "0", 
        "__init__": "ones", 
        "__lr_mult__": "1.0", 
        "__shape__": "(0,)", 
        "__storage_type__": "0", 
        "__wd_mult__": "1.0"
      }, 
      "inputs": []
    }, 
    {
      "op": "_sg_mkldnn_conv", 
      "name": "quantized_sg_mkldnn_conv_bn_relu_24", 
      "attrs": {
        "max_calib_range": "3.597511", 
        "min_calib_range": "-0.000000", 
        "quantized": "true", 
        "with_bn": "true", 
        "with_relu": "true"
      }, 
      "inputs": [[139, 0, 0], [146, 0, 0], [147, 0, 0], [148, 0, 0], [149, 0, 1], [150, 0, 1], [139, 1, 0], [139, 2, 0]], 
      "subgraphs": [
        {
          "nodes": [
            {
              "op": "null", 
              "name": "sg_mkldnn_conv_bn_relu_22_output0", 
              "inputs": []
            }, 
            {
              "op": "null", 
              "name": "ssd0_mobilenet0_conv23_weight0", 
              "inputs": []
            }, 
            {
              "op": "Convolution", 
              "name": "ssd0_mobilenet0_conv23_fwd", 
              "attrs": {
                "dilate": "(1, 1)", 
                "kernel": "(3, 3)", 
                "layout": "NCHW", 
                "no_bias": "True", 
                "num_filter": "512", 
                "num_group": "512", 
                "pad": "(1, 1)", 
                "stride": "(2, 2)"
              }, 
              "inputs": [[0, 0, 0], [1, 0, 0]]
            }, 
            {
              "op": "null", 
              "name": "ssd0_mobilenet0_batchnorm23_gamma0", 
              "inputs": []
            }, 
            {
              "op": "null", 
              "name": "ssd0_mobilenet0_batchnorm23_beta0", 
              "inputs": []
            }, 
            {
              "op": "null", 
              "name": "ssd0_mobilenet0_batchnorm23_running_mean0", 
              "inputs": []
            }, 
            {
              "op": "null", 
              "name": "ssd0_mobilenet0_batchnorm23_running_var0", 
              "inputs": []
            }, 
            {
              "op": "BatchNorm", 
              "name": "ssd0_mobilenet0_batchnorm23_fwd", 
              "attrs": {
                "axis": "1", 
                "eps": "1e-05", 
                "fix_gamma": "False", 
                "momentum": "0.9", 
                "use_global_stats": "False"
              }, 
              "inputs": [[2, 0, 0], [3, 0, 0], [4, 0, 0], [5, 0, 0], [6, 0, 0]]
            }, 
            {
              "op": "Activation", 
              "name": "ssd0_mobilenet0_relu23_fwd", 
              "attrs": {"act_type": "relu"}, 
              "inputs": [[7, 0, 0]]
            }
          ], 
          "arg_nodes": [0, 1, 3, 4, 5, 6], 
          "node_row_ptr": [0, 1, 2, 3, 4, 5, 6, 7, 10, 11], 
          "heads": [[8, 0, 0]]
        }
      ]
    }, 
    {
      "op": "null", 
      "name": "ssd0_mobilenet0_conv24_weight", 
      "attrs": {
        "__dtype__": "0", 
        "__lr_mult__": "1.0", 
        "__shape__": "(1024, 0, 1, 1)", 
        "__storage_type__": "0", 
        "__wd_mult__": "1.0"
      }, 
      "inputs": []
    }, 
    {
      "op": "null", 
      "name": "ssd0_mobilenet0_batchnorm24_gamma", 
      "attrs": {
        "__dtype__": "0", 
        "__init__": "ones", 
        "__lr_mult__": "1.0", 
        "__shape__": "(0,)", 
        "__storage_type__": "0", 
        "__wd_mult__": "1.0"
      }, 
      "inputs": []
    }, 
    {
      "op": "null", 
      "name": "ssd0_mobilenet0_batchnorm24_beta", 
      "attrs": {
        "__dtype__": "0", 
        "__init__": "zeros", 
        "__lr_mult__": "1.0", 
        "__shape__": "(0,)", 
        "__storage_type__": "0", 
        "__wd_mult__": "1.0"
      }, 
      "inputs": []
    }, 
    {
      "op": "null", 
      "name": "ssd0_mobilenet0_batchnorm24_running_mean", 
      "attrs": {
        "__dtype__": "0", 
        "__init__": "zeros", 
        "__lr_mult__": "1.0", 
        "__shape__": "(0,)", 
        "__storage_type__": "0", 
        "__wd_mult__": "1.0"
      }, 
      "inputs": []
    }, 
    {
      "op": "null", 
      "name": "ssd0_mobilenet0_batchnorm24_running_var", 
      "attrs": {
        "__dtype__": "0", 
        "__init__": "ones", 
        "__lr_mult__": "1.0", 
        "__shape__": "(0,)", 
        "__storage_type__": "0", 
        "__wd_mult__": "1.0"
      }, 
      "inputs": []
    }, 
    {
      "op": "_sg_mkldnn_conv", 
      "name": "quantized_sg_mkldnn_conv_bn_relu_25", 
      "attrs": {
        "max_calib_range": "1.158367", 
        "min_calib_range": "-0.000000", 
        "quantized": "true", 
        "with_bn": "true", 
        "with_relu": "true"
      }, 
      "inputs": [[151, 0, 0], [152, 0, 0], [153, 0, 0], [154, 0, 0], [155, 0, 1], [156, 0, 1], [151, 1, 0], [151, 2, 0]], 
      "subgraphs": [
        {
          "nodes": [
            {
              "op": "null", 
              "name": "sg_mkldnn_conv_bn_relu_24_output0", 
              "inputs": []
            }, 
            {
              "op": "null", 
              "name": "ssd0_mobilenet0_conv24_weight0", 
              "inputs": []
            }, 
            {
              "op": "Convolution", 
              "name": "ssd0_mobilenet0_conv24_fwd", 
              "attrs": {
                "dilate": "(1, 1)", 
                "kernel": "(1, 1)", 
                "layout": "NCHW", 
                "no_bias": "True", 
                "num_filter": "1024", 
                "num_group": "1", 
                "pad": "(0, 0)", 
                "stride": "(1, 1)"
              }, 
              "inputs": [[0, 0, 0], [1, 0, 0]]
            }, 
            {
              "op": "null", 
              "name": "ssd0_mobilenet0_batchnorm24_gamma0", 
              "inputs": []
            }, 
            {
              "op": "null", 
              "name": "ssd0_mobilenet0_batchnorm24_beta0", 
              "inputs": []
            }, 
            {
              "op": "null", 
              "name": "ssd0_mobilenet0_batchnorm24_running_mean0", 
              "inputs": []
            }, 
            {
              "op": "null", 
              "name": "ssd0_mobilenet0_batchnorm24_running_var0", 
              "inputs": []
            }, 
            {
              "op": "BatchNorm", 
              "name": "ssd0_mobilenet0_batchnorm24_fwd", 
              "attrs": {
                "axis": "1", 
                "eps": "1e-05", 
                "fix_gamma": "False", 
                "momentum": "0.9", 
                "use_global_stats": "False"
              }, 
              "inputs": [[2, 0, 0], [3, 0, 0], [4, 0, 0], [5, 0, 0], [6, 0, 0]]
            }, 
            {
              "op": "Activation", 
              "name": "ssd0_mobilenet0_relu24_fwd", 
              "attrs": {"act_type": "relu"}, 
              "inputs": [[7, 0, 0]]
            }
          ], 
          "arg_nodes": [0, 1, 3, 4, 5, 6], 
          "node_row_ptr": [0, 1, 2, 3, 4, 5, 6, 7, 10, 11], 
          "heads": [[8, 0, 0]]
        }
      ]
    }, 
    {
      "op": "null", 
      "name": "ssd0_mobilenet0_conv25_weight", 
      "attrs": {
        "__dtype__": "0", 
        "__lr_mult__": "1.0", 
        "__shape__": "(1024, 0, 3, 3)", 
        "__storage_type__": "0", 
        "__wd_mult__": "1.0"
      }, 
      "inputs": []
    }, 
    {
      "op": "null", 
      "name": "ssd0_mobilenet0_batchnorm25_gamma", 
      "attrs": {
        "__dtype__": "0", 
        "__init__": "ones", 
        "__lr_mult__": "1.0", 
        "__shape__": "(0,)", 
        "__storage_type__": "0", 
        "__wd_mult__": "1.0"
      }, 
      "inputs": []
    }, 
    {
      "op": "null", 
      "name": "ssd0_mobilenet0_batchnorm25_beta", 
      "attrs": {
        "__dtype__": "0", 
        "__init__": "zeros", 
        "__lr_mult__": "1.0", 
        "__shape__": "(0,)", 
        "__storage_type__": "0", 
        "__wd_mult__": "1.0"
      }, 
      "inputs": []
    }, 
    {
      "op": "null", 
      "name": "ssd0_mobilenet0_batchnorm25_running_mean", 
      "attrs": {
        "__dtype__": "0", 
        "__init__": "zeros", 
        "__lr_mult__": "1.0", 
        "__shape__": "(0,)", 
        "__storage_type__": "0", 
        "__wd_mult__": "1.0"
      }, 
      "inputs": []
    }, 
    {
      "op": "null", 
      "name": "ssd0_mobilenet0_batchnorm25_running_var", 
      "attrs": {
        "__dtype__": "0", 
        "__init__": "ones", 
        "__lr_mult__": "1.0", 
        "__shape__": "(0,)", 
        "__storage_type__": "0", 
        "__wd_mult__": "1.0"
      }, 
      "inputs": []
    }, 
    {
      "op": "_sg_mkldnn_conv", 
      "name": "quantized_sg_mkldnn_conv_bn_relu_26", 
      "attrs": {
        "max_calib_range": "2.240377", 
        "min_calib_range": "-0.000000", 
        "quantized": "true", 
        "with_bn": "true", 
        "with_relu": "true"
      }, 
      "inputs": [[157, 0, 0], [158, 0, 0], [159, 0, 0], [160, 0, 0], [161, 0, 1], [162, 0, 1], [157, 1, 0], [157, 2, 0]], 
      "subgraphs": [
        {
          "nodes": [
            {
              "op": "null", 
              "name": "sg_mkldnn_conv_bn_relu_25_output0", 
              "inputs": []
            }, 
            {
              "op": "null", 
              "name": "ssd0_mobilenet0_conv25_weight0", 
              "inputs": []
            }, 
            {
              "op": "Convolution", 
              "name": "ssd0_mobilenet0_conv25_fwd", 
              "attrs": {
                "dilate": "(1, 1)", 
                "kernel": "(3, 3)", 
                "layout": "NCHW", 
                "no_bias": "True", 
                "num_filter": "1024", 
                "num_group": "1024", 
                "pad": "(1, 1)", 
                "stride": "(1, 1)"
              }, 
              "inputs": [[0, 0, 0], [1, 0, 0]]
            }, 
            {
              "op": "null", 
              "name": "ssd0_mobilenet0_batchnorm25_gamma0", 
              "inputs": []
            }, 
            {
              "op": "null", 
              "name": "ssd0_mobilenet0_batchnorm25_beta0", 
              "inputs": []
            }, 
            {
              "op": "null", 
              "name": "ssd0_mobilenet0_batchnorm25_running_mean0", 
              "inputs": []
            }, 
            {
              "op": "null", 
              "name": "ssd0_mobilenet0_batchnorm25_running_var0", 
              "inputs": []
            }, 
            {
              "op": "BatchNorm", 
              "name": "ssd0_mobilenet0_batchnorm25_fwd", 
              "attrs": {
                "axis": "1", 
                "eps": "1e-05", 
                "fix_gamma": "False", 
                "momentum": "0.9", 
                "use_global_stats": "False"
              }, 
              "inputs": [[2, 0, 0], [3, 0, 0], [4, 0, 0], [5, 0, 0], [6, 0, 0]]
            }, 
            {
              "op": "Activation", 
              "name": "ssd0_mobilenet0_relu25_fwd", 
              "attrs": {"act_type": "relu"}, 
              "inputs": [[7, 0, 0]]
            }
          ], 
          "arg_nodes": [0, 1, 3, 4, 5, 6], 
          "node_row_ptr": [0, 1, 2, 3, 4, 5, 6, 7, 10, 11], 
          "heads": [[8, 0, 0]]
        }
      ]
    }, 
    {
      "op": "null", 
      "name": "ssd0_mobilenet0_conv26_weight", 
      "attrs": {
        "__dtype__": "0", 
        "__lr_mult__": "1.0", 
        "__shape__": "(1024, 0, 1, 1)", 
        "__storage_type__": "0", 
        "__wd_mult__": "1.0"
      }, 
      "inputs": []
    }, 
    {
      "op": "null", 
      "name": "ssd0_mobilenet0_batchnorm26_gamma", 
      "attrs": {
        "__dtype__": "0", 
        "__init__": "ones", 
        "__lr_mult__": "1.0", 
        "__shape__": "(0,)", 
        "__storage_type__": "0", 
        "__wd_mult__": "1.0"
      }, 
      "inputs": []
    }, 
    {
      "op": "null", 
      "name": "ssd0_mobilenet0_batchnorm26_beta", 
      "attrs": {
        "__dtype__": "0", 
        "__init__": "zeros", 
        "__lr_mult__": "1.0", 
        "__shape__": "(0,)", 
        "__storage_type__": "0", 
        "__wd_mult__": "1.0"
      }, 
      "inputs": []
    }, 
    {
      "op": "null", 
      "name": "ssd0_mobilenet0_batchnorm26_running_mean", 
      "attrs": {
        "__dtype__": "0", 
        "__init__": "zeros", 
        "__lr_mult__": "1.0", 
        "__shape__": "(0,)", 
        "__storage_type__": "0", 
        "__wd_mult__": "1.0"
      }, 
      "inputs": []
    }, 
    {
      "op": "null", 
      "name": "ssd0_mobilenet0_batchnorm26_running_var", 
      "attrs": {
        "__dtype__": "0", 
        "__init__": "ones", 
        "__lr_mult__": "1.0", 
        "__shape__": "(0,)", 
        "__storage_type__": "0", 
        "__wd_mult__": "1.0"
      }, 
      "inputs": []
    }, 
    {
      "op": "_sg_mkldnn_conv", 
      "name": "quantized_sg_mkldnn_conv_bn_relu_27", 
      "attrs": {
        "max_calib_range": "7.350129", 
        "min_calib_range": "-0.000000", 
        "quantized": "true", 
        "with_bn": "true", 
        "with_relu": "true"
      }, 
      "inputs": [[163, 0, 0], [164, 0, 0], [165, 0, 0], [166, 0, 0], [167, 0, 1], [168, 0, 1], [163, 1, 0], [163, 2, 0]], 
      "subgraphs": [
        {
          "nodes": [
            {
              "op": "null", 
              "name": "sg_mkldnn_conv_bn_relu_26_output0", 
              "inputs": []
            }, 
            {
              "op": "null", 
              "name": "ssd0_mobilenet0_conv26_weight0", 
              "inputs": []
            }, 
            {
              "op": "Convolution", 
              "name": "ssd0_mobilenet0_conv26_fwd", 
              "attrs": {
                "dilate": "(1, 1)", 
                "kernel": "(1, 1)", 
                "layout": "NCHW", 
                "no_bias": "True", 
                "num_filter": "1024", 
                "num_group": "1", 
                "pad": "(0, 0)", 
                "stride": "(1, 1)"
              }, 
              "inputs": [[0, 0, 0], [1, 0, 0]]
            }, 
            {
              "op": "null", 
              "name": "ssd0_mobilenet0_batchnorm26_gamma0", 
              "inputs": []
            }, 
            {
              "op": "null", 
              "name": "ssd0_mobilenet0_batchnorm26_beta0", 
              "inputs": []
            }, 
            {
              "op": "null", 
              "name": "ssd0_mobilenet0_batchnorm26_running_mean0", 
              "inputs": []
            }, 
            {
              "op": "null", 
              "name": "ssd0_mobilenet0_batchnorm26_running_var0", 
              "inputs": []
            }, 
            {
              "op": "BatchNorm", 
              "name": "ssd0_mobilenet0_batchnorm26_fwd", 
              "attrs": {
                "axis": "1", 
                "eps": "1e-05", 
                "fix_gamma": "False", 
                "momentum": "0.9", 
                "use_global_stats": "False"
              }, 
              "inputs": [[2, 0, 0], [3, 0, 0], [4, 0, 0], [5, 0, 0], [6, 0, 0]]
            }, 
            {
              "op": "Activation", 
              "name": "ssd0_mobilenet0_relu26_fwd", 
              "attrs": {"act_type": "relu"}, 
              "inputs": [[7, 0, 0]]
            }
          ], 
          "arg_nodes": [0, 1, 3, 4, 5, 6], 
          "node_row_ptr": [0, 1, 2, 3, 4, 5, 6, 7, 10, 11], 
          "heads": [[8, 0, 0]]
        }
      ]
    }, 
    {
      "op": "null", 
      "name": "ssd0_convpredictor2_conv0_weight", 
      "attrs": {
        "__dtype__": "0", 
        "__init__": "[\"xavier\", {\"rnd_type\": \"uniform\", \"factor_type\": \"avg\", \"magnitude\": 2}]", 
        "__lr_mult__": "1.0", 
        "__shape__": "(126, 1024, 3, 3)", 
        "__storage_type__": "0", 
        "__wd_mult__": "1.0"
      }, 
      "inputs": []
    }, 
    {
      "op": "null", 
      "name": "ssd0_convpredictor2_conv0_bias", 
      "attrs": {
        "__dtype__": "0", 
        "__init__": "zeros", 
        "__lr_mult__": "1.0", 
        "__shape__": "(126,)", 
        "__storage_type__": "0", 
        "__wd_mult__": "1.0"
      }, 
      "inputs": []
    }, 
    {
      "op": "_sg_mkldnn_conv", 
      "name": "quantized_sg_mkldnn_conv_28", 
      "attrs": {
        "max_calib_range": "38.167236", 
        "min_calib_range": "-20.917624", 
        "quantized": "true"
      }, 
      "inputs": [[169, 0, 0], [170, 0, 0], [171, 0, 0], [169, 1, 0], [169, 2, 0]], 
      "subgraphs": [
        {
          "nodes": [
            {
              "op": "null", 
              "name": "sg_mkldnn_conv_bn_relu_27_output0", 
              "inputs": []
            }, 
            {
              "op": "null", 
              "name": "ssd0_convpredictor2_conv0_weight0", 
              "inputs": []
            }, 
            {
              "op": "null", 
              "name": "ssd0_convpredictor2_conv0_bias0", 
              "inputs": []
            }, 
            {
              "op": "Convolution", 
              "name": "ssd0_convpredictor2_conv0_fwd", 
              "attrs": {
                "dilate": "(1, 1)", 
                "kernel": "(3, 3)", 
                "layout": "NCHW", 
                "no_bias": "False", 
                "num_filter": "126", 
                "num_group": "1", 
                "pad": "(1, 1)", 
                "stride": "(1, 1)"
              }, 
              "inputs": [[0, 0, 0], [1, 0, 0], [2, 0, 0]]
            }
          ], 
          "arg_nodes": [0, 1, 2], 
          "node_row_ptr": [0, 1, 2, 3, 4], 
          "heads": [[3, 0, 0]]
        }
      ]
    }, 
    {
      "op": "_contrib_dequantize", 
      "name": "sg_mkldnn_conv_28_dequantize", 
      "inputs": [[172, 0, 0], [172, 1, 0], [172, 2, 0]]
    }, 
    {
      "op": "transpose", 
      "name": "ssd0_transpose1", 
      "attrs": {"axes": "(0, 2, 3, 1)"}, 
      "inputs": [[173, 0, 0]]
    }, 
    {
      "op": "Flatten", 
      "name": "ssd0_flatten1", 
      "inputs": [[174, 0, 0]]
    }, 
    {
      "op": "null", 
      "name": "ssd0_expand_trans_conv0_weight", 
      "attrs": {
        "__init__": "<mxnet.initializer.Xavier object at 0x7f823a6c93c8>", 
        "kernel": "(1, 1)", 
        "no_bias": "True", 
        "num_filter": "512"
      }, 
      "inputs": []
    }, 
    {
      "op": "null", 
      "name": "ssd0_expand_trans_bn0_gamma", 
      "inputs": []
    }, 
    {
      "op": "null", 
      "name": "ssd0_expand_trans_bn0_beta", 
      "inputs": []
    }, 
    {
      "op": "null", 
      "name": "ssd0_expand_trans_bn0_moving_mean", 
      "attrs": {"__init__": "[\"zero\", {}]"}, 
      "inputs": []
    }, 
    {
      "op": "null", 
      "name": "ssd0_expand_trans_bn0_moving_var", 
      "attrs": {"__init__": "[\"one\", {}]"}, 
      "inputs": []
    }, 
    {
      "op": "_sg_mkldnn_conv", 
      "name": "quantized_sg_mkldnn_conv_bn_relu_29", 
      "attrs": {
        "max_calib_range": "7.552732", 
        "min_calib_range": "-0.000000", 
        "quantized": "true", 
        "with_bn": "true", 
        "with_relu": "true"
      }, 
      "inputs": [[169, 0, 0], [176, 0, 0], [177, 0, 0], [178, 0, 0], [179, 0, 1], [180, 0, 1], [169, 1, 0], [169, 2, 0]], 
      "subgraphs": [
        {
          "nodes": [
            {
              "op": "null", 
              "name": "sg_mkldnn_conv_bn_relu_27_output0", 
              "inputs": []
            }, 
            {
              "op": "null", 
              "name": "ssd0_expand_trans_conv0_weight0", 
              "inputs": []
            }, 
            {
              "op": "Convolution", 
              "name": "ssd0_expand_trans_conv0", 
              "attrs": {
                "__init__": "<mxnet.initializer.Xavier object at 0x7f823a6c93c8>", 
                "kernel": "(1, 1)", 
                "no_bias": "True", 
                "num_filter": "512"
              }, 
              "inputs": [[0, 0, 0], [1, 0, 0]]
            }, 
            {
              "op": "null", 
              "name": "ssd0_expand_trans_bn0_gamma0", 
              "inputs": []
            }, 
            {
              "op": "null", 
              "name": "ssd0_expand_trans_bn0_beta0", 
              "inputs": []
            }, 
            {
              "op": "null", 
              "name": "ssd0_expand_trans_bn0_moving_mean0", 
              "inputs": []
            }, 
            {
              "op": "null", 
              "name": "ssd0_expand_trans_bn0_moving_var0", 
              "inputs": []
            }, 
            {
              "op": "BatchNorm", 
              "name": "ssd0_expand_trans_bn0", 
              "inputs": [[2, 0, 0], [3, 0, 0], [4, 0, 0], [5, 0, 0], [6, 0, 0]]
            }, 
            {
              "op": "Activation", 
              "name": "ssd0_expand_trans_relu0", 
              "attrs": {"act_type": "relu"}, 
              "inputs": [[7, 0, 0]]
            }
          ], 
          "arg_nodes": [0, 1, 3, 4, 5, 6], 
          "node_row_ptr": [0, 1, 2, 3, 4, 5, 6, 7, 10, 11], 
          "heads": [[8, 0, 0]]
        }
      ]
    }, 
    {
      "op": "null", 
      "name": "ssd0_expand_conv0_weight", 
      "attrs": {
        "__init__": "<mxnet.initializer.Xavier object at 0x7f823a6c93c8>", 
        "kernel": "(3, 3)", 
        "no_bias": "True", 
        "num_filter": "512", 
        "pad": "(1, 1)", 
        "stride": "(2, 2)"
      }, 
      "inputs": []
    }, 
    {
      "op": "null", 
      "name": "ssd0_expand_bn0_gamma", 
      "inputs": []
    }, 
    {
      "op": "null", 
      "name": "ssd0_expand_bn0_beta", 
      "inputs": []
    }, 
    {
      "op": "null", 
      "name": "ssd0_expand_bn0_moving_mean", 
      "attrs": {"__init__": "[\"zero\", {}]"}, 
      "inputs": []
    }, 
    {
      "op": "null", 
      "name": "ssd0_expand_bn0_moving_var", 
      "attrs": {"__init__": "[\"one\", {}]"}, 
      "inputs": []
    }, 
    {
      "op": "_sg_mkldnn_conv", 
      "name": "quantized_sg_mkldnn_conv_bn_relu_30", 
      "attrs": {
        "max_calib_range": "8.410916", 
        "min_calib_range": "-0.000000", 
        "quantized": "true", 
        "with_bn": "true", 
        "with_relu": "true"
      }, 
      "inputs": [[181, 0, 0], [182, 0, 0], [183, 0, 0], [184, 0, 0], [185, 0, 1], [186, 0, 1], [181, 1, 0], [181, 2, 0]], 
      "subgraphs": [
        {
          "nodes": [
            {
              "op": "null", 
              "name": "sg_mkldnn_conv_bn_relu_29_output0", 
              "inputs": []
            }, 
            {
              "op": "null", 
              "name": "ssd0_expand_conv0_weight0", 
              "inputs": []
            }, 
            {
              "op": "Convolution", 
              "name": "ssd0_expand_conv0", 
              "attrs": {
                "__init__": "<mxnet.initializer.Xavier object at 0x7f823a6c93c8>", 
                "kernel": "(3, 3)", 
                "no_bias": "True", 
                "num_filter": "512", 
                "pad": "(1, 1)", 
                "stride": "(2, 2)"
              }, 
              "inputs": [[0, 0, 0], [1, 0, 0]]
            }, 
            {
              "op": "null", 
              "name": "ssd0_expand_bn0_gamma0", 
              "inputs": []
            }, 
            {
              "op": "null", 
              "name": "ssd0_expand_bn0_beta0", 
              "inputs": []
            }, 
            {
              "op": "null", 
              "name": "ssd0_expand_bn0_moving_mean0", 
              "inputs": []
            }, 
            {
              "op": "null", 
              "name": "ssd0_expand_bn0_moving_var0", 
              "inputs": []
            }, 
            {
              "op": "BatchNorm", 
              "name": "ssd0_expand_bn0", 
              "inputs": [[2, 0, 0], [3, 0, 0], [4, 0, 0], [5, 0, 0], [6, 0, 0]]
            }, 
            {
              "op": "Activation", 
              "name": "ssd0_expand_reu0", 
              "attrs": {"act_type": "relu"}, 
              "inputs": [[7, 0, 0]]
            }
          ], 
          "arg_nodes": [0, 1, 3, 4, 5, 6], 
          "node_row_ptr": [0, 1, 2, 3, 4, 5, 6, 7, 10, 11], 
          "heads": [[8, 0, 0]]
        }
      ]
    }, 
    {
      "op": "null", 
      "name": "ssd0_convpredictor4_conv0_weight", 
      "attrs": {
        "__dtype__": "0", 
        "__init__": "[\"xavier\", {\"rnd_type\": \"uniform\", \"factor_type\": \"avg\", \"magnitude\": 2}]", 
        "__lr_mult__": "1.0", 
        "__shape__": "(126, 512, 3, 3)", 
        "__storage_type__": "0", 
        "__wd_mult__": "1.0"
      }, 
      "inputs": []
    }, 
    {
      "op": "null", 
      "name": "ssd0_convpredictor4_conv0_bias", 
      "attrs": {
        "__dtype__": "0", 
        "__init__": "zeros", 
        "__lr_mult__": "1.0", 
        "__shape__": "(126,)", 
        "__storage_type__": "0", 
        "__wd_mult__": "1.0"
      }, 
      "inputs": []
    }, 
    {
      "op": "_sg_mkldnn_conv", 
      "name": "quantized_sg_mkldnn_conv_31", 
      "attrs": {
        "max_calib_range": "21.583117", 
        "min_calib_range": "-9.307992", 
        "quantized": "true"
      }, 
      "inputs": [[187, 0, 0], [188, 0, 0], [189, 0, 0], [187, 1, 0], [187, 2, 0]], 
      "subgraphs": [
        {
          "nodes": [
            {
              "op": "null", 
              "name": "sg_mkldnn_conv_bn_relu_30_output0", 
              "inputs": []
            }, 
            {
              "op": "null", 
              "name": "ssd0_convpredictor4_conv0_weight0", 
              "inputs": []
            }, 
            {
              "op": "null", 
              "name": "ssd0_convpredictor4_conv0_bias0", 
              "inputs": []
            }, 
            {
              "op": "Convolution", 
              "name": "ssd0_convpredictor4_conv0_fwd", 
              "attrs": {
                "dilate": "(1, 1)", 
                "kernel": "(3, 3)", 
                "layout": "NCHW", 
                "no_bias": "False", 
                "num_filter": "126", 
                "num_group": "1", 
                "pad": "(1, 1)", 
                "stride": "(1, 1)"
              }, 
              "inputs": [[0, 0, 0], [1, 0, 0], [2, 0, 0]]
            }
          ], 
          "arg_nodes": [0, 1, 2], 
          "node_row_ptr": [0, 1, 2, 3, 4], 
          "heads": [[3, 0, 0]]
        }
      ]
    }, 
    {
      "op": "_contrib_dequantize", 
      "name": "sg_mkldnn_conv_31_dequantize", 
      "inputs": [[190, 0, 0], [190, 1, 0], [190, 2, 0]]
    }, 
    {
      "op": "transpose", 
      "name": "ssd0_transpose2", 
      "attrs": {"axes": "(0, 2, 3, 1)"}, 
      "inputs": [[191, 0, 0]]
    }, 
    {
      "op": "Flatten", 
      "name": "ssd0_flatten2", 
      "inputs": [[192, 0, 0]]
    }, 
    {
      "op": "null", 
      "name": "ssd0_expand_trans_conv1_weight", 
      "attrs": {
        "__init__": "<mxnet.initializer.Xavier object at 0x7f823a6c93c8>", 
        "kernel": "(1, 1)", 
        "no_bias": "True", 
        "num_filter": "512"
      }, 
      "inputs": []
    }, 
    {
      "op": "null", 
      "name": "ssd0_expand_trans_bn1_gamma", 
      "inputs": []
    }, 
    {
      "op": "null", 
      "name": "ssd0_expand_trans_bn1_beta", 
      "inputs": []
    }, 
    {
      "op": "null", 
      "name": "ssd0_expand_trans_bn1_moving_mean", 
      "attrs": {"__init__": "[\"zero\", {}]"}, 
      "inputs": []
    }, 
    {
      "op": "null", 
      "name": "ssd0_expand_trans_bn1_moving_var", 
      "attrs": {"__init__": "[\"one\", {}]"}, 
      "inputs": []
    }, 
    {
      "op": "_sg_mkldnn_conv", 
      "name": "quantized_sg_mkldnn_conv_bn_relu_32", 
      "attrs": {
        "max_calib_range": "7.923760", 
        "min_calib_range": "-0.000000", 
        "quantized": "true", 
        "with_bn": "true", 
        "with_relu": "true"
      }, 
      "inputs": [[187, 0, 0], [194, 0, 0], [195, 0, 0], [196, 0, 0], [197, 0, 1], [198, 0, 1], [187, 1, 0], [187, 2, 0]], 
      "subgraphs": [
        {
          "nodes": [
            {
              "op": "null", 
              "name": "sg_mkldnn_conv_bn_relu_30_output0", 
              "inputs": []
            }, 
            {
              "op": "null", 
              "name": "ssd0_expand_trans_conv1_weight0", 
              "inputs": []
            }, 
            {
              "op": "Convolution", 
              "name": "ssd0_expand_trans_conv1", 
              "attrs": {
                "__init__": "<mxnet.initializer.Xavier object at 0x7f823a6c93c8>", 
                "kernel": "(1, 1)", 
                "no_bias": "True", 
                "num_filter": "512"
              }, 
              "inputs": [[0, 0, 0], [1, 0, 0]]
            }, 
            {
              "op": "null", 
              "name": "ssd0_expand_trans_bn1_gamma0", 
              "inputs": []
            }, 
            {
              "op": "null", 
              "name": "ssd0_expand_trans_bn1_beta0", 
              "inputs": []
            }, 
            {
              "op": "null", 
              "name": "ssd0_expand_trans_bn1_moving_mean0", 
              "inputs": []
            }, 
            {
              "op": "null", 
              "name": "ssd0_expand_trans_bn1_moving_var0", 
              "inputs": []
            }, 
            {
              "op": "BatchNorm", 
              "name": "ssd0_expand_trans_bn1", 
              "inputs": [[2, 0, 0], [3, 0, 0], [4, 0, 0], [5, 0, 0], [6, 0, 0]]
            }, 
            {
              "op": "Activation", 
              "name": "ssd0_expand_trans_relu1", 
              "attrs": {"act_type": "relu"}, 
              "inputs": [[7, 0, 0]]
            }
          ], 
          "arg_nodes": [0, 1, 3, 4, 5, 6], 
          "node_row_ptr": [0, 1, 2, 3, 4, 5, 6, 7, 10, 11], 
          "heads": [[8, 0, 0]]
        }
      ]
    }, 
    {
      "op": "null", 
      "name": "ssd0_expand_conv1_weight", 
      "attrs": {
        "__init__": "<mxnet.initializer.Xavier object at 0x7f823a6c93c8>", 
        "kernel": "(3, 3)", 
        "no_bias": "True", 
        "num_filter": "512", 
        "pad": "(1, 1)", 
        "stride": "(2, 2)"
      }, 
      "inputs": []
    }, 
    {
      "op": "null", 
      "name": "ssd0_expand_bn1_gamma", 
      "inputs": []
    }, 
    {
      "op": "null", 
      "name": "ssd0_expand_bn1_beta", 
      "inputs": []
    }, 
    {
      "op": "null", 
      "name": "ssd0_expand_bn1_moving_mean", 
      "attrs": {"__init__": "[\"zero\", {}]"}, 
      "inputs": []
    }, 
    {
      "op": "null", 
      "name": "ssd0_expand_bn1_moving_var", 
      "attrs": {"__init__": "[\"one\", {}]"}, 
      "inputs": []
    }, 
    {
      "op": "_sg_mkldnn_conv", 
      "name": "quantized_sg_mkldnn_conv_bn_relu_33", 
      "attrs": {
        "max_calib_range": "8.464465", 
        "min_calib_range": "-0.000000", 
        "quantized": "true", 
        "with_bn": "true", 
        "with_relu": "true"
      }, 
      "inputs": [[199, 0, 0], [200, 0, 0], [201, 0, 0], [202, 0, 0], [203, 0, 1], [204, 0, 1], [199, 1, 0], [199, 2, 0]], 
      "subgraphs": [
        {
          "nodes": [
            {
              "op": "null", 
              "name": "sg_mkldnn_conv_bn_relu_32_output0", 
              "inputs": []
            }, 
            {
              "op": "null", 
              "name": "ssd0_expand_conv1_weight0", 
              "inputs": []
            }, 
            {
              "op": "Convolution", 
              "name": "ssd0_expand_conv1", 
              "attrs": {
                "__init__": "<mxnet.initializer.Xavier object at 0x7f823a6c93c8>", 
                "kernel": "(3, 3)", 
                "no_bias": "True", 
                "num_filter": "512", 
                "pad": "(1, 1)", 
                "stride": "(2, 2)"
              }, 
              "inputs": [[0, 0, 0], [1, 0, 0]]
            }, 
            {
              "op": "null", 
              "name": "ssd0_expand_bn1_gamma0", 
              "inputs": []
            }, 
            {
              "op": "null", 
              "name": "ssd0_expand_bn1_beta0", 
              "inputs": []
            }, 
            {
              "op": "null", 
              "name": "ssd0_expand_bn1_moving_mean0", 
              "inputs": []
            }, 
            {
              "op": "null", 
              "name": "ssd0_expand_bn1_moving_var0", 
              "inputs": []
            }, 
            {
              "op": "BatchNorm", 
              "name": "ssd0_expand_bn1", 
              "inputs": [[2, 0, 0], [3, 0, 0], [4, 0, 0], [5, 0, 0], [6, 0, 0]]
            }, 
            {
              "op": "Activation", 
              "name": "ssd0_expand_reu1", 
              "attrs": {"act_type": "relu"}, 
              "inputs": [[7, 0, 0]]
            }
          ], 
          "arg_nodes": [0, 1, 3, 4, 5, 6], 
          "node_row_ptr": [0, 1, 2, 3, 4, 5, 6, 7, 10, 11], 
          "heads": [[8, 0, 0]]
        }
      ]
    }, 
    {
      "op": "null", 
      "name": "ssd0_convpredictor6_conv0_weight", 
      "attrs": {
        "__dtype__": "0", 
        "__init__": "[\"xavier\", {\"rnd_type\": \"uniform\", \"factor_type\": \"avg\", \"magnitude\": 2}]", 
        "__lr_mult__": "1.0", 
        "__shape__": "(126, 512, 3, 3)", 
        "__storage_type__": "0", 
        "__wd_mult__": "1.0"
      }, 
      "inputs": []
    }, 
    {
      "op": "null", 
      "name": "ssd0_convpredictor6_conv0_bias", 
      "attrs": {
        "__dtype__": "0", 
        "__init__": "zeros", 
        "__lr_mult__": "1.0", 
        "__shape__": "(126,)", 
        "__storage_type__": "0", 
        "__wd_mult__": "1.0"
      }, 
      "inputs": []
    }, 
    {
      "op": "_sg_mkldnn_conv", 
      "name": "quantized_sg_mkldnn_conv_34", 
      "attrs": {
        "max_calib_range": "17.421074", 
        "min_calib_range": "-9.638062", 
        "quantized": "true"
      }, 
      "inputs": [[205, 0, 0], [206, 0, 0], [207, 0, 0], [205, 1, 0], [205, 2, 0]], 
      "subgraphs": [
        {
          "nodes": [
            {
              "op": "null", 
              "name": "sg_mkldnn_conv_bn_relu_33_output0", 
              "inputs": []
            }, 
            {
              "op": "null", 
              "name": "ssd0_convpredictor6_conv0_weight0", 
              "inputs": []
            }, 
            {
              "op": "null", 
              "name": "ssd0_convpredictor6_conv0_bias0", 
              "inputs": []
            }, 
            {
              "op": "Convolution", 
              "name": "ssd0_convpredictor6_conv0_fwd", 
              "attrs": {
                "dilate": "(1, 1)", 
                "kernel": "(3, 3)", 
                "layout": "NCHW", 
                "no_bias": "False", 
                "num_filter": "126", 
                "num_group": "1", 
                "pad": "(1, 1)", 
                "stride": "(1, 1)"
              }, 
              "inputs": [[0, 0, 0], [1, 0, 0], [2, 0, 0]]
            }
          ], 
          "arg_nodes": [0, 1, 2], 
          "node_row_ptr": [0, 1, 2, 3, 4], 
          "heads": [[3, 0, 0]]
        }
      ]
    }, 
    {
      "op": "_contrib_dequantize", 
      "name": "sg_mkldnn_conv_34_dequantize", 
      "inputs": [[208, 0, 0], [208, 1, 0], [208, 2, 0]]
    }, 
    {
      "op": "transpose", 
      "name": "ssd0_transpose3", 
      "attrs": {"axes": "(0, 2, 3, 1)"}, 
      "inputs": [[209, 0, 0]]
    }, 
    {
      "op": "Flatten", 
      "name": "ssd0_flatten3", 
      "inputs": [[210, 0, 0]]
    }, 
    {
      "op": "null", 
      "name": "ssd0_expand_trans_conv2_weight", 
      "attrs": {
        "__init__": "<mxnet.initializer.Xavier object at 0x7f823a6c93c8>", 
        "kernel": "(1, 1)", 
        "no_bias": "True", 
        "num_filter": "256"
      }, 
      "inputs": []
    }, 
    {
      "op": "null", 
      "name": "ssd0_expand_trans_bn2_gamma", 
      "inputs": []
    }, 
    {
      "op": "null", 
      "name": "ssd0_expand_trans_bn2_beta", 
      "inputs": []
    }, 
    {
      "op": "null", 
      "name": "ssd0_expand_trans_bn2_moving_mean", 
      "attrs": {"__init__": "[\"zero\", {}]"}, 
      "inputs": []
    }, 
    {
      "op": "null", 
      "name": "ssd0_expand_trans_bn2_moving_var", 
      "attrs": {"__init__": "[\"one\", {}]"}, 
      "inputs": []
    }, 
    {
      "op": "_sg_mkldnn_conv", 
      "name": "quantized_sg_mkldnn_conv_bn_relu_35", 
      "attrs": {
        "max_calib_range": "8.838045", 
        "min_calib_range": "-0.000000", 
        "quantized": "true", 
        "with_bn": "true", 
        "with_relu": "true"
      }, 
      "inputs": [[205, 0, 0], [212, 0, 0], [213, 0, 0], [214, 0, 0], [215, 0, 1], [216, 0, 1], [205, 1, 0], [205, 2, 0]], 
      "subgraphs": [
        {
          "nodes": [
            {
              "op": "null", 
              "name": "sg_mkldnn_conv_bn_relu_33_output0", 
              "inputs": []
            }, 
            {
              "op": "null", 
              "name": "ssd0_expand_trans_conv2_weight0", 
              "inputs": []
            }, 
            {
              "op": "Convolution", 
              "name": "ssd0_expand_trans_conv2", 
              "attrs": {
                "__init__": "<mxnet.initializer.Xavier object at 0x7f823a6c93c8>", 
                "kernel": "(1, 1)", 
                "no_bias": "True", 
                "num_filter": "256"
              }, 
              "inputs": [[0, 0, 0], [1, 0, 0]]
            }, 
            {
              "op": "null", 
              "name": "ssd0_expand_trans_bn2_gamma0", 
              "inputs": []
            }, 
            {
              "op": "null", 
              "name": "ssd0_expand_trans_bn2_beta0", 
              "inputs": []
            }, 
            {
              "op": "null", 
              "name": "ssd0_expand_trans_bn2_moving_mean0", 
              "inputs": []
            }, 
            {
              "op": "null", 
              "name": "ssd0_expand_trans_bn2_moving_var0", 
              "inputs": []
            }, 
            {
              "op": "BatchNorm", 
              "name": "ssd0_expand_trans_bn2", 
              "inputs": [[2, 0, 0], [3, 0, 0], [4, 0, 0], [5, 0, 0], [6, 0, 0]]
            }, 
            {
              "op": "Activation", 
              "name": "ssd0_expand_trans_relu2", 
              "attrs": {"act_type": "relu"}, 
              "inputs": [[7, 0, 0]]
            }
          ], 
          "arg_nodes": [0, 1, 3, 4, 5, 6], 
          "node_row_ptr": [0, 1, 2, 3, 4, 5, 6, 7, 10, 11], 
          "heads": [[8, 0, 0]]
        }
      ]
    }, 
    {
      "op": "null", 
      "name": "ssd0_expand_conv2_weight", 
      "attrs": {
        "__init__": "<mxnet.initializer.Xavier object at 0x7f823a6c93c8>", 
        "kernel": "(3, 3)", 
        "no_bias": "True", 
        "num_filter": "256", 
        "pad": "(1, 1)", 
        "stride": "(2, 2)"
      }, 
      "inputs": []
    }, 
    {
      "op": "null", 
      "name": "ssd0_expand_bn2_gamma", 
      "inputs": []
    }, 
    {
      "op": "null", 
      "name": "ssd0_expand_bn2_beta", 
      "inputs": []
    }, 
    {
      "op": "null", 
      "name": "ssd0_expand_bn2_moving_mean", 
      "attrs": {"__init__": "[\"zero\", {}]"}, 
      "inputs": []
    }, 
    {
      "op": "null", 
      "name": "ssd0_expand_bn2_moving_var", 
      "attrs": {"__init__": "[\"one\", {}]"}, 
      "inputs": []
    }, 
    {
      "op": "_sg_mkldnn_conv", 
      "name": "quantized_sg_mkldnn_conv_bn_relu_36", 
      "attrs": {
        "max_calib_range": "7.621830", 
        "min_calib_range": "-0.000000", 
        "quantized": "true", 
        "with_bn": "true", 
        "with_relu": "true"
      }, 
      "inputs": [[217, 0, 0], [218, 0, 0], [219, 0, 0], [220, 0, 0], [221, 0, 1], [222, 0, 1], [217, 1, 0], [217, 2, 0]], 
      "subgraphs": [
        {
          "nodes": [
            {
              "op": "null", 
              "name": "sg_mkldnn_conv_bn_relu_35_output0", 
              "inputs": []
            }, 
            {
              "op": "null", 
              "name": "ssd0_expand_conv2_weight0", 
              "inputs": []
            }, 
            {
              "op": "Convolution", 
              "name": "ssd0_expand_conv2", 
              "attrs": {
                "__init__": "<mxnet.initializer.Xavier object at 0x7f823a6c93c8>", 
                "kernel": "(3, 3)", 
                "no_bias": "True", 
                "num_filter": "256", 
                "pad": "(1, 1)", 
                "stride": "(2, 2)"
              }, 
              "inputs": [[0, 0, 0], [1, 0, 0]]
            }, 
            {
              "op": "null", 
              "name": "ssd0_expand_bn2_gamma0", 
              "inputs": []
            }, 
            {
              "op": "null", 
              "name": "ssd0_expand_bn2_beta0", 
              "inputs": []
            }, 
            {
              "op": "null", 
              "name": "ssd0_expand_bn2_moving_mean0", 
              "inputs": []
            }, 
            {
              "op": "null", 
              "name": "ssd0_expand_bn2_moving_var0", 
              "inputs": []
            }, 
            {
              "op": "BatchNorm", 
              "name": "ssd0_expand_bn2", 
              "inputs": [[2, 0, 0], [3, 0, 0], [4, 0, 0], [5, 0, 0], [6, 0, 0]]
            }, 
            {
              "op": "Activation", 
              "name": "ssd0_expand_reu2", 
              "attrs": {"act_type": "relu"}, 
              "inputs": [[7, 0, 0]]
            }
          ], 
          "arg_nodes": [0, 1, 3, 4, 5, 6], 
          "node_row_ptr": [0, 1, 2, 3, 4, 5, 6, 7, 10, 11], 
          "heads": [[8, 0, 0]]
        }
      ]
    }, 
    {
      "op": "null", 
      "name": "ssd0_convpredictor8_conv0_weight", 
      "attrs": {
        "__dtype__": "0", 
        "__init__": "[\"xavier\", {\"rnd_type\": \"uniform\", \"factor_type\": \"avg\", \"magnitude\": 2}]", 
        "__lr_mult__": "1.0", 
        "__shape__": "(84, 256, 3, 3)", 
        "__storage_type__": "0", 
        "__wd_mult__": "1.0"
      }, 
      "inputs": []
    }, 
    {
      "op": "null", 
      "name": "ssd0_convpredictor8_conv0_bias", 
      "attrs": {
        "__dtype__": "0", 
        "__init__": "zeros", 
        "__lr_mult__": "1.0", 
        "__shape__": "(84,)", 
        "__storage_type__": "0", 
        "__wd_mult__": "1.0"
      }, 
      "inputs": []
    }, 
    {
      "op": "_sg_mkldnn_conv", 
      "name": "quantized_sg_mkldnn_conv_37", 
      "attrs": {
        "max_calib_range": "10.199381", 
        "min_calib_range": "-4.840173", 
        "quantized": "true"
      }, 
      "inputs": [[223, 0, 0], [224, 0, 0], [225, 0, 0], [223, 1, 0], [223, 2, 0]], 
      "subgraphs": [
        {
          "nodes": [
            {
              "op": "null", 
              "name": "sg_mkldnn_conv_bn_relu_36_output0", 
              "inputs": []
            }, 
            {
              "op": "null", 
              "name": "ssd0_convpredictor8_conv0_weight0", 
              "inputs": []
            }, 
            {
              "op": "null", 
              "name": "ssd0_convpredictor8_conv0_bias0", 
              "inputs": []
            }, 
            {
              "op": "Convolution", 
              "name": "ssd0_convpredictor8_conv0_fwd", 
              "attrs": {
                "dilate": "(1, 1)", 
                "kernel": "(3, 3)", 
                "layout": "NCHW", 
                "no_bias": "False", 
                "num_filter": "84", 
                "num_group": "1", 
                "pad": "(1, 1)", 
                "stride": "(1, 1)"
              }, 
              "inputs": [[0, 0, 0], [1, 0, 0], [2, 0, 0]]
            }
          ], 
          "arg_nodes": [0, 1, 2], 
          "node_row_ptr": [0, 1, 2, 3, 4], 
          "heads": [[3, 0, 0]]
        }
      ]
    }, 
    {
      "op": "_contrib_dequantize", 
      "name": "sg_mkldnn_conv_37_dequantize", 
      "inputs": [[226, 0, 0], [226, 1, 0], [226, 2, 0]]
    }, 
    {
      "op": "transpose", 
      "name": "ssd0_transpose4", 
      "attrs": {"axes": "(0, 2, 3, 1)"}, 
      "inputs": [[227, 0, 0]]
    }, 
    {
      "op": "Flatten", 
      "name": "ssd0_flatten4", 
      "inputs": [[228, 0, 0]]
    }, 
    {
      "op": "null", 
      "name": "ssd0_expand_trans_conv3_weight", 
      "attrs": {
        "__init__": "<mxnet.initializer.Xavier object at 0x7f823a6c93c8>", 
        "kernel": "(1, 1)", 
        "no_bias": "True", 
        "num_filter": "256"
      }, 
      "inputs": []
    }, 
    {
      "op": "null", 
      "name": "ssd0_expand_trans_bn3_gamma", 
      "inputs": []
    }, 
    {
      "op": "null", 
      "name": "ssd0_expand_trans_bn3_beta", 
      "inputs": []
    }, 
    {
      "op": "null", 
      "name": "ssd0_expand_trans_bn3_moving_mean", 
      "attrs": {"__init__": "[\"zero\", {}]"}, 
      "inputs": []
    }, 
    {
      "op": "null", 
      "name": "ssd0_expand_trans_bn3_moving_var", 
      "attrs": {"__init__": "[\"one\", {}]"}, 
      "inputs": []
    }, 
    {
      "op": "_sg_mkldnn_conv", 
      "name": "quantized_sg_mkldnn_conv_bn_relu_38", 
      "attrs": {
        "max_calib_range": "7.274212", 
        "min_calib_range": "-0.000000", 
        "quantized": "true", 
        "with_bn": "true", 
        "with_relu": "true"
      }, 
      "inputs": [[223, 0, 0], [230, 0, 0], [231, 0, 0], [232, 0, 0], [233, 0, 1], [234, 0, 1], [223, 1, 0], [223, 2, 0]], 
      "subgraphs": [
        {
          "nodes": [
            {
              "op": "null", 
              "name": "sg_mkldnn_conv_bn_relu_36_output0", 
              "inputs": []
            }, 
            {
              "op": "null", 
              "name": "ssd0_expand_trans_conv3_weight0", 
              "inputs": []
            }, 
            {
              "op": "Convolution", 
              "name": "ssd0_expand_trans_conv3", 
              "attrs": {
                "__init__": "<mxnet.initializer.Xavier object at 0x7f823a6c93c8>", 
                "kernel": "(1, 1)", 
                "no_bias": "True", 
                "num_filter": "256"
              }, 
              "inputs": [[0, 0, 0], [1, 0, 0]]
            }, 
            {
              "op": "null", 
              "name": "ssd0_expand_trans_bn3_gamma0", 
              "inputs": []
            }, 
            {
              "op": "null", 
              "name": "ssd0_expand_trans_bn3_beta0", 
              "inputs": []
            }, 
            {
              "op": "null", 
              "name": "ssd0_expand_trans_bn3_moving_mean0", 
              "inputs": []
            }, 
            {
              "op": "null", 
              "name": "ssd0_expand_trans_bn3_moving_var0", 
              "inputs": []
            }, 
            {
              "op": "BatchNorm", 
              "name": "ssd0_expand_trans_bn3", 
              "inputs": [[2, 0, 0], [3, 0, 0], [4, 0, 0], [5, 0, 0], [6, 0, 0]]
            }, 
            {
              "op": "Activation", 
              "name": "ssd0_expand_trans_relu3", 
              "attrs": {"act_type": "relu"}, 
              "inputs": [[7, 0, 0]]
            }
          ], 
          "arg_nodes": [0, 1, 3, 4, 5, 6], 
          "node_row_ptr": [0, 1, 2, 3, 4, 5, 6, 7, 10, 11], 
          "heads": [[8, 0, 0]]
        }
      ]
    }, 
    {
      "op": "null", 
      "name": "ssd0_expand_conv3_weight", 
      "attrs": {
        "__init__": "<mxnet.initializer.Xavier object at 0x7f823a6c93c8>", 
        "kernel": "(3, 3)", 
        "no_bias": "True", 
        "num_filter": "256", 
        "pad": "(1, 1)", 
        "stride": "(2, 2)"
      }, 
      "inputs": []
    }, 
    {
      "op": "null", 
      "name": "ssd0_expand_bn3_gamma", 
      "inputs": []
    }, 
    {
      "op": "null", 
      "name": "ssd0_expand_bn3_beta", 
      "inputs": []
    }, 
    {
      "op": "null", 
      "name": "ssd0_expand_bn3_moving_mean", 
      "attrs": {"__init__": "[\"zero\", {}]"}, 
      "inputs": []
    }, 
    {
      "op": "null", 
      "name": "ssd0_expand_bn3_moving_var", 
      "attrs": {"__init__": "[\"one\", {}]"}, 
      "inputs": []
    }, 
    {
      "op": "_sg_mkldnn_conv", 
      "name": "quantized_sg_mkldnn_conv_bn_relu_39", 
      "attrs": {
        "max_calib_range": "6.971924", 
        "min_calib_range": "-0.000000", 
        "quantized": "true", 
        "with_bn": "true", 
        "with_relu": "true"
      }, 
      "inputs": [[235, 0, 0], [236, 0, 0], [237, 0, 0], [238, 0, 0], [239, 0, 1], [240, 0, 1], [235, 1, 0], [235, 2, 0]], 
      "subgraphs": [
        {
          "nodes": [
            {
              "op": "null", 
              "name": "sg_mkldnn_conv_bn_relu_38_output0", 
              "inputs": []
            }, 
            {
              "op": "null", 
              "name": "ssd0_expand_conv3_weight0", 
              "inputs": []
            }, 
            {
              "op": "Convolution", 
              "name": "ssd0_expand_conv3", 
              "attrs": {
                "__init__": "<mxnet.initializer.Xavier object at 0x7f823a6c93c8>", 
                "kernel": "(3, 3)", 
                "no_bias": "True", 
                "num_filter": "256", 
                "pad": "(1, 1)", 
                "stride": "(2, 2)"
              }, 
              "inputs": [[0, 0, 0], [1, 0, 0]]
…
      "name": "ssd0_multiperclassdecoder0__plusscalar19", 
      "attrs": {"scalar": "19"}, 
      "inputs": [[254, 0, 0]]
    }, 
    {
      "op": "Concat", 
      "name": "ssd0_multiperclassdecoder0_concat0", 
      "attrs": {
        "dim": "-1", 
        "num_args": "20"
      }, 
      "inputs": [
        [255, 0, 0], 
        [256, 0, 0], 
        [257, 0, 0], 
        [258, 0, 0], 
        [259, 0, 0], 
        [260, 0, 0], 
        [261, 0, 0], 
        [262, 0, 0], 
        [263, 0, 0], 
        [264, 0, 0], 
        [265, 0, 0], 
        [266, 0, 0], 
        [267, 0, 0], 
        [268, 0, 0], 
        [269, 0, 0], 
        [270, 0, 0], 
        [271, 0, 0], 
        [272, 0, 0], 
        [273, 0, 0], 
        [274, 0, 0]
      ]
    }, 
    {
      "op": "ones_like", 
      "name": "ssd0_multiperclassdecoder0_ones_like0", 
      "inputs": [[275, 0, 0]]
    }, 
    {
      "op": "_mul_scalar", 
      "name": "ssd0_multiperclassdecoder0__mulscalar0", 
      "attrs": {"scalar": "-1"}, 
      "inputs": [[276, 0, 0]]
    }, 
    {
      "op": "where", 
      "name": "ssd0_multiperclassdecoder0_where0", 
      "inputs": [[252, 0, 0], [275, 0, 0], [277, 0, 0]]
    }, 
    {
      "op": "slice_axis", 
      "name": "ssd0_slice_axis0", 
      "attrs": {
        "axis": "-1", 
        "begin": "0", 
        "end": "1"
      }, 
      "inputs": [[278, 0, 0]]
    }, 
    {
      "op": "zeros_like", 
      "name": "ssd0_multiperclassdecoder0_zeros_like1", 
      "inputs": [[251, 0, 0]]
    }, 
    {
      "op": "where", 
      "name": "ssd0_multiperclassdecoder0_where1", 
      "inputs": [[252, 0, 0], [251, 0, 0], [280, 0, 0]]
    }, 
    {
      "op": "slice_axis", 
      "name": "ssd0_slice_axis1", 
      "attrs": {
        "axis": "-1", 
        "begin": "0", 
        "end": "1"
      }, 
      "inputs": [[281, 0, 0]]
    }, 
    {
      "op": "null", 
      "name": "ssd0_convpredictor1_conv0_weight", 
      "attrs": {
        "__dtype__": "0", 
        "__init__": "[\"xavier\", {\"rnd_type\": \"uniform\", \"factor_type\": \"avg\", \"magnitude\": 2}]", 
        "__lr_mult__": "1.0", 
        "__shape__": "(16, 512, 3, 3)", 
        "__storage_type__": "0", 
        "__wd_mult__": "1.0"
      }, 
      "inputs": []
    }, 
    {
      "op": "null", 
      "name": "ssd0_convpredictor1_conv0_bias", 
      "attrs": {
        "__dtype__": "0", 
        "__init__": "zeros", 
        "__lr_mult__": "1.0", 
        "__shape__": "(16,)", 
        "__storage_type__": "0", 
        "__wd_mult__": "1.0"
      }, 
      "inputs": []
    }, 
    {
      "op": "_sg_mkldnn_conv", 
      "name": "quantized_sg_mkldnn_conv_41", 
      "attrs": {
        "max_calib_range": "4.876158", 
        "min_calib_range": "-12.747149", 
        "quantized": "true"
      }, 
      "inputs": [[139, 0, 0], [283, 0, 0], [284, 0, 0], [139, 1, 0], [139, 2, 0]], 
      "subgraphs": [
        {
          "nodes": [
            {
              "op": "null", 
              "name": "sg_mkldnn_conv_bn_relu_22_output0", 
              "inputs": []
            }, 
            {
              "op": "null", 
              "name": "ssd0_convpredictor1_conv0_weight0", 
              "inputs": []
            }, 
            {
              "op": "null", 
              "name": "ssd0_convpredictor1_conv0_bias0", 
              "inputs": []
            }, 
            {
              "op": "Convolution", 
              "name": "ssd0_convpredictor1_conv0_fwd", 
              "attrs": {
                "dilate": "(1, 1)", 
                "kernel": "(3, 3)", 
                "layout": "NCHW", 
                "no_bias": "False", 
                "num_filter": "16", 
                "num_group": "1", 
                "pad": "(1, 1)", 
                "stride": "(1, 1)"
              }, 
              "inputs": [[0, 0, 0], [1, 0, 0], [2, 0, 0]]
            }
          ], 
          "arg_nodes": [0, 1, 2], 
          "node_row_ptr": [0, 1, 2, 3, 4], 
          "heads": [[3, 0, 0]]
        }
      ]
    }, 
    {
      "op": "_contrib_dequantize", 
      "name": "sg_mkldnn_conv_41_dequantize", 
      "inputs": [[285, 0, 0], [285, 1, 0], [285, 2, 0]]
    }, 
    {
      "op": "transpose", 
      "name": "ssd0_transpose6", 
      "attrs": {"axes": "(0, 2, 3, 1)"}, 
      "inputs": [[286, 0, 0]]
    }, 
    {
      "op": "Flatten", 
      "name": "ssd0_flatten6", 
      "inputs": [[287, 0, 0]]
    }, 
    {
      "op": "null", 
      "name": "ssd0_convpredictor3_conv0_weight", 
      "attrs": {
        "__dtype__": "0", 
        "__init__": "[\"xavier\", {\"rnd_type\": \"uniform\", \"factor_type\": \"avg\", \"magnitude\": 2}]", 
        "__lr_mult__": "1.0", 
        "__shape__": "(24, 1024, 3, 3)", 
        "__storage_type__": "0", 
        "__wd_mult__": "1.0"
      }, 
      "inputs": []
    }, 
    {
      "op": "null", 
      "name": "ssd0_convpredictor3_conv0_bias", 
      "attrs": {
        "__dtype__": "0", 
        "__init__": "zeros", 
        "__lr_mult__": "1.0", 
        "__shape__": "(24,)", 
        "__storage_type__": "0", 
        "__wd_mult__": "1.0"
      }, 
      "inputs": []
    }, 
    {
      "op": "_sg_mkldnn_conv", 
      "name": "quantized_sg_mkldnn_conv_42", 
      "attrs": {
        "max_calib_range": "4.302043", 
        "min_calib_range": "-4.075301", 
        "quantized": "true"
      }, 
      "inputs": [[169, 0, 0], [289, 0, 0], [290, 0, 0], [169, 1, 0], [169, 2, 0]], 
      "subgraphs": [
        {
          "nodes": [
            {
              "op": "null", 
              "name": "sg_mkldnn_conv_bn_relu_27_output0", 
              "inputs": []
            }, 
            {
              "op": "null", 
              "name": "ssd0_convpredictor3_conv0_weight0", 
              "inputs": []
            }, 
            {
              "op": "null", 
              "name": "ssd0_convpredictor3_conv0_bias0", 
              "inputs": []
            }, 
            {
              "op": "Convolution", 
              "name": "ssd0_convpredictor3_conv0_fwd", 
              "attrs": {
                "dilate": "(1, 1)", 
                "kernel": "(3, 3)", 
                "layout": "NCHW", 
                "no_bias": "False", 
                "num_filter": "24", 
                "num_group": "1", 
                "pad": "(1, 1)", 
                "stride": "(1, 1)"
              }, 
              "inputs": [[0, 0, 0], [1, 0, 0], [2, 0, 0]]
            }
          ], 
          "arg_nodes": [0, 1, 2], 
          "node_row_ptr": [0, 1, 2, 3, 4], 
          "heads": [[3, 0, 0]]
        }
      ]
    }, 
    {
      "op": "_contrib_dequantize", 
      "name": "sg_mkldnn_conv_42_dequantize", 
      "inputs": [[291, 0, 0], [291, 1, 0], [291, 2, 0]]
    }, 
    {
      "op": "transpose", 
      "name": "ssd0_transpose7", 
      "attrs": {"axes": "(0, 2, 3, 1)"}, 
      "inputs": [[292, 0, 0]]
    }, 
    {
      "op": "Flatten", 
      "name": "ssd0_flatten7", 
      "inputs": [[293, 0, 0]]
    }, 
    {
      "op": "null", 
      "name": "ssd0_convpredictor5_conv0_weight", 
      "attrs": {
        "__dtype__": "0", 
        "__init__": "[\"xavier\", {\"rnd_type\": \"uniform\", \"factor_type\": \"avg\", \"magnitude\": 2}]", 
        "__lr_mult__": "1.0", 
        "__shape__": "(24, 512, 3, 3)", 
        "__storage_type__": "0", 
        "__wd_mult__": "1.0"
      }, 
      "inputs": []
    }, 
    {
      "op": "null", 
      "name": "ssd0_convpredictor5_conv0_bias", 
      "attrs": {
        "__dtype__": "0", 
        "__init__": "zeros", 
        "__lr_mult__": "1.0", 
        "__shape__": "(24,)", 
        "__storage_type__": "0", 
        "__wd_mult__": "1.0"
      }, 
      "inputs": []
    }, 
    {
      "op": "_sg_mkldnn_conv", 
      "name": "quantized_sg_mkldnn_conv_43", 
      "attrs": {
        "max_calib_range": "4.123853", 
        "min_calib_range": "-3.929893", 
        "quantized": "true"
      }, 
      "inputs": [[187, 0, 0], [295, 0, 0], [296, 0, 0], [187, 1, 0], [187, 2, 0]], 
      "subgraphs": [
        {
          "nodes": [
            {
              "op": "null", 
              "name": "sg_mkldnn_conv_bn_relu_30_output0", 
              "inputs": []
            }, 
            {
              "op": "null", 
              "name": "ssd0_convpredictor5_conv0_weight0", 
              "inputs": []
            }, 
            {
              "op": "null", 
              "name": "ssd0_convpredictor5_conv0_bias0", 
              "inputs": []
            }, 
            {
              "op": "Convolution", 
              "name": "ssd0_convpredictor5_conv0_fwd", 
              "attrs": {
                "dilate": "(1, 1)", 
                "kernel": "(3, 3)", 
                "layout": "NCHW", 
                "no_bias": "False", 
                "num_filter": "24", 
                "num_group": "1", 
                "pad": "(1, 1)", 
                "stride": "(1, 1)"
              }, 
              "inputs": [[0, 0, 0], [1, 0, 0], [2, 0, 0]]
            }
          ], 
          "arg_nodes": [0, 1, 2], 
          "node_row_ptr": [0, 1, 2, 3, 4], 
          "heads": [[3, 0, 0]]
        }
      ]
    }, 
    {
      "op": "_contrib_dequantize", 
      "name": "sg_mkldnn_conv_43_dequantize", 
      "inputs": [[297, 0, 0], [297, 1, 0], [297, 2, 0]]
    }, 
    {
      "op": "transpose", 
      "name": "ssd0_transpose8", 
      "attrs": {"axes": "(0, 2, 3, 1)"}, 
      "inputs": [[298, 0, 0]]
    }, 
    {
      "op": "Flatten", 
      "name": "ssd0_flatten8", 
      "inputs": [[299, 0, 0]]
    }, 
    {
      "op": "null", 
      "name": "ssd0_convpredictor7_conv0_weight", 
      "attrs": {
        "__dtype__": "0", 
        "__init__": "[\"xavier\", {\"rnd_type\": \"uniform\", \"factor_type\": \"avg\", \"magnitude\": 2}]", 
        "__lr_mult__": "1.0", 
        "__shape__": "(24, 512, 3, 3)", 
        "__storage_type__": "0", 
        "__wd_mult__": "1.0"
      }, 
      "inputs": []
    }, 
    {
      "op": "null", 
      "name": "ssd0_convpredictor7_conv0_bias", 
      "attrs": {
        "__dtype__": "0", 
        "__init__": "zeros", 
        "__lr_mult__": "1.0", 
        "__shape__": "(24,)", 
        "__storage_type__": "0", 
        "__wd_mult__": "1.0"
      }, 
      "inputs": []
    }, 
    {
      "op": "_sg_mkldnn_conv", 
      "name": "quantized_sg_mkldnn_conv_44", 
      "attrs": {
        "max_calib_range": "3.868445", 
        "min_calib_range": "-3.787183", 
        "quantized": "true"
      }, 
      "inputs": [[205, 0, 0], [301, 0, 0], [302, 0, 0], [205, 1, 0], [205, 2, 0]], 
      "subgraphs": [
        {
          "nodes": [
            {
              "op": "null", 
              "name": "sg_mkldnn_conv_bn_relu_33_output0", 
              "inputs": []
            }, 
            {
              "op": "null", 
              "name": "ssd0_convpredictor7_conv0_weight0", 
              "inputs": []
            }, 
            {
              "op": "null", 
              "name": "ssd0_convpredictor7_conv0_bias0", 
              "inputs": []
            }, 
            {
              "op": "Convolution", 
              "name": "ssd0_convpredictor7_conv0_fwd", 
              "attrs": {
                "dilate": "(1, 1)", 
                "kernel": "(3, 3)", 
                "layout": "NCHW", 
                "no_bias": "False", 
                "num_filter": "24", 
                "num_group": "1", 
                "pad": "(1, 1)", 
                "stride": "(1, 1)"
              }, 
              "inputs": [[0, 0, 0], [1, 0, 0], [2, 0, 0]]
            }
          ], 
          "arg_nodes": [0, 1, 2], 
          "node_row_ptr": [0, 1, 2, 3, 4], 
          "heads": [[3, 0, 0]]
        }
      ]
    }, 
    {
      "op": "_contrib_dequantize", 
      "name": "sg_mkldnn_conv_44_dequantize", 
      "inputs": [[303, 0, 0], [303, 1, 0], [303, 2, 0]]
    }, 
    {
      "op": "transpose", 
      "name": "ssd0_transpose9", 
      "attrs": {"axes": "(0, 2, 3, 1)"}, 
      "inputs": [[304, 0, 0]]
    }, 
    {
      "op": "Flatten", 
      "name": "ssd0_flatten9", 
      "inputs": [[305, 0, 0]]
    }, 
    {
      "op": "null", 
      "name": "ssd0_convpredictor9_conv0_weight", 
      "attrs": {
        "__dtype__": "0", 
        "__init__": "[\"xavier\", {\"rnd_type\": \"uniform\", \"factor_type\": \"avg\", \"magnitude\": 2}]", 
        "__lr_mult__": "1.0", 
        "__shape__": "(16, 256, 3, 3)", 
        "__storage_type__": "0", 
        "__wd_mult__": "1.0"
      }, 
      "inputs": []
    }, 
    {
      "op": "null", 
      "name": "ssd0_convpredictor9_conv0_bias", 
      "attrs": {
        "__dtype__": "0", 
        "__init__": "zeros", 
        "__lr_mult__": "1.0", 
        "__shape__": "(16,)", 
        "__storage_type__": "0", 
        "__wd_mult__": "1.0"
      }, 
      "inputs": []
    }, 
    {
      "op": "_sg_mkldnn_conv", 
      "name": "quantized_sg_mkldnn_conv_45", 
      "attrs": {
        "max_calib_range": "2.882389", 
        "min_calib_range": "-2.954468", 
        "quantized": "true"
      }, 
      "inputs": [[223, 0, 0], [307, 0, 0], [308, 0, 0], [223, 1, 0], [223, 2, 0]], 
      "subgraphs": [
        {
          "nodes": [
            {
              "op": "null", 
              "name": "sg_mkldnn_conv_bn_relu_36_output0", 
              "inputs": []
            }, 
            {
              "op": "null", 
              "name": "ssd0_convpredictor9_conv0_weight0", 
              "inputs": []
            }, 
            {
              "op": "null", 
              "name": "ssd0_convpredictor9_conv0_bias0", 
              "inputs": []
            }, 
            {
              "op": "Convolution", 
              "name": "ssd0_convpredictor9_conv0_fwd", 
              "attrs": {
                "dilate": "(1, 1)", 
                "kernel": "(3, 3)", 
                "layout": "NCHW", 
                "no_bias": "False", 
                "num_filter": "16", 
                "num_group": "1", 
                "pad": "(1, 1)", 
                "stride": "(1, 1)"
              }, 
              "inputs": [[0, 0, 0], [1, 0, 0], [2, 0, 0]]
            }
          ], 
          "arg_nodes": [0, 1, 2], 
          "node_row_ptr": [0, 1, 2, 3, 4], 
          "heads": [[3, 0, 0]]
        }
      ]
    }, 
    {
      "op": "_contrib_dequantize", 
      "name": "sg_mkldnn_conv_45_dequantize", 
      "inputs": [[309, 0, 0], [309, 1, 0], [309, 2, 0]]
    }, 
    {
      "op": "transpose", 
      "name": "ssd0_transpose10", 
      "attrs": {"axes": "(0, 2, 3, 1)"}, 
      "inputs": [[310, 0, 0]]
    }, 
    {
      "op": "Flatten", 
      "name": "ssd0_flatten10", 
      "inputs": [[311, 0, 0]]
    }, 
    {
      "op": "null", 
      "name": "ssd0_convpredictor11_conv0_weight", 
      "attrs": {
        "__dtype__": "0", 
        "__init__": "[\"xavier\", {\"rnd_type\": \"uniform\", \"factor_type\": \"avg\", \"magnitude\": 2}]", 
        "__lr_mult__": "1.0", 
        "__shape__": "(16, 256, 3, 3)", 
        "__storage_type__": "0", 
        "__wd_mult__": "1.0"
      }, 
      "inputs": []
    }, 
    {
      "op": "null", 
      "name": "ssd0_convpredictor11_conv0_bias", 
      "attrs": {
        "__dtype__": "0", 
        "__init__": "zeros", 
        "__lr_mult__": "1.0", 
        "__shape__": "(16,)", 
        "__storage_type__": "0", 
        "__wd_mult__": "1.0"
      }, 
      "inputs": []
    }, 
    {
      "op": "_sg_mkldnn_conv", 
      "name": "quantized_sg_mkldnn_conv_46", 
      "attrs": {
        "max_calib_range": "3.188980", 
        "min_calib_range": "-3.491082", 
        "quantized": "true"
      }, 
      "inputs": [[241, 0, 0], [313, 0, 0], [314, 0, 0], [241, 1, 0], [241, 2, 0]], 
      "subgraphs": [
        {
          "nodes": [
            {
              "op": "null", 
              "name": "sg_mkldnn_conv_bn_relu_39_output0", 
              "inputs": []
            }, 
            {
              "op": "null", 
              "name": "ssd0_convpredictor11_conv0_weight0", 
              "inputs": []
            }, 
            {
              "op": "null", 
              "name": "ssd0_convpredictor11_conv0_bias0", 
              "inputs": []
            }, 
            {
              "op": "Convolution", 
              "name": "ssd0_convpredictor11_conv0_fwd", 
              "attrs": {
                "dilate": "(1, 1)", 
                "kernel": "(3, 3)", 
                "layout": "NCHW", 
                "no_bias": "False", 
                "num_filter": "16", 
                "num_group": "1", 
                "pad": "(1, 1)", 
                "stride": "(1, 1)"
              }, 
              "inputs": [[0, 0, 0], [1, 0, 0], [2, 0, 0]]
            }
          ], 
          "arg_nodes": [0, 1, 2], 
          "node_row_ptr": [0, 1, 2, 3, 4], 
          "heads": [[3, 0, 0]]
        }
      ]
    }, 
    {
      "op": "_contrib_dequantize", 
      "name": "sg_mkldnn_conv_46_dequantize", 
      "inputs": [[315, 0, 0], [315, 1, 0], [315, 2, 0]]
    }, 
    {
      "op": "transpose", 
      "name": "ssd0_transpose11", 
      "attrs": {"axes": "(0, 2, 3, 1)"}, 
      "inputs": [[316, 0, 0]]
    }, 
    {
      "op": "Flatten", 
      "name": "ssd0_flatten11", 
      "inputs": [[317, 0, 0]]
    }, 
    {
      "op": "Concat", 
      "name": "ssd0_concat1", 
      "attrs": {
        "dim": "1", 
        "num_args": "6"
      }, 
      "inputs": [[288, 0, 0], [294, 0, 0], [300, 0, 0], [306, 0, 0], [312, 0, 0], [318, 0, 0]]
    }, 
    {
      "op": "Reshape", 
      "name": "ssd0_reshape7", 
      "attrs": {"shape": "(0, -1, 4)"}, 
      "inputs": [[319, 0, 0]]
    }, 
    {
      "op": "SliceChannel", 
      "name": "ssd0_normalizedboxcenterdecoder0_split1", 
      "attrs": {
        "axis": "-1", 
        "num_outputs": "4"
      }, 
      "inputs": [[320, 0, 0]]
    }, 
    {
      "op": "_mul_scalar", 
      "name": "ssd0_normalizedboxcenterdecoder0__mulscalar0", 
      "attrs": {"scalar": "0.1"}, 
      "inputs": [[321, 0, 0]]
    }, 
    {
      "op": "_plus_scalar", 
      "name": "ssd0_normalizedboxcenterdecoder0__plusscalar0", 
      "attrs": {"scalar": "0.0"}, 
      "inputs": [[322, 0, 0]]
    }, 
    {
      "op": "null", 
      "name": "ssd0_ssdanchorgenerator0_anchor_0", 
      "attrs": {
        "__dtype__": "0", 
        "__init__": "Constant_ssd0_ssdanchorgenerator0_anchor_0_140197381553736", 
        "__lr_mult__": "1.0", 
        "__shape__": "(1, 1, 128, 128, 16)", 
        "__storage_type__": "0", 
        "__wd_mult__": "1.0"
      }, 
      "inputs": []
    }, 
    {
      "op": "_contrib_dequantize", 
      "name": "sg_mkldnn_conv_bn_relu_22_dequantize", 
      "inputs": [[139, 0, 0], [139, 1, 0], [139, 2, 0]]
    }, 
    {
      "op": "_mul_scalar", 
      "name": "ssd0_ssdanchorgenerator0__mulscalar0", 
      "attrs": {"scalar": "0"}, 
      "inputs": [[325, 0, 0]]
    }, 
    {
      "op": "slice_like", 
      "name": "ssd0_ssdanchorgenerator0_slice_like0", 
      "attrs": {"axes": "(2, 3)"}, 
      "inputs": [[324, 0, 0], [326, 0, 0]]
    }, 
    {
      "op": "Reshape", 
      "name": "ssd0_ssdanchorgenerator0_reshape0", 
      "attrs": {"shape": "(1, -1, 4)"}, 
      "inputs": [[327, 0, 0]]
    }, 
    {
      "op": "Reshape", 
      "name": "ssd0_ssdanchorgenerator0_reshape1", 
      "attrs": {"shape": "(1, -1, 4)"}, 
      "inputs": [[328, 0, 0]]
    }, 
    {
      "op": "Reshape", 
      "name": "ssd0_reshape0", 
      "attrs": {"shape": "(1, -1)"}, 
      "inputs": [[329, 0, 0]]
    }, 
    {
      "op": "null", 
      "name": "ssd0_ssdanchorgenerator1_anchor_1", 
      "attrs": {
        "__dtype__": "0", 
        "__init__": "Constant_ssd0_ssdanchorgenerator1_anchor_1_140197901880120", 
        "__lr_mult__": "1.0", 
        "__shape__": "(1, 1, 64, 64, 24)", 
        "__storage_type__": "0", 
        "__wd_mult__": "1.0"
      }, 
      "inputs": []
    }, 
    {
      "op": "_contrib_dequantize", 
      "name": "sg_mkldnn_conv_bn_relu_27_dequantize", 
      "inputs": [[169, 0, 0], [169, 1, 0], [169, 2, 0]]
    }, 
    {
      "op": "_mul_scalar", 
      "name": "ssd0_ssdanchorgenerator1__mulscalar0", 
      "attrs": {"scalar": "0"}, 
      "inputs": [[332, 0, 0]]
    }, 
    {
      "op": "slice_like", 
      "name": "ssd0_ssdanchorgenerator1_slice_like0", 
      "attrs": {"axes": "(2, 3)"}, 
      "inputs": [[331, 0, 0], [333, 0, 0]]
    }, 
    {
      "op": "Reshape", 
      "name": "ssd0_ssdanchorgenerator1_reshape0", 
      "attrs": {"shape": "(1, -1, 4)"}, 
      "inputs": [[334, 0, 0]]
    }, 
    {
      "op": "Reshape", 
      "name": "ssd0_ssdanchorgenerator1_reshape1", 
      "attrs": {"shape": "(1, -1, 4)"}, 
      "inputs": [[335, 0, 0]]
    }, 
    {
      "op": "Reshape", 
      "name": "ssd0_reshape1", 
      "attrs": {"shape": "(1, -1)"}, 
      "inputs": [[336, 0, 0]]
    }, 
    {
      "op": "null", 
      "name": "ssd0_ssdanchorgenerator2_anchor_2", 
      "attrs": {
        "__dtype__": "0", 
        "__init__": "Constant_ssd0_ssdanchorgenerator2_anchor_2_140197302707984", 
        "__lr_mult__": "1.0", 
        "__shape__": "(1, 1, 32, 32, 24)", 
        "__storage_type__": "0", 
        "__wd_mult__": "1.0"
      }, 
      "inputs": []
    }, 
    {
      "op": "_contrib_dequantize", 
      "name": "sg_mkldnn_conv_bn_relu_30_dequantize", 
      "inputs": [[187, 0, 0], [187, 1, 0], [187, 2, 0]]
    }, 
    {
      "op": "_mul_scalar", 
      "name": "ssd0_ssdanchorgenerator2__mulscalar0", 
      "attrs": {"scalar": "0"}, 
      "inputs": [[339, 0, 0]]
    }, 
    {
      "op": "slice_like", 
      "name": "ssd0_ssdanchorgenerator2_slice_like0", 
      "attrs": {"axes": "(2, 3)"}, 
      "inputs": [[338, 0, 0], [340, 0, 0]]
    }, 
    {
      "op": "Reshape", 
      "name": "ssd0_ssdanchorgenerator2_reshape0", 
      "attrs": {"shape": "(1, -1, 4)"}, 
      "inputs": [[341, 0, 0]]
    }, 
    {
      "op": "Reshape", 
      "name": "ssd0_ssdanchorgenerator2_reshape1", 
      "attrs": {"shape": "(1, -1, 4)"}, 
      "inputs": [[342, 0, 0]]
    }, 
    {
      "op": "Reshape", 
      "name": "ssd0_reshape2", 
      "attrs": {"shape": "(1, -1)"}, 
      "inputs": [[343, 0, 0]]
    }, 
    {
      "op": "null", 
      "name": "ssd0_ssdanchorgenerator3_anchor_3", 
      "attrs": {
        "__dtype__": "0", 
        "__init__": "Constant_ssd0_ssdanchorgenerator3_anchor_3_140197302671624", 
        "__lr_mult__": "1.0", 
        "__shape__": "(1, 1, 16, 16, 24)", 
        "__storage_type__": "0", 
        "__wd_mult__": "1.0"
      }, 
      "inputs": []
    }, 
    {
      "op": "_contrib_dequantize", 
      "name": "sg_mkldnn_conv_bn_relu_33_dequantize", 
      "inputs": [[205, 0, 0], [205, 1, 0], [205, 2, 0]]
    }, 
    {
      "op": "_mul_scalar", 
      "name": "ssd0_ssdanchorgenerator3__mulscalar0", 
      "attrs": {"scalar": "0"}, 
      "inputs": [[346, 0, 0]]
    }, 
    {
      "op": "slice_like", 
      "name": "ssd0_ssdanchorgenerator3_slice_like0", 
      "attrs": {"axes": "(2, 3)"}, 
      "inputs": [[345, 0, 0], [347, 0, 0]]
    }, 
    {
      "op": "Reshape", 
      "name": "ssd0_ssdanchorgenerator3_reshape0", 
      "attrs": {"shape": "(1, -1, 4)"}, 
      "inputs": [[348, 0, 0]]
    }, 
    {
      "op": "Reshape", 
      "name": "ssd0_ssdanchorgenerator3_reshape1", 
      "attrs": {"shape": "(1, -1, 4)"}, 
      "inputs": [[349, 0, 0]]
    }, 
    {
      "op": "Reshape", 
      "name": "ssd0_reshape3", 
      "attrs": {"shape": "(1, -1)"}, 
      "inputs": [[350, 0, 0]]
    }, 
    {
      "op": "null", 
      "name": "ssd0_ssdanchorgenerator4_anchor_4", 
      "attrs": {
        "__dtype__": "0", 
        "__init__": "Constant_ssd0_ssdanchorgenerator4_anchor_4_140197302672464", 
        "__lr_mult__": "1.0", 
        "__shape__": "(1, 1, 16, 16, 16)", 
        "__storage_type__": "0", 
        "__wd_mult__": "1.0"
      }, 
      "inputs": []
    }, 
    {
      "op": "_contrib_dequantize", 
      "name": "sg_mkldnn_conv_bn_relu_36_dequantize", 
      "inputs": [[223, 0, 0], [223, 1, 0], [223, 2, 0]]
    }, 
    {
      "op": "_mul_scalar", 
      "name": "ssd0_ssdanchorgenerator4__mulscalar0", 
      "attrs": {"scalar": "0"}, 
      "inputs": [[353, 0, 0]]
    }, 
    {
      "op": "slice_like", 
      "name": "ssd0_ssdanchorgenerator4_slice_like0", 
      "attrs": {"axes": "(2, 3)"}, 
      "inputs": [[352, 0, 0], [354, 0, 0]]
    }, 
    {
      "op": "Reshape", 
      "name": "ssd0_ssdanchorgenerator4_reshape0", 
      "attrs": {"shape": "(1, -1, 4)"}, 
      "inputs": [[355, 0, 0]]
    }, 
    {
      "op": "Reshape", 
      "name": "ssd0_ssdanchorgenerator4_reshape1", 
      "attrs": {"shape": "(1, -1, 4)"}, 
      "inputs": [[356, 0, 0]]
    }, 
    {
      "op": "Reshape", 
      "name": "ssd0_reshape4", 
      "attrs": {"shape": "(1, -1)"}, 
      "inputs": [[357, 0, 0]]
    }, 
    {
      "op": "null", 
      "name": "ssd0_ssdanchorgenerator5_anchor_5", 
      "attrs": {
        "__dtype__": "0", 
        "__init__": "Constant_ssd0_ssdanchorgenerator5_anchor_5_140197302621128", 
        "__lr_mult__": "1.0", 
        "__shape__": "(1, 1, 16, 16, 16)", 
        "__storage_type__": "0", 
        "__wd_mult__": "1.0"
      }, 
      "inputs": []
    }, 
    {
      "op": "_contrib_dequantize", 
      "name": "sg_mkldnn_conv_bn_relu_39_dequantize", 
      "inputs": [[241, 0, 0], [241, 1, 0], [241, 2, 0]]
    }, 
    {
      "op": "_mul_scalar", 
      "name": "ssd0_ssdanchorgenerator5__mulscalar0", 
      "attrs": {"scalar": "0"}, 
      "inputs": [[360, 0, 0]]
    }, 
    {
      "op": "slice_like", 
      "name": "ssd0_ssdanchorgenerator5_slice_like0", 
      "attrs": {"axes": "(2, 3)"}, 
      "inputs": [[359, 0, 0], [361, 0, 0]]
    }, 
    {
      "op": "Reshape", 
      "name": "ssd0_ssdanchorgenerator5_reshape0", 
      "attrs": {"shape": "(1, -1, 4)"}, 
      "inputs": [[362, 0, 0]]
    }, 
    {
      "op": "Reshape", 
      "name": "ssd0_ssdanchorgenerator5_reshape1", 
      "attrs": {"shape": "(1, -1, 4)"}, 
      "inputs": [[363, 0, 0]]
    }, 
    {
      "op": "Reshape", 
      "name": "ssd0_reshape5", 
      "attrs": {"shape": "(1, -1)"}, 
      "inputs": [[364, 0, 0]]
    }, 
    {
      "op": "Concat", 
      "name": "ssd0_concat2", 
      "attrs": {
        "dim": "1", 
        "num_args": "6"
      }, 
      "inputs": [[330, 0, 0], [337, 0, 0], [344, 0, 0], [351, 0, 0], [358, 0, 0], [365, 0, 0]]
    }, 
    {
      "op": "Reshape", 
      "name": "ssd0_reshape8", 
      "attrs": {"shape": "(1, -1, 4)"}, 
      "inputs": [[366, 0, 0]]
    }, 
    {
      "op": "SliceChannel", 
      "name": "ssd0_normalizedboxcenterdecoder0_split0", 
      "attrs": {
        "axis": "-1", 
        "num_outputs": "4"
      }, 
      "inputs": [[367, 0, 0]]
    }, 
    {
      "op": "broadcast_mul", 
      "name": "ssd0_normalizedboxcenterdecoder0_broadcast_mul0", 
      "inputs": [[323, 0, 0], [368, 2, 0]]
    }, 
    {
      "op": "broadcast_add", 
      "name": "ssd0_normalizedboxcenterdecoder0_broadcast_add0", 
      "inputs": [[369, 0, 0], [368, 0, 0]]
    }, 
    {
      "op": "_mul_scalar", 
      "name": "ssd0_normalizedboxcenterdecoder0__mulscalar2", 
      "attrs": {"scalar": "0.2"}, 
      "inputs": [[321, 2, 0]]
    }, 
    {
      "op": "_plus_scalar", 
      "name": "ssd0_normalizedboxcenterdecoder0__plusscalar2", 
      "attrs": {"scalar": "0.0"}, 
      "inputs": [[371, 0, 0]]
    }, 
    {
      "op": "exp", 
      "name": "ssd0_normalizedboxcenterdecoder0_exp0", 
      "inputs": [[372, 0, 0]]
    }, 
    {
      "op": "broadcast_mul", 
      "name": "ssd0_normalizedboxcenterdecoder0_broadcast_mul2", 
      "inputs": [[373, 0, 0], [368, 2, 0]]
    }, 
    {
      "op": "_div_scalar", 
      "name": "ssd0_normalizedboxcenterdecoder0__divscalar0", 
      "attrs": {"scalar": "2"}, 
      "inputs": [[374, 0, 0]]
    }, 
    {
      "op": "elemwise_sub", 
      "name": "ssd0_normalizedboxcenterdecoder0__minus0", 
      "inputs": [[370, 0, 0], [375, 0, 0]]
    }, 
    {
      "op": "_mul_scalar", 
      "name": "ssd0_normalizedboxcenterdecoder0__mulscalar1", 
      "attrs": {"scalar": "0.1"}, 
      "inputs": [[321, 1, 0]]
    }, 
    {
      "op": "_plus_scalar", 
      "name": "ssd0_normalizedboxcenterdecoder0__plusscalar1", 
      "attrs": {"scalar": "0.0"}, 
      "inputs": [[377, 0, 0]]
    }, 
    {
      "op": "broadcast_mul", 
      "name": "ssd0_normalizedboxcenterdecoder0_broadcast_mul1", 
      "inputs": [[378, 0, 0], [368, 3, 0]]
    }, 
    {
      "op": "broadcast_add", 
      "name": "ssd0_normalizedboxcenterdecoder0_broadcast_add1", 
      "inputs": [[379, 0, 0], [368, 1, 0]]
    }, 
    {
      "op": "_mul_scalar", 
      "name": "ssd0_normalizedboxcenterdecoder0__mulscalar3", 
      "attrs": {"scalar": "0.2"}, 
      "inputs": [[321, 3, 0]]
    }, 
    {
      "op": "_plus_scalar", 
      "name": "ssd0_normalizedboxcenterdecoder0__plusscalar3", 
      "attrs": {"scalar": "0.0"}, 
      "inputs": [[381, 0, 0]]
    }, 
    {
      "op": "exp", 
      "name": "ssd0_normalizedboxcenterdecoder0_exp1", 
      "inputs": [[382, 0, 0]]
    }, 
    {
      "op": "broadcast_mul", 
      "name": "ssd0_normalizedboxcenterdecoder0_broadcast_mul3", 
      "inputs": [[383, 0, 0], [368, 3, 0]]
    }, 
    {
      "op": "_div_scalar", 
      "name": "ssd0_normalizedboxcenterdecoder0__divscalar1", 
      "attrs": {"scalar": "2"}, 
      "inputs": [[384, 0, 0]]
    }, 
    {
      "op": "elemwise_sub", 
      "name": "ssd0_normalizedboxcenterdecoder0__minus1", 
      "inputs": [[380, 0, 0], [385, 0, 0]]
    }, 
    {
      "op": "elemwise_add", 
      "name": "ssd0_normalizedboxcenterdecoder0__plus0", 
      "inputs": [[370, 0, 0], [375, 0, 0]]
    }, 
    {
      "op": "elemwise_add", 
      "name": "ssd0_normalizedboxcenterdecoder0__plus1", 
      "inputs": [[380, 0, 0], [385, 0, 0]]
    }, 
    {
      "op": "Concat", 
      "name": "ssd0_normalizedboxcenterdecoder0_concat0", 
      "attrs": {
        "dim": "-1", 
        "num_args": "4"
      }, 
      "inputs": [[376, 0, 0], [386, 0, 0], [387, 0, 0], [388, 0, 0]]
    }, 
    {
      "op": "Concat", 
      "name": "ssd0_concat3", 
      "attrs": {
        "dim": "-1", 
        "num_args": "3"
      }, 
      "inputs": [[279, 0, 0], [282, 0, 0], [389, 0, 0]]
    }, 
    {
      "op": "slice_axis", 
      "name": "ssd0_slice_axis2", 
      "attrs": {
        "axis": "-1", 
        "begin": "1", 
        "end": "2"
      }, 
      "inputs": [[278, 0, 0]]
    }, 
    {
      "op": "slice_axis", 
      "name": "ssd0_slice_axis3", 
      "attrs": {
        "axis": "-1", 
        "begin": "1", 
        "end": "2"
      }, 
      "inputs": [[281, 0, 0]]
    }, 
    {
      "op": "Concat", 
      "name": "ssd0_concat4", 
      "attrs": {
        "dim": "-1", 
        "num_args": "3"
      }, 
      "inputs": [[391, 0, 0], [392, 0, 0], [389, 0, 0]]
    }, 
    {
      "op": "slice_axis", 
      "name": "ssd0_slice_axis4", 
      "attrs": {
        "axis": "-1", 
        "begin": "2", 
        "end": "3"
      }, 
      "inputs": [[278, 0, 0]]
    }, 
    {
      "op": "slice_axis", 
      "name": "ssd0_slice_axis5", 
      "attrs": {
        "axis": "-1", 
        "begin": "2", 
        "end": "3"
      }, 
      "inputs": [[281, 0, 0]]
    }, 
    {
      "op": "Concat", 
      "name": "ssd0_concat5", 
      "attrs": {
        "dim": "-1", 
        "num_args": "3"
      }, 
      "inputs": [[394, 0, 0], [395, 0, 0], [389, 0, 0]]
    }, 
    {
      "op": "slice_axis", 
      "name": "ssd0_slice_axis6", 
      "attrs": {
        "axis": "-1", 
        "begin": "3", 
        "end": "4"
      }, 
      "inputs": [[278, 0, 0]]
    }, 
    {
      "op": "slice_axis", 
      "name": "ssd0_slice_axis7", 
      "attrs": {
        "axis": "-1", 
        "begin": "3", 
        "end": "4"
      }, 
      "inputs": [[281, 0, 0]]
    }, 
    {
      "op": "Concat", 
      "name": "ssd0_concat6", 
      "attrs": {
        "dim": "-1", 
        "num_args": "3"
      }, 
      "inputs": [[397, 0, 0], [398, 0, 0], [389, 0, 0]]
    }, 
    {
      "op": "slice_axis", 
      "name": "ssd0_slice_axis8", 
      "attrs": {
        "axis": "-1", 
        "begin": "4", 
        "end": "5"
      }, 
      "inputs": [[278, 0, 0]]
    }, 
    {
      "op": "slice_axis", 
      "name": "ssd0_slice_axis9", 
      "attrs": {
        "axis": "-1", 
        "begin": "4", 
        "end": "5"
      }, 
      "inputs": [[281, 0, 0]]
    }, 
    {
      "op": "Concat", 
      "name": "ssd0_concat7", 
      "attrs": {
        "dim": "-1", 
        "num_args": "3"
      }, 
      "inputs": [[400, 0, 0], [401, 0, 0], [389, 0, 0]]
    }, 
    {
      "op": "slice_axis", 
      "name": "ssd0_slice_axis10", 
      "attrs": {
        "axis": "-1", 
        "begin": "5", 
        "end": "6"
      }, 
      "inputs": [[278, 0, 0]]
    }, 
    {
      "op": "slice_axis", 
      "name": "ssd0_slice_axis11", 
      "attrs": {
        "axis": "-1", 
        "begin": "5", 
        "end": "6"
      }, 
      "inputs": [[281, 0, 0]]
    }, 
    {
      "op": "Concat", 
      "name": "ssd0_concat8", 
      "attrs": {
        "dim": "-1", 
        "num_args": "3"
      }, 
      "inputs": [[403, 0, 0], [404, 0, 0], [389, 0, 0]]
    }, 
    {
      "op": "slice_axis", 
      "name": "ssd0_slice_axis12", 
      "attrs": {
        "axis": "-1", 
        "begin": "6", 
        "end": "7"
      }, 
      "inputs": [[278, 0, 0]]
    }, 
    {
      "op": "slice_axis", 
      "name": "ssd0_slice_axis13", 
      "attrs": {
        "axis": "-1", 
        "begin": "6", 
        "end": "7"
      }, 
      "inputs": [[281, 0, 0]]
    }, 
    {
      "op": "Concat", 
      "name": "ssd0_concat9", 
      "attrs": {
        "dim": "-1", 
        "num_args": "3"
      }, 
      "inputs": [[406, 0, 0], [407, 0, 0], [389, 0, 0]]
    }, 
    {
      "op": "slice_axis", 
      "name": "ssd0_slice_axis14", 
      "attrs": {
        "axis": "-1", 
        "begin": "7", 
        "end": "8"
      }, 
      "inputs": [[278, 0, 0]]
    }, 
    {
      "op": "slice_axis", 
      "name": "ssd0_slice_axis15", 
      "attrs": {
        "axis": "-1", 
        "begin": "7", 
        "end": "8"
      }, 
      "inputs": [[281, 0, 0]]
    }, 
    {
      "op": "Concat", 
      "name": "ssd0_concat10", 
      "attrs": {
        "dim": "-1", 
        "num_args": "3"
      }, 
      "inputs": [[409, 0, 0], [410, 0, 0], [389, 0, 0]]
    }, 
    {
      "op": "slice_axis", 
      "name": "ssd0_slice_axis16", 
      "attrs": {
        "axis": "-1", 
        "begin": "8", 
        "end": "9"
      }, 
      "inputs": [[278, 0, 0]]
    }, 
    {
      "op": "slice_axis", 
      "name": "ssd0_slice_axis17", 
      "attrs": {
        "axis": "-1", 
        "begin": "8", 
        "end": "9"
      }, 
      "inputs": [[281, 0, 0]]
    }, 
    {
      "op": "Concat", 
      "name": "ssd0_concat11", 
      "attrs": {
        "dim": "-1", 
        "num_args": "3"
      }, 
      "inputs": [[412, 0, 0], [413, 0, 0], [389, 0, 0]]
    }, 
    {
      "op": "slice_axis", 
      "name": "ssd0_slice_axis18", 
      "attrs": {
        "axis": "-1", 
        "begin": "9", 
        "end": "10"
      }, 
      "inputs": [[278, 0, 0]]
    }, 
    {
      "op": "slice_axis", 
      "name": "ssd0_slice_axis19", 
      "attrs": {
        "axis": "-1", 
        "begin": "9", 
        "end": "10"
      }, 
      "inputs": [[281, 0, 0]]
    }, 
    {
      "op": "Concat", 
      "name": "ssd0_concat12", 
      "attrs": {
        "dim": "-1", 
        "num_args": "3"
      }, 
      "inputs": [[415, 0, 0], [416, 0, 0], [389, 0, 0]]
    }, 
    {
      "op": "slice_axis", 
      "name": "ssd0_slice_axis20", 
      "attrs": {
        "axis": "-1", 
        "begin": "10", 
        "end": "11"
      }, 
      "inputs": [[278, 0, 0]]
    }, 
    {
      "op": "slice_axis", 
      "name": "ssd0_slice_axis21", 
      "attrs": {
        "axis": "-1", 
        "begin": "10", 
        "end": "11"
      }, 
      "inputs": [[281, 0, 0]]
    }, 
    {
      "op": "Concat", 
      "name": "ssd0_concat13", 
      "attrs": {
        "dim": "-1", 
        "num_args": "3"
      }, 
      "inputs": [[418, 0, 0], [419, 0, 0], [389, 0, 0]]
    }, 
    {
      "op": "slice_axis", 
      "name": "ssd0_slice_axis22", 
      "attrs": {
        "axis": "-1", 
        "begin": "11", 
        "end": "12"
      }, 
      "inputs": [[278, 0, 0]]
    }, 
    {
      "op": "slice_axis", 
      "name": "ssd0_slice_axis23", 
      "attrs": {
        "axis": "-1", 
        "begin": "11", 
        "end": "12"
      }, 
      "inputs": [[281, 0, 0]]
    }, 
    {
      "op": "Concat", 
      "name": "ssd0_concat14", 
      "attrs": {
        "dim": "-1", 
        "num_args": "3"
      }, 
      "inputs": [[421, 0, 0], [422, 0, 0], [389, 0, 0]]
    }, 
    {
      "op": "slice_axis", 
      "name": "ssd0_slice_axis24", 
      "attrs": {
        "axis": "-1", 
        "begin": "12", 
        "end": "13"
      }, 
      "inputs": [[278, 0, 0]]
    }, 
    {
      "op": "slice_axis", 
      "name": "ssd0_slice_axis25", 
      "attrs": {
        "axis": "-1", 
        "begin": "12", 
        "end": "13"
      }, 
      "inputs": [[281, 0, 0]]
    }, 
    {
      "op": "Concat", 
      "name": "ssd0_concat15", 
      "attrs": {
        "dim": "-1", 
        "num_args": "3"
      }, 
      "inputs": [[424, 0, 0], [425, 0, 0], [389, 0, 0]]
    }, 
    {
      "op": "slice_axis", 
      "name": "ssd0_slice_axis26", 
      "attrs": {
        "axis": "-1", 
        "begin": "13", 
        "end": "14"
      }, 
      "inputs": [[278, 0, 0]]
    }, 
    {
      "op": "slice_axis", 
      "name": "ssd0_slice_axis27", 
      "attrs": {
        "axis": "-1", 
        "begin": "13", 
        "end": "14"
      }, 
      "inputs": [[281, 0, 0]]
    }, 
    {
      "op": "Concat", 
      "name": "ssd0_concat16", 
      "attrs": {
        "dim": "-1", 
        "num_args": "3"
      }, 
      "inputs": [[427, 0, 0], [428, 0, 0], [389, 0, 0]]
    }, 
    {
      "op": "slice_axis", 
      "name": "ssd0_slice_axis28", 
      "attrs": {
        "axis": "-1", 
        "begin": "14", 
        "end": "15"
      }, 
      "inputs": [[278, 0, 0]]
    }, 
    {
      "op": "slice_axis", 
      "name": "ssd0_slice_axis29", 
      "attrs": {
        "axis": "-1", 
        "begin": "14", 
        "end": "15"
      }, 
      "inputs": [[281, 0, 0]]
    }, 
    {
      "op": "Concat", 
      "name": "ssd0_concat17", 
      "attrs": {
        "dim": "-1", 
        "num_args": "3"
      }, 
      "inputs": [[430, 0, 0], [431, 0, 0], [389, 0, 0]]
    }, 
    {
      "op": "slice_axis", 
      "name": "ssd0_slice_axis30", 
      "attrs": {
        "axis": "-1", 
        "begin": "15", 
        "end": "16"
      }, 
      "inputs": [[278, 0, 0]]
    }, 
    {
      "op": "slice_axis", 
      "name": "ssd0_slice_axis31", 
      "attrs": {
        "axis": "-1", 
        "begin": "15", 
        "end": "16"
      }, 
      "inputs": [[281, 0, 0]]
    }, 
    {
      "op": "Concat", 
      "name": "ssd0_concat18", 
      "attrs": {
        "dim": "-1", 
        "num_args": "3"
      }, 
      "inputs": [[433, 0, 0], [434, 0, 0], [389, 0, 0]]
    }, 
    {
      "op": "slice_axis", 
      "name": "ssd0_slice_axis32", 
      "attrs": {
        "axis": "-1", 
        "begin": "16", 
        "end": "17"
      }, 
      "inputs": [[278, 0, 0]]
    }, 
    {
      "op": "slice_axis", 
      "name": "ssd0_slice_axis33", 
      "attrs": {
        "axis": "-1", 
        "begin": "16", 
        "end": "17"
      }, 
      "inputs": [[281, 0, 0]]
    }, 
    {
      "op": "Concat", 
      "name": "ssd0_concat19", 
      "attrs": {
        "dim": "-1", 
        "num_args": "3"
      }, 
      "inputs": [[436, 0, 0], [437, 0, 0], [389, 0, 0]]
    }, 
    {
      "op": "slice_axis", 
      "name": "ssd0_slice_axis34", 
      "attrs": {
        "axis": "-1", 
        "begin": "17", 
        "end": "18"
      }, 
      "inputs": [[278, 0, 0]]
    }, 
    {
      "op": "slice_axis", 
      "name": "ssd0_slice_axis35", 
      "attrs": {
        "axis": "-1", 
        "begin": "17", 
        "end": "18"
      }, 
      "inputs": [[281, 0, 0]]
    }, 
    {
      "op": "Concat", 
      "name": "ssd0_concat20", 
      "attrs": {
        "dim": "-1", 
        "num_args": "3"
      }, 
      "inputs": [[439, 0, 0], [440, 0, 0], [389, 0, 0]]
    }, 
    {
      "op": "slice_axis", 
      "name": "ssd0_slice_axis36", 
      "attrs": {
        "axis": "-1", 
        "begin": "18", 
        "end": "19"
      }, 
      "inputs": [[278, 0, 0]]
    }, 
    {
      "op": "slice_axis", 
      "name": "ssd0_slice_axis37", 
      "attrs": {
        "axis": "-1", 
        "begin": "18", 
        "end": "19"
      }, 
      "inputs": [[281, 0, 0]]
    }, 
    {
      "op": "Concat", 
      "name": "ssd0_concat21", 
      "attrs": {
        "dim": "-1", 
        "num_args": "3"
      }, 
      "inputs": [[442, 0, 0], [443, 0, 0], [389, 0, 0]]
    }, 
    {
      "op": "slice_axis", 
      "name": "ssd0_slice_axis38", 
      "attrs": {
        "axis": "-1", 
        "begin": "19", 
        "end": "20"
      }, 
      "inputs": [[278, 0, 0]]
    }, 
    {
      "op": "slice_axis", 
      "name": "ssd0_slice_axis39", 
      "attrs": {
        "axis": "-1", 
        "begin": "19", 
        "end": "20"
      }, 
      "inputs": [[281, 0, 0]]
    }, 
    {
      "op": "Concat", 
      "name": "ssd0_concat22", 
      "attrs": {
        "dim": "-1", 
        "num_args": "3"
      }, 
      "inputs": [[445, 0, 0], [446, 0, 0], [389, 0, 0]]
    }, 
    {
      "op": "Concat", 
      "name": "ssd0_concat23", 
      "attrs": {
        "dim": "1", 
        "num_args": "20"
      }, 
      "inputs": [
        [390, 0, 0], 
        [393, 0, 0], 
        [396, 0, 0], 
        [399, 0, 0], 
        [402, 0, 0], 
        [405, 0, 0], 
        [408, 0, 0], 
        [411, 0, 0], 
        [414, 0, 0], 
        [417, 0, 0], 
        [420, 0, 0], 
        [423, 0, 0], 
        [426, 0, 0], 
        [429, 0, 0], 
        [432, 0, 0], 
        [435, 0, 0], 
        [438, 0, 0], 
        [441, 0, 0], 
        [444, 0, 0], 
        [447, 0, 0]
      ]
    }, 
    {
      "op": "_contrib_box_nms", 
      "name": "ssd0_box_nms0", 
      "attrs": {
        "coord_start": "2", 
        "force_suppress": "False", 
        "id_index": "0", 
        "overlap_thresh": "0.45", 
        "score_index": "1", 
        "topk": "200", 
        "valid_thresh": "0.01"
      }, 
      "inputs": [[448, 0, 0]]
    }, 
    {
      "op": "slice_axis", 
      "name": "ssd0_slice_axis40", 
      "attrs": {
        "axis": "1", 
        "begin": "0", 
        "end": "100"
      }, 
      "inputs": [[449, 0, 0]]
    }, 
    {
      "op": "slice_axis", 
      "name": "ssd0_slice_axis41", 
      "attrs": {
        "axis": "2", 
        "begin": "0", 
        "end": "1"
      }, 
      "inputs": [[450, 0, 0]]
    }, 
    {
      "op": "slice_axis", 
      "name": "ssd0_slice_axis42", 
      "attrs": {
        "axis": "2", 
        "begin": "1", 
        "end": "2"
      }, 
      "inputs": [[450, 0, 0]]
    }, 
    {
      "op": "slice_axis", 
      "name": "ssd0_slice_axis43", 
      "attrs": {
        "axis": "2", 
        "begin": "2", 
        "end": "6"
      }, 
      "inputs": [[450, 0, 0]]
    }
  ], 
  "arg_nodes": [
    0, 
    2, 
    3, 
    4, 
    5, 
    6, 
    8, 
    9, 
    10, 
    11, 
    12, 
    14, 
    15, 
    16, 
    17, 
    18, 
    20, 
    21, 
    22, 
    23, 
    24, 
    26, 
    27, 
    28, 
    29, 
    30, 
    32, 
    33, 
    34, 
    35, 
    36, 
    38, 
    39, 
    40, 
    41, 
    42, 
    44, 
    45, 
    46, 
    47, 
    48, 
    50, 
    51, 
    52, 
    53, 
    54, 
    56, 
    57, 
    58, 
    59, 
    60, 
    62, 
    63, 
    64, 
    65, 
    66, 
    68, 
    69, 
    70, 
    71, 
    72, 
    74, 
    75, 
    76, 
    77, 
    78, 
    80, 
    81, 
    82, 
    83, 
    84, 
    86, 
    87, 
    88, 
    89, 
    90, 
    92, 
    93, 
    94, 
    95, 
    96, 
    98, 
    99, 
    100, 
    101, 
    102, 
    104, 
    105, 
    106, 
    107, 
    108, 
    110, 
    111, 
    112, 
    113, 
    114, 
    116, 
    117, 
    118, 
    119, 
    120, 
    122, 
    123, 
    124, 
    125, 
    126, 
    128, 
    129, 
    130, 
    131, 
    132, 
    134, 
    135, 
    136, 
    137, 
    138, 
    140, 
    141, 
    146, 
    147, 
    148, 
    149, 
    150, 
    152, 
    153, 
    154, 
    155, 
    156, 
    158, 
    159, 
    160, 
    161, 
    162, 
    164, 
    165, 
    166, 
    167, 
    168, 
    170, 
    171, 
    176, 
    177, 
    178, 
    179, 
    180, 
    182, 
    183, 
    184, 
    185, 
    186, 
    188, 
    189, 
    194, 
    195, 
    196, 
    197, 
    198, 
    200, 
    201, 
    202, 
    203, 
    204, 
    206, 
    207, 
    212, 
    213, 
    214, 
    215, 
    216, 
    218, 
    219, 
    220, 
    221, 
    222, 
    224, 
    225, 
    230, 
    231, 
    232, 
    233, 
    234, 
    236, 
    237, 
    238, 
    239, 
    240, 
    242, 
    243, 
    283, 
    284, 
    289, 
    290, 
    295, 
    296, 
    301, 
    302, 
    307, 
    308, 
    313, 
    314, 
    324, 
    331, 
    338, 
    345, 
    352, 
    359
  ], 
  "node_row_ptr": [
    0, 
    1, 
    4, 
    5, 
    6, 
    7, 
    8, 
    9, 
    12, 
    13, 
    14, 
    15, 
    16, 
    17, 
    20, 
    21, 
    22, 
    23, 
    24, 
    25, 
    28, 
    29, 
    30, 
    31, 
    32, 
    33, 
    36, 
    37, 
    38, 
    39, 
    40, 
    41, 
    44, 
    45, 
    46, 
    47, 
    48, 
    49, 
    52, 
    53, 
    54, 
    55, 
    56, 
    57, 
    60, 
    61, 
    62, 
    63, 
    64, 
    65, 
    68, 
    69, 
    70, 
    71, 
    72, 
    73, 
    76, 
    77, 
    78, 
    79, 
    80, 
    81, 
    84, 
    85, 
    86, 
    87, 
    88, 
    89, 
    92, 
    93, 
    94, 
    95, 
    96, 
    97, 
    100, 
    101, 
    102, 
    103, 
    104, 
    105, 
    108, 
    109, 
    110, 
    111, 
    112, 
    113, 
    116, 
    117, 
    118, 
    119, 
    120, 
    121, 
    124, 
    125, 
    126, 
    127, 
    128, 
    129, 
    132, 
    133, 
    134, 
    135, 
    136, 
    137, 
    140, 
    141, 
    142, 
    143, 
    144, 
    145, 
    148, 
    149, 
    150, 
    151, 
    152, 
    153, 
    156, 
    157, 
    158, 
    159, 
    160, 
    161, 
    164, 
    165, 
    166, 
    167, 
    168, 
    169, 
    172, 
    173, 
    174, 
    175, 
    176, 
    177, 
    180, 
    181, 
    182, 
    183, 
    184, 
    185, 
    188, 
    189, 
    190, 
    193, 
    194, 
    195, 
    196, 
    197, 
    198, 
    199, 
    200, 
    201, 
    204, 
    205, 
    206, 
    207, 
    208, 
    209, 
    212, 
    213, 
    214, 
    215, 
    216, 
    217, 
    220, 
    221, 
    222, 
    223, 
    224, 
    225, 
    228, 
    229, 
    230, 
    233, 
    234, 
    235, 
    236, 
    237, 
    238, 
    239, 
    240, 
    241, 
    244, 
    245, 
    246, 
    247, 
    248, 
    249, 
    252, 
    253, 
    254, 
    257, 
    258, 
    259, 
    260, 
    261, 
    262, 
    263, 
    264, 
    265, 
    268, 
    269, 
    270, 
    271, 
    272, 
    273, 
    276, 
    277, 
    278, 
    281, 
    282, 
    283, 
    284, 
    285, 
    286, 
    287, 
    288, 
    289, 
    292, 
    293, 
    294, 
    295, 
    296, 
    297, 
    300, 
    301, 
    302, 
    305, 
    306, 
    307, 
    308, 
    309, 
    310, 
    311, 
    312, 
    313, 
    316, 
    317, 
    318, 
    319, 
    320, 
    321, 
    324, 
    325, 
    326, 
    329, 
    330, 
    331, 
    332, 
    333, 
    334, 
    335, 
    336, 
    337, 
    338, 
    339, 
    340, 
    341, 
    342, 
    343, 
    344, 
    345, 
    346, 
    347, 
    348, 
    349, 
    350, 
    351, 
    352, 
    353, 
    354, 
    355, 
    356, 
    357, 
    358, 
    359, 
    360, 
    361, 
    362, 
    363, 
    364, 
    365, 
    366, 
    367, 
    368, 
    369, 
    372, 
    373, 
    374, 
    375, 
    376, 
    377, 
    380, 
    381, 
    382, 
    383, 
    384, 
    385, 
    388, 
    389, 
    390, 
    391, 
    392, 
    393, 
    396, 
    397, 
    398, 
    399, 
    400, 
    401, 
    404, 
    405, 
    406, 
    407, 
    408, 
    409, 
    412, 
    413, 
    414, 
    415, 
    416, 
    417, 
    421, 
    422, 
    423, 
    424, 
    425, 
    426, 
    427, 
    428, 
    429, 
    430, 
    431, 
    432, 
    433, 
    434, 
    435, 
    436, 
    437, 
    438, 
    439, 
    440, 
    441, 
    442, 
    443, 
    444, 
    445, 
    446, 
    447, 
    448, 
    449, 
    450, 
    451, 
    452, 
    453, 
    454, 
    455, 
    456, 
    457, 
    458, 
    459, 
    460, 
    461, 
    462, 
    463, 
    464, 
    465, 
    466, 
    467, 
    471, 
    472, 
    473, 
    474, 
    475, 
    476, 
    477, 
    478, 
    479, 
    480, 
    481, 
    482, 
    483, 
    484, 
    485, 
    486, 
    487, 
    488, 
    489, 
    490, 
    491, 
    492, 
    493, 
    494, 
    495, 
    496, 
    497, 
    498, 
    499, 
    500, 
    501, 
    502, 
    503, 
    504, 
    505, 
    506, 
    507, 
    508, 
    509, 
    510, 
    511, 
    512, 
    513, 
    514, 
    515, 
    516, 
    517, 
    518, 
    519, 
    520, 
    521, 
    522, 
    523, 
    524, 
    525, 
    526, 
    527, 
    528, 
    529, 
    530, 
    531, 
    532, 
    533, 
    534, 
    535, 
    536, 
    537, 
    538, 
    539, 
    540, 
    541, 
    542, 
    543, 
    544, 
    545, 
    546, 
    547, 
    548, 
    549, 
    550, 
    551, 
    553, 
    554, 
    555, 
    556, 
    557
  ], 
  "heads": [[451, 0, 0], [452, 0, 0], [453, 0, 0]], 
  "attrs": {"mxnet_version": ["int", 10500]}
}
