{
  "nodes": [
    {
      "op": "null", 
      "name": "data", 
      "inputs": []
    }, 
    {
      "op": "_contrib_quantize_v2", 
      "name": "data_quantize", 
      "attrs": {"out_type": "auto"}, 
      "inputs": [[0, 0, 0]]
    }, 
    {
      "op": "null", 
      "name": "ssd0_resnetv10_conv0_weight", 
      "attrs": {
        "__dtype__": "0", 
        "__lr_mult__": "1.0", 
        "__shape__": "(64, 0, 7, 7)", 
        "__storage_type__": "0", 
        "__wd_mult__": "1.0"
      }, 
      "inputs": []
    }, 
    {
      "op": "null", 
      "name": "ssd0_resnetv10_batchnorm0_gamma", 
      "attrs": {
        "__dtype__": "0", 
        "__init__": "ones", 
        "__lr_mult__": "1.0", 
        "__shape__": "(0,)", 
        "__storage_type__": "0", 
        "__wd_mult__": "1.0"
      }, 
      "inputs": []
    }, 
    {
      "op": "null", 
      "name": "ssd0_resnetv10_batchnorm0_beta", 
      "attrs": {
        "__dtype__": "0", 
        "__init__": "zeros", 
        "__lr_mult__": "1.0", 
        "__shape__": "(0,)", 
        "__storage_type__": "0", 
        "__wd_mult__": "1.0"
      }, 
      "inputs": []
    }, 
    {
      "op": "null", 
      "name": "ssd0_resnetv10_batchnorm0_running_mean", 
      "attrs": {
        "__dtype__": "0", 
        "__init__": "zeros", 
        "__lr_mult__": "1.0", 
        "__shape__": "(0,)", 
        "__storage_type__": "0", 
        "__wd_mult__": "1.0"
      }, 
      "inputs": []
    }, 
    {
      "op": "null", 
      "name": "ssd0_resnetv10_batchnorm0_running_var", 
      "attrs": {
        "__dtype__": "0", 
        "__init__": "ones", 
        "__lr_mult__": "1.0", 
        "__shape__": "(0,)", 
        "__storage_type__": "0", 
        "__wd_mult__": "1.0"
      }, 
      "inputs": []
    }, 
    {
      "op": "_sg_mkldnn_conv", 
      "name": "quantized_sg_mkldnn_conv_bn_relu_0", 
      "attrs": {
        "max_calib_range": "4.332401", 
        "min_calib_range": "-0.000000", 
        "quantized": "true", 
        "with_bn": "true", 
        "with_relu": "true"
      }, 
      "inputs": [[1, 0, 0], [2, 0, 0], [3, 0, 0], [4, 0, 0], [5, 0, 1], [6, 0, 1], [1, 1, 0], [1, 2, 0]], 
      "subgraphs": [
        {
          "nodes": [
            {
              "op": "null", 
              "name": "data0", 
              "inputs": []
            }, 
            {
              "op": "null", 
              "name": "ssd0_resnetv10_conv0_weight0", 
              "inputs": []
            }, 
            {
              "op": "Convolution", 
              "name": "ssd0_resnetv10_conv0_fwd", 
              "attrs": {
                "dilate": "(1, 1)", 
                "kernel": "(7, 7)", 
                "layout": "NCHW", 
                "no_bias": "True", 
                "num_filter": "64", 
                "num_group": "1", 
                "pad": "(3, 3)", 
                "stride": "(2, 2)"
              }, 
              "inputs": [[0, 0, 0], [1, 0, 0]]
            }, 
            {
              "op": "null", 
              "name": "ssd0_resnetv10_batchnorm0_gamma0", 
              "inputs": []
            }, 
            {
              "op": "null", 
              "name": "ssd0_resnetv10_batchnorm0_beta0", 
              "inputs": []
            }, 
            {
              "op": "null", 
              "name": "ssd0_resnetv10_batchnorm0_running_mean0", 
              "inputs": []
            }, 
            {
              "op": "null", 
              "name": "ssd0_resnetv10_batchnorm0_running_var0", 
              "inputs": []
            }, 
            {
              "op": "BatchNorm", 
              "name": "ssd0_resnetv10_batchnorm0_fwd", 
              "attrs": {
                "axis": "1", 
                "eps": "1e-05", 
                "fix_gamma": "False", 
                "momentum": "0.9", 
                "use_global_stats": "False"
              }, 
              "inputs": [[2, 0, 0], [3, 0, 0], [4, 0, 0], [5, 0, 0], [6, 0, 0]]
            }, 
            {
              "op": "Activation", 
              "name": "ssd0_resnetv10_relu0_fwd", 
              "attrs": {"act_type": "relu"}, 
              "inputs": [[7, 0, 0]]
            }
          ], 
          "arg_nodes": [0, 1, 3, 4, 5, 6], 
          "node_row_ptr": [0, 1, 2, 3, 4, 5, 6, 7, 10, 11], 
          "heads": [[8, 0, 0]]
        }
      ]
    }, 
    {
      "op": "_contrib_quantized_pooling", 
      "name": "quantized_ssd0_resnetv10_pool0_fwd", 
      "attrs": {
        "global_pool": "False", 
        "kernel": "(3, 3)", 
        "layout": "NCHW", 
        "pad": "(1, 1)", 
        "pool_type": "max", 
        "pooling_convention": "valid", 
        "stride": "(2, 2)"
      }, 
      "inputs": [[7, 0, 0], [7, 1, 0], [7, 2, 0]]
    }, 
    {
      "op": "null", 
      "name": "ssd0_resnetv10_stage1_conv0_weight", 
      "attrs": {
        "__dtype__": "0", 
        "__lr_mult__": "1.0", 
        "__shape__": "(64, 0, 1, 1)", 
        "__storage_type__": "0", 
        "__wd_mult__": "1.0"
      }, 
      "inputs": []
    }, 
    {
      "op": "null", 
      "name": "ssd0_resnetv10_stage1_conv0_bias", 
      "attrs": {
        "__dtype__": "0", 
        "__init__": "zeros", 
        "__lr_mult__": "1.0", 
        "__shape__": "(64,)", 
        "__storage_type__": "0", 
        "__wd_mult__": "1.0"
      }, 
      "inputs": []
    }, 
    {
      "op": "null", 
      "name": "ssd0_resnetv10_stage1_batchnorm0_gamma", 
      "attrs": {
        "__dtype__": "0", 
        "__init__": "ones", 
        "__lr_mult__": "1.0", 
        "__shape__": "(0,)", 
        "__storage_type__": "0", 
        "__wd_mult__": "1.0"
      }, 
      "inputs": []
    }, 
    {
      "op": "null", 
      "name": "ssd0_resnetv10_stage1_batchnorm0_beta", 
      "attrs": {
        "__dtype__": "0", 
        "__init__": "zeros", 
        "__lr_mult__": "1.0", 
        "__shape__": "(0,)", 
        "__storage_type__": "0", 
        "__wd_mult__": "1.0"
      }, 
      "inputs": []
    }, 
    {
      "op": "null", 
      "name": "ssd0_resnetv10_stage1_batchnorm0_running_mean", 
      "attrs": {
        "__dtype__": "0", 
        "__init__": "zeros", 
        "__lr_mult__": "1.0", 
        "__shape__": "(0,)", 
        "__storage_type__": "0", 
        "__wd_mult__": "1.0"
      }, 
      "inputs": []
    }, 
    {
      "op": "null", 
      "name": "ssd0_resnetv10_stage1_batchnorm0_running_var", 
      "attrs": {
        "__dtype__": "0", 
        "__init__": "ones", 
        "__lr_mult__": "1.0", 
        "__shape__": "(0,)", 
        "__storage_type__": "0", 
        "__wd_mult__": "1.0"
      }, 
      "inputs": []
    }, 
    {
      "op": "_sg_mkldnn_conv", 
      "name": "quantized_sg_mkldnn_conv_bn_relu_1", 
      "attrs": {
        "max_calib_range": "2.686990", 
        "min_calib_range": "-0.000000", 
        "quantized": "true", 
        "with_bn": "true", 
        "with_relu": "true"
      }, 
      "inputs": [[8, 0, 0], [9, 0, 0], [10, 0, 0], [11, 0, 0], [12, 0, 0], [13, 0, 1], [14, 0, 1], [8, 1, 0], [8, 2, 0]], 
      "subgraphs": [
        {
          "nodes": [
            {
              "op": "null", 
              "name": "ssd0_resnetv10_pool0_fwd_output0", 
              "inputs": []
            }, 
            {
              "op": "null", 
              "name": "ssd0_resnetv10_stage1_conv0_weight0", 
              "inputs": []
            }, 
            {
              "op": "null", 
              "name": "ssd0_resnetv10_stage1_conv0_bias0", 
              "inputs": []
            }, 
            {
              "op": "Convolution", 
              "name": "ssd0_resnetv10_stage1_conv0_fwd", 
              "attrs": {
                "dilate": "(1, 1)", 
                "kernel": "(1, 1)", 
                "layout": "NCHW", 
                "no_bias": "False", 
                "num_filter": "64", 
                "num_group": "1", 
                "pad": "(0, 0)", 
                "stride": "(1, 1)"
              }, 
              "inputs": [[0, 0, 0], [1, 0, 0], [2, 0, 0]]
            }, 
            {
              "op": "null", 
              "name": "ssd0_resnetv10_stage1_batchnorm0_gamma0", 
              "inputs": []
            }, 
            {
              "op": "null", 
              "name": "ssd0_resnetv10_stage1_batchnorm0_beta0", 
              "inputs": []
            }, 
            {
              "op": "null", 
              "name": "ssd0_resnetv10_stage1_batchnorm0_running_mean0", 
              "inputs": []
            }, 
            {
              "op": "null", 
              "name": "ssd0_resnetv10_stage1_batchnorm0_running_var0", 
              "inputs": []
            }, 
            {
              "op": "BatchNorm", 
              "name": "ssd0_resnetv10_stage1_batchnorm0_fwd", 
              "attrs": {
                "axis": "1", 
                "eps": "1e-05", 
                "fix_gamma": "False", 
                "momentum": "0.9", 
                "use_global_stats": "False"
              }, 
              "inputs": [[3, 0, 0], [4, 0, 0], [5, 0, 0], [6, 0, 0], [7, 0, 0]]
            }, 
            {
              "op": "Activation", 
              "name": "ssd0_resnetv10_stage1_relu0_fwd", 
              "attrs": {"act_type": "relu"}, 
              "inputs": [[8, 0, 0]]
            }
          ], 
          "arg_nodes": [0, 1, 2, 4, 5, 6, 7], 
          "node_row_ptr": [
            0, 
            1, 
            2, 
            3, 
            4, 
            5, 
            6, 
            7, 
            8, 
            11, 
            12
          ], 
          "heads": [[9, 0, 0]]
        }
      ]
    }, 
    {
      "op": "null", 
      "name": "ssd0_resnetv10_stage1_conv1_weight", 
      "attrs": {
        "__dtype__": "0", 
        "__lr_mult__": "1.0", 
        "__shape__": "(64, 64, 3, 3)", 
        "__storage_type__": "0", 
        "__wd_mult__": "1.0"
      }, 
      "inputs": []
    }, 
    {
      "op": "null", 
      "name": "ssd0_resnetv10_stage1_batchnorm1_gamma", 
      "attrs": {
        "__dtype__": "0", 
        "__init__": "ones", 
        "__lr_mult__": "1.0", 
        "__shape__": "(0,)", 
        "__storage_type__": "0", 
        "__wd_mult__": "1.0"
      }, 
      "inputs": []
    }, 
    {
      "op": "null", 
      "name": "ssd0_resnetv10_stage1_batchnorm1_beta", 
      "attrs": {
        "__dtype__": "0", 
        "__init__": "zeros", 
        "__lr_mult__": "1.0", 
        "__shape__": "(0,)", 
        "__storage_type__": "0", 
        "__wd_mult__": "1.0"
      }, 
      "inputs": []
    }, 
    {
      "op": "null", 
      "name": "ssd0_resnetv10_stage1_batchnorm1_running_mean", 
      "attrs": {
        "__dtype__": "0", 
        "__init__": "zeros", 
        "__lr_mult__": "1.0", 
        "__shape__": "(0,)", 
        "__storage_type__": "0", 
        "__wd_mult__": "1.0"
      }, 
      "inputs": []
    }, 
    {
      "op": "null", 
      "name": "ssd0_resnetv10_stage1_batchnorm1_running_var", 
      "attrs": {
        "__dtype__": "0", 
        "__init__": "ones", 
        "__lr_mult__": "1.0", 
        "__shape__": "(0,)", 
        "__storage_type__": "0", 
        "__wd_mult__": "1.0"
      }, 
      "inputs": []
    }, 
    {
      "op": "_sg_mkldnn_conv", 
      "name": "quantized_sg_mkldnn_conv_bn_relu_2", 
      "attrs": {
        "max_calib_range": "2.207719", 
        "min_calib_range": "-0.000000", 
        "quantized": "true", 
        "with_bn": "true", 
        "with_relu": "true"
      }, 
      "inputs": [[15, 0, 0], [16, 0, 0], [17, 0, 0], [18, 0, 0], [19, 0, 1], [20, 0, 1], [15, 1, 0], [15, 2, 0]], 
      "subgraphs": [
        {
          "nodes": [
            {
              "op": "null", 
              "name": "sg_mkldnn_conv_bn_relu_1_output0", 
              "inputs": []
            }, 
            {
              "op": "null", 
              "name": "ssd0_resnetv10_stage1_conv1_weight0", 
              "inputs": []
            }, 
            {
              "op": "Convolution", 
              "name": "ssd0_resnetv10_stage1_conv1_fwd", 
              "attrs": {
                "dilate": "(1, 1)", 
                "kernel": "(3, 3)", 
                "layout": "NCHW", 
                "no_bias": "True", 
                "num_filter": "64", 
                "num_group": "1", 
                "pad": "(1, 1)", 
                "stride": "(1, 1)"
              }, 
              "inputs": [[0, 0, 0], [1, 0, 0]]
            }, 
            {
              "op": "null", 
              "name": "ssd0_resnetv10_stage1_batchnorm1_gamma0", 
              "inputs": []
            }, 
            {
              "op": "null", 
              "name": "ssd0_resnetv10_stage1_batchnorm1_beta0", 
              "inputs": []
            }, 
            {
              "op": "null", 
              "name": "ssd0_resnetv10_stage1_batchnorm1_running_mean0", 
              "inputs": []
            }, 
            {
              "op": "null", 
              "name": "ssd0_resnetv10_stage1_batchnorm1_running_var0", 
              "inputs": []
            }, 
            {
              "op": "BatchNorm", 
              "name": "ssd0_resnetv10_stage1_batchnorm1_fwd", 
              "attrs": {
                "axis": "1", 
                "eps": "1e-05", 
                "fix_gamma": "False", 
                "momentum": "0.9", 
                "use_global_stats": "False"
              }, 
              "inputs": [[2, 0, 0], [3, 0, 0], [4, 0, 0], [5, 0, 0], [6, 0, 0]]
            }, 
            {
              "op": "Activation", 
              "name": "ssd0_resnetv10_stage1_relu1_fwd", 
              "attrs": {"act_type": "relu"}, 
              "inputs": [[7, 0, 0]]
            }
          ], 
          "arg_nodes": [0, 1, 3, 4, 5, 6], 
          "node_row_ptr": [0, 1, 2, 3, 4, 5, 6, 7, 10, 11], 
          "heads": [[8, 0, 0]]
        }
      ]
    }, 
    {
      "op": "null", 
      "name": "ssd0_resnetv10_stage1_conv2_weight", 
      "attrs": {
        "__dtype__": "0", 
        "__lr_mult__": "1.0", 
        "__shape__": "(256, 0, 1, 1)", 
        "__storage_type__": "0", 
        "__wd_mult__": "1.0"
      }, 
      "inputs": []
    }, 
    {
      "op": "null", 
      "name": "ssd0_resnetv10_stage1_conv2_bias", 
      "attrs": {
        "__dtype__": "0", 
        "__init__": "zeros", 
        "__lr_mult__": "1.0", 
        "__shape__": "(256,)", 
        "__storage_type__": "0", 
        "__wd_mult__": "1.0"
      }, 
      "inputs": []
    }, 
    {
      "op": "null", 
      "name": "ssd0_resnetv10_stage1_batchnorm2_gamma", 
      "attrs": {
        "__dtype__": "0", 
        "__init__": "ones", 
        "__lr_mult__": "1.0", 
        "__shape__": "(0,)", 
        "__storage_type__": "0", 
        "__wd_mult__": "1.0"
      }, 
      "inputs": []
    }, 
    {
      "op": "null", 
      "name": "ssd0_resnetv10_stage1_batchnorm2_beta", 
      "attrs": {
        "__dtype__": "0", 
        "__init__": "zeros", 
        "__lr_mult__": "1.0", 
        "__shape__": "(0,)", 
        "__storage_type__": "0", 
        "__wd_mult__": "1.0"
      }, 
      "inputs": []
    }, 
    {
      "op": "null", 
      "name": "ssd0_resnetv10_stage1_batchnorm2_running_mean", 
      "attrs": {
        "__dtype__": "0", 
        "__init__": "zeros", 
        "__lr_mult__": "1.0", 
        "__shape__": "(0,)", 
        "__storage_type__": "0", 
        "__wd_mult__": "1.0"
      }, 
      "inputs": []
    }, 
    {
      "op": "null", 
      "name": "ssd0_resnetv10_stage1_batchnorm2_running_var", 
      "attrs": {
        "__dtype__": "0", 
        "__init__": "ones", 
        "__lr_mult__": "1.0", 
        "__shape__": "(0,)", 
        "__storage_type__": "0", 
        "__wd_mult__": "1.0"
      }, 
      "inputs": []
    }, 
    {
      "op": "null", 
      "name": "ssd0_resnetv10_stage1_conv3_weight", 
      "attrs": {
        "__dtype__": "0", 
        "__lr_mult__": "1.0", 
        "__shape__": "(256, 64, 1, 1)", 
        "__storage_type__": "0", 
        "__wd_mult__": "1.0"
      }, 
      "inputs": []
    }, 
    {
      "op": "null", 
      "name": "ssd0_resnetv10_stage1_batchnorm3_gamma", 
      "attrs": {
        "__dtype__": "0", 
        "__init__": "ones", 
        "__lr_mult__": "1.0", 
        "__shape__": "(0,)", 
        "__storage_type__": "0", 
        "__wd_mult__": "1.0"
      }, 
      "inputs": []
    }, 
    {
      "op": "null", 
      "name": "ssd0_resnetv10_stage1_batchnorm3_beta", 
      "attrs": {
        "__dtype__": "0", 
        "__init__": "zeros", 
        "__lr_mult__": "1.0", 
        "__shape__": "(0,)", 
        "__storage_type__": "0", 
        "__wd_mult__": "1.0"
      }, 
      "inputs": []
    }, 
    {
      "op": "null", 
      "name": "ssd0_resnetv10_stage1_batchnorm3_running_mean", 
      "attrs": {
        "__dtype__": "0", 
        "__init__": "zeros", 
        "__lr_mult__": "1.0", 
        "__shape__": "(0,)", 
        "__storage_type__": "0", 
        "__wd_mult__": "1.0"
      }, 
      "inputs": []
    }, 
    {
      "op": "null", 
      "name": "ssd0_resnetv10_stage1_batchnorm3_running_var", 
      "attrs": {
        "__dtype__": "0", 
        "__init__": "ones", 
        "__lr_mult__": "1.0", 
        "__shape__": "(0,)", 
        "__storage_type__": "0", 
        "__wd_mult__": "1.0"
      }, 
      "inputs": []
    }, 
    {
      "op": "_sg_mkldnn_conv", 
      "name": "quantized_sg_mkldnn_conv_bn_4", 
      "attrs": {
        "max_calib_range": "2.264818", 
        "min_calib_range": "-4.511564", 
        "quantized": "true", 
        "with_bn": "true"
      }, 
      "inputs": [[8, 0, 0], [28, 0, 0], [29, 0, 0], [30, 0, 0], [31, 0, 1], [32, 0, 1], [8, 1, 0], [8, 2, 0]], 
      "subgraphs": [
        {
          "nodes": [
            {
              "op": "null", 
              "name": "ssd0_resnetv10_pool0_fwd_output0", 
              "inputs": []
            }, 
            {
              "op": "null", 
              "name": "ssd0_resnetv10_stage1_conv3_weight0", 
              "inputs": []
            }, 
            {
              "op": "Convolution", 
              "name": "ssd0_resnetv10_stage1_conv3_fwd", 
              "attrs": {
                "dilate": "(1, 1)", 
                "kernel": "(1, 1)", 
                "layout": "NCHW", 
                "no_bias": "True", 
                "num_filter": "256", 
                "num_group": "1", 
                "pad": "(0, 0)", 
                "stride": "(1, 1)"
              }, 
              "inputs": [[0, 0, 0], [1, 0, 0]]
            }, 
            {
              "op": "null", 
              "name": "ssd0_resnetv10_stage1_batchnorm3_gamma0", 
              "inputs": []
            }, 
            {
              "op": "null", 
              "name": "ssd0_resnetv10_stage1_batchnorm3_beta0", 
              "inputs": []
            }, 
            {
              "op": "null", 
              "name": "ssd0_resnetv10_stage1_batchnorm3_running_mean0", 
              "inputs": []
            }, 
            {
              "op": "null", 
              "name": "ssd0_resnetv10_stage1_batchnorm3_running_var0", 
              "inputs": []
            }, 
            {
              "op": "BatchNorm", 
              "name": "ssd0_resnetv10_stage1_batchnorm3_fwd", 
              "attrs": {
                "axis": "1", 
                "eps": "1e-05", 
                "fix_gamma": "False", 
                "momentum": "0.9", 
                "use_global_stats": "False"
              }, 
              "inputs": [[2, 0, 0], [3, 0, 0], [4, 0, 0], [5, 0, 0], [6, 0, 0]]
            }
          ], 
          "arg_nodes": [0, 1, 3, 4, 5, 6], 
          "node_row_ptr": [0, 1, 2, 3, 4, 5, 6, 7, 10], 
          "heads": [[7, 0, 0]]
        }
      ]
    }, 
    {
      "op": "_sg_mkldnn_conv", 
      "name": "quantized_sg_mkldnn_conv_bn_add_relu_3", 
      "attrs": {
        "max_calib_range": "2.577055", 
        "min_calib_range": "-0.000000", 
        "quantized": "true", 
        "with_bn": "true", 
        "with_postsum_relu": "true", 
        "with_sum": "true"
      }, 
      "inputs": [
        [21, 0, 0], 
        [22, 0, 0], 
        [23, 0, 0], 
        [24, 0, 0], 
        [25, 0, 0], 
        [26, 0, 1], 
        [27, 0, 1], 
        [33, 0, 0], 
        [21, 1, 0], 
        [21, 2, 0], 
        [33, 1, 0], 
        [33, 2, 0]
      ], 
      "subgraphs": [
        {
          "nodes": [
            {
              "op": "null", 
              "name": "sg_mkldnn_conv_bn_relu_2_output0", 
              "inputs": []
            }, 
            {
              "op": "null", 
              "name": "ssd0_resnetv10_stage1_conv2_weight0", 
              "inputs": []
            }, 
            {
              "op": "null", 
              "name": "ssd0_resnetv10_stage1_conv2_bias0", 
              "inputs": []
            }, 
            {
              "op": "Convolution", 
              "name": "ssd0_resnetv10_stage1_conv2_fwd", 
              "attrs": {
                "dilate": "(1, 1)", 
                "kernel": "(1, 1)", 
                "layout": "NCHW", 
                "no_bias": "False", 
                "num_filter": "256", 
                "num_group": "1", 
                "pad": "(0, 0)", 
                "stride": "(1, 1)"
              }, 
              "inputs": [[0, 0, 0], [1, 0, 0], [2, 0, 0]]
            }, 
            {
              "op": "null", 
              "name": "ssd0_resnetv10_stage1_batchnorm2_gamma0", 
              "inputs": []
            }, 
            {
              "op": "null", 
              "name": "ssd0_resnetv10_stage1_batchnorm2_beta0", 
              "inputs": []
            }, 
            {
              "op": "null", 
              "name": "ssd0_resnetv10_stage1_batchnorm2_running_mean0", 
              "inputs": []
            }, 
            {
              "op": "null", 
              "name": "ssd0_resnetv10_stage1_batchnorm2_running_var0", 
              "inputs": []
            }, 
            {
              "op": "BatchNorm", 
              "name": "ssd0_resnetv10_stage1_batchnorm2_fwd", 
              "attrs": {
                "axis": "1", 
                "eps": "1e-05", 
                "fix_gamma": "False", 
                "momentum": "0.9", 
                "use_global_stats": "False"
              }, 
              "inputs": [[3, 0, 0], [4, 0, 0], [5, 0, 0], [6, 0, 0], [7, 0, 0]]
            }, 
            {
              "op": "null", 
              "name": "ssd0_resnetv10_stage1_batchnorm3_fwd_output0", 
              "inputs": []
            }, 
            {
              "op": "elemwise_add", 
              "name": "ssd0_resnetv10_stage1__plus0", 
              "inputs": [[8, 0, 0], [9, 0, 0]]
            }, 
            {
              "op": "Activation", 
              "name": "ssd0_resnetv10_stage1_activation0", 
              "attrs": {"act_type": "relu"}, 
              "inputs": [[10, 0, 0]]
            }
          ], 
          "arg_nodes": [0, 1, 2, 4, 5, 6, 7, 9], 
          "node_row_ptr": [
            0, 
            1, 
            2, 
            3, 
            4, 
            5, 
            6, 
            7, 
            8, 
            11, 
            12, 
            13, 
            14
          ], 
          "heads": [[11, 0, 0]]
        }
      ]
    }, 
    {
      "op": "null", 
      "name": "ssd0_resnetv10_stage1_conv4_weight", 
      "attrs": {
        "__dtype__": "0", 
        "__lr_mult__": "1.0", 
        "__shape__": "(64, 0, 1, 1)", 
        "__storage_type__": "0", 
        "__wd_mult__": "1.0"
      }, 
      "inputs": []
    }, 
    {
      "op": "null", 
      "name": "ssd0_resnetv10_stage1_conv4_bias", 
      "attrs": {
        "__dtype__": "0", 
        "__init__": "zeros", 
        "__lr_mult__": "1.0", 
        "__shape__": "(64,)", 
        "__storage_type__": "0", 
        "__wd_mult__": "1.0"
      }, 
      "inputs": []
    }, 
    {
      "op": "null", 
      "name": "ssd0_resnetv10_stage1_batchnorm4_gamma", 
      "attrs": {
        "__dtype__": "0", 
        "__init__": "ones", 
        "__lr_mult__": "1.0", 
        "__shape__": "(0,)", 
        "__storage_type__": "0", 
        "__wd_mult__": "1.0"
      }, 
      "inputs": []
    }, 
    {
      "op": "null", 
      "name": "ssd0_resnetv10_stage1_batchnorm4_beta", 
      "attrs": {
        "__dtype__": "0", 
        "__init__": "zeros", 
        "__lr_mult__": "1.0", 
        "__shape__": "(0,)", 
        "__storage_type__": "0", 
        "__wd_mult__": "1.0"
      }, 
      "inputs": []
    }, 
    {
      "op": "null", 
      "name": "ssd0_resnetv10_stage1_batchnorm4_running_mean", 
      "attrs": {
        "__dtype__": "0", 
        "__init__": "zeros", 
        "__lr_mult__": "1.0", 
        "__shape__": "(0,)", 
        "__storage_type__": "0", 
        "__wd_mult__": "1.0"
      }, 
      "inputs": []
    }, 
    {
      "op": "null", 
      "name": "ssd0_resnetv10_stage1_batchnorm4_running_var", 
      "attrs": {
        "__dtype__": "0", 
        "__init__": "ones", 
        "__lr_mult__": "1.0", 
        "__shape__": "(0,)", 
        "__storage_type__": "0", 
        "__wd_mult__": "1.0"
      }, 
      "inputs": []
    }, 
    {
      "op": "_sg_mkldnn_conv", 
      "name": "quantized_sg_mkldnn_conv_bn_relu_5", 
      "attrs": {
        "max_calib_range": "2.307617", 
        "min_calib_range": "-0.000000", 
        "quantized": "true", 
        "with_bn": "true", 
        "with_relu": "true"
      }, 
      "inputs": [[34, 0, 0], [35, 0, 0], [36, 0, 0], [37, 0, 0], [38, 0, 0], [39, 0, 1], [40, 0, 1], [34, 1, 0], [34, 2, 0]], 
      "subgraphs": [
        {
          "nodes": [
            {
              "op": "null", 
              "name": "sg_mkldnn_conv_bn_add_relu_3_output0", 
              "inputs": []
            }, 
            {
              "op": "null", 
              "name": "ssd0_resnetv10_stage1_conv4_weight0", 
              "inputs": []
            }, 
            {
              "op": "null", 
              "name": "ssd0_resnetv10_stage1_conv4_bias0", 
              "inputs": []
            }, 
            {
              "op": "Convolution", 
              "name": "ssd0_resnetv10_stage1_conv4_fwd", 
              "attrs": {
                "dilate": "(1, 1)", 
                "kernel": "(1, 1)", 
                "layout": "NCHW", 
                "no_bias": "False", 
                "num_filter": "64", 
                "num_group": "1", 
                "pad": "(0, 0)", 
                "stride": "(1, 1)"
              }, 
              "inputs": [[0, 0, 0], [1, 0, 0], [2, 0, 0]]
            }, 
            {
              "op": "null", 
              "name": "ssd0_resnetv10_stage1_batchnorm4_gamma0", 
              "inputs": []
            }, 
            {
              "op": "null", 
              "name": "ssd0_resnetv10_stage1_batchnorm4_beta0", 
              "inputs": []
            }, 
            {
              "op": "null", 
              "name": "ssd0_resnetv10_stage1_batchnorm4_running_mean0", 
              "inputs": []
            }, 
            {
              "op": "null", 
              "name": "ssd0_resnetv10_stage1_batchnorm4_running_var0", 
              "inputs": []
            }, 
            {
              "op": "BatchNorm", 
              "name": "ssd0_resnetv10_stage1_batchnorm4_fwd", 
              "attrs": {
                "axis": "1", 
                "eps": "1e-05", 
                "fix_gamma": "False", 
                "momentum": "0.9", 
                "use_global_stats": "False"
              }, 
              "inputs": [[3, 0, 0], [4, 0, 0], [5, 0, 0], [6, 0, 0], [7, 0, 0]]
            }, 
            {
              "op": "Activation", 
              "name": "ssd0_resnetv10_stage1_relu2_fwd", 
              "attrs": {"act_type": "relu"}, 
              "inputs": [[8, 0, 0]]
            }
          ], 
          "arg_nodes": [0, 1, 2, 4, 5, 6, 7], 
          "node_row_ptr": [
            0, 
            1, 
            2, 
            3, 
            4, 
            5, 
            6, 
            7, 
            8, 
            11, 
            12
          ], 
          "heads": [[9, 0, 0]]
        }
      ]
    }, 
    {
      "op": "null", 
      "name": "ssd0_resnetv10_stage1_conv5_weight", 
      "attrs": {
        "__dtype__": "0", 
        "__lr_mult__": "1.0", 
        "__shape__": "(64, 64, 3, 3)", 
        "__storage_type__": "0", 
        "__wd_mult__": "1.0"
      }, 
      "inputs": []
    }, 
    {
      "op": "null", 
      "name": "ssd0_resnetv10_stage1_batchnorm5_gamma", 
      "attrs": {
        "__dtype__": "0", 
        "__init__": "ones", 
        "__lr_mult__": "1.0", 
        "__shape__": "(0,)", 
        "__storage_type__": "0", 
        "__wd_mult__": "1.0"
      }, 
      "inputs": []
    }, 
    {
      "op": "null", 
      "name": "ssd0_resnetv10_stage1_batchnorm5_beta", 
      "attrs": {
        "__dtype__": "0", 
        "__init__": "zeros", 
        "__lr_mult__": "1.0", 
        "__shape__": "(0,)", 
        "__storage_type__": "0", 
        "__wd_mult__": "1.0"
      }, 
      "inputs": []
    }, 
    {
      "op": "null", 
      "name": "ssd0_resnetv10_stage1_batchnorm5_running_mean", 
      "attrs": {
        "__dtype__": "0", 
        "__init__": "zeros", 
        "__lr_mult__": "1.0", 
        "__shape__": "(0,)", 
        "__storage_type__": "0", 
        "__wd_mult__": "1.0"
      }, 
      "inputs": []
    }, 
    {
      "op": "null", 
      "name": "ssd0_resnetv10_stage1_batchnorm5_running_var", 
      "attrs": {
        "__dtype__": "0", 
        "__init__": "ones", 
        "__lr_mult__": "1.0", 
        "__shape__": "(0,)", 
        "__storage_type__": "0", 
        "__wd_mult__": "1.0"
      }, 
      "inputs": []
    }, 
    {
      "op": "_sg_mkldnn_conv", 
      "name": "quantized_sg_mkldnn_conv_bn_relu_6", 
      "attrs": {
        "max_calib_range": "4.313608", 
        "min_calib_range": "-0.000000", 
        "quantized": "true", 
        "with_bn": "true", 
        "with_relu": "true"
      }, 
      "inputs": [[41, 0, 0], [42, 0, 0], [43, 0, 0], [44, 0, 0], [45, 0, 1], [46, 0, 1], [41, 1, 0], [41, 2, 0]], 
      "subgraphs": [
        {
          "nodes": [
            {
              "op": "null", 
              "name": "sg_mkldnn_conv_bn_relu_5_output0", 
              "inputs": []
            }, 
            {
              "op": "null", 
              "name": "ssd0_resnetv10_stage1_conv5_weight0", 
              "inputs": []
            }, 
            {
              "op": "Convolution", 
              "name": "ssd0_resnetv10_stage1_conv5_fwd", 
              "attrs": {
                "dilate": "(1, 1)", 
                "kernel": "(3, 3)", 
                "layout": "NCHW", 
                "no_bias": "True", 
                "num_filter": "64", 
                "num_group": "1", 
                "pad": "(1, 1)", 
                "stride": "(1, 1)"
              }, 
              "inputs": [[0, 0, 0], [1, 0, 0]]
            }, 
            {
              "op": "null", 
              "name": "ssd0_resnetv10_stage1_batchnorm5_gamma0", 
              "inputs": []
            }, 
            {
              "op": "null", 
              "name": "ssd0_resnetv10_stage1_batchnorm5_beta0", 
              "inputs": []
            }, 
            {
              "op": "null", 
              "name": "ssd0_resnetv10_stage1_batchnorm5_running_mean0", 
              "inputs": []
            }, 
            {
              "op": "null", 
              "name": "ssd0_resnetv10_stage1_batchnorm5_running_var0", 
              "inputs": []
            }, 
            {
              "op": "BatchNorm", 
              "name": "ssd0_resnetv10_stage1_batchnorm5_fwd", 
              "attrs": {
                "axis": "1", 
                "eps": "1e-05", 
                "fix_gamma": "False", 
                "momentum": "0.9", 
                "use_global_stats": "False"
              }, 
              "inputs": [[2, 0, 0], [3, 0, 0], [4, 0, 0], [5, 0, 0], [6, 0, 0]]
            }, 
            {
              "op": "Activation", 
              "name": "ssd0_resnetv10_stage1_relu3_fwd", 
              "attrs": {"act_type": "relu"}, 
              "inputs": [[7, 0, 0]]
            }
          ], 
          "arg_nodes": [0, 1, 3, 4, 5, 6], 
          "node_row_ptr": [0, 1, 2, 3, 4, 5, 6, 7, 10, 11], 
          "heads": [[8, 0, 0]]
        }
      ]
    }, 
    {
      "op": "null", 
      "name": "ssd0_resnetv10_stage1_conv6_weight", 
      "attrs": {
        "__dtype__": "0", 
        "__lr_mult__": "1.0", 
        "__shape__": "(256, 0, 1, 1)", 
        "__storage_type__": "0", 
        "__wd_mult__": "1.0"
      }, 
      "inputs": []
    }, 
    {
      "op": "null", 
      "name": "ssd0_resnetv10_stage1_conv6_bias", 
      "attrs": {
        "__dtype__": "0", 
        "__init__": "zeros", 
        "__lr_mult__": "1.0", 
        "__shape__": "(256,)", 
        "__storage_type__": "0", 
        "__wd_mult__": "1.0"
      }, 
      "inputs": []
    }, 
    {
      "op": "null", 
      "name": "ssd0_resnetv10_stage1_batchnorm6_gamma", 
      "attrs": {
        "__dtype__": "0", 
        "__init__": "ones", 
        "__lr_mult__": "1.0", 
        "__shape__": "(0,)", 
        "__storage_type__": "0", 
        "__wd_mult__": "1.0"
      }, 
      "inputs": []
    }, 
    {
      "op": "null", 
      "name": "ssd0_resnetv10_stage1_batchnorm6_beta", 
      "attrs": {
        "__dtype__": "0", 
        "__init__": "zeros", 
        "__lr_mult__": "1.0", 
        "__shape__": "(0,)", 
        "__storage_type__": "0", 
        "__wd_mult__": "1.0"
      }, 
      "inputs": []
    }, 
    {
      "op": "null", 
      "name": "ssd0_resnetv10_stage1_batchnorm6_running_mean", 
      "attrs": {
        "__dtype__": "0", 
        "__init__": "zeros", 
        "__lr_mult__": "1.0", 
        "__shape__": "(0,)", 
        "__storage_type__": "0", 
        "__wd_mult__": "1.0"
      }, 
      "inputs": []
    }, 
    {
      "op": "null", 
      "name": "ssd0_resnetv10_stage1_batchnorm6_running_var", 
      "attrs": {
        "__dtype__": "0", 
        "__init__": "ones", 
        "__lr_mult__": "1.0", 
        "__shape__": "(0,)", 
        "__storage_type__": "0", 
        "__wd_mult__": "1.0"
      }, 
      "inputs": []
    }, 
    {
      "op": "_sg_mkldnn_conv", 
      "name": "quantized_sg_mkldnn_conv_bn_add_relu_7", 
      "attrs": {
        "max_calib_range": "2.829698", 
        "min_calib_range": "-0.000000", 
        "quantized": "true", 
        "with_bn": "true", 
        "with_postsum_relu": "true", 
        "with_sum": "true"
      }, 
      "inputs": [
        [47, 0, 0], 
        [48, 0, 0], 
        [49, 0, 0], 
        [50, 0, 0], 
        [51, 0, 0], 
        [52, 0, 1], 
        [53, 0, 1], 
        [34, 0, 0], 
        [47, 1, 0], 
        [47, 2, 0], 
        [34, 1, 0], 
        [34, 2, 0]
      ], 
      "subgraphs": [
        {
          "nodes": [
            {
              "op": "null", 
              "name": "sg_mkldnn_conv_bn_relu_6_output0", 
              "inputs": []
            }, 
            {
              "op": "null", 
              "name": "ssd0_resnetv10_stage1_conv6_weight0", 
              "inputs": []
            }, 
            {
              "op": "null", 
              "name": "ssd0_resnetv10_stage1_conv6_bias0", 
              "inputs": []
            }, 
            {
              "op": "Convolution", 
              "name": "ssd0_resnetv10_stage1_conv6_fwd", 
              "attrs": {
                "dilate": "(1, 1)", 
                "kernel": "(1, 1)", 
                "layout": "NCHW", 
                "no_bias": "False", 
                "num_filter": "256", 
                "num_group": "1", 
                "pad": "(0, 0)", 
                "stride": "(1, 1)"
              }, 
              "inputs": [[0, 0, 0], [1, 0, 0], [2, 0, 0]]
            }, 
            {
              "op": "null", 
              "name": "ssd0_resnetv10_stage1_batchnorm6_gamma0", 
              "inputs": []
            }, 
            {
              "op": "null", 
              "name": "ssd0_resnetv10_stage1_batchnorm6_beta0", 
              "inputs": []
            }, 
            {
              "op": "null", 
              "name": "ssd0_resnetv10_stage1_batchnorm6_running_mean0", 
              "inputs": []
            }, 
            {
              "op": "null", 
              "name": "ssd0_resnetv10_stage1_batchnorm6_running_var0", 
              "inputs": []
            }, 
            {
              "op": "BatchNorm", 
              "name": "ssd0_resnetv10_stage1_batchnorm6_fwd", 
              "attrs": {
                "axis": "1", 
                "eps": "1e-05", 
                "fix_gamma": "False", 
                "momentum": "0.9", 
                "use_global_stats": "False"
              }, 
              "inputs": [[3, 0, 0], [4, 0, 0], [5, 0, 0], [6, 0, 0], [7, 0, 0]]
            }, 
            {
              "op": "null", 
              "name": "sg_mkldnn_conv_bn_add_relu_3_output0", 
              "inputs": []
            }, 
            {
              "op": "elemwise_add", 
              "name": "ssd0_resnetv10_stage1__plus1", 
              "inputs": [[8, 0, 0], [9, 0, 0]]
            }, 
            {
              "op": "Activation", 
              "name": "ssd0_resnetv10_stage1_activation1", 
              "attrs": {"act_type": "relu"}, 
              "inputs": [[10, 0, 0]]
            }
          ], 
          "arg_nodes": [0, 1, 2, 4, 5, 6, 7, 9], 
          "node_row_ptr": [
            0, 
            1, 
            2, 
            3, 
            4, 
            5, 
            6, 
            7, 
            8, 
            11, 
            12, 
            13, 
            14
          ], 
          "heads": [[11, 0, 0]]
        }
      ]
    }, 
    {
      "op": "null", 
      "name": "ssd0_resnetv10_stage1_conv7_weight", 
      "attrs": {
        "__dtype__": "0", 
        "__lr_mult__": "1.0", 
        "__shape__": "(64, 0, 1, 1)", 
        "__storage_type__": "0", 
        "__wd_mult__": "1.0"
      }, 
      "inputs": []
    }, 
    {
      "op": "null", 
      "name": "ssd0_resnetv10_stage1_conv7_bias", 
      "attrs": {
        "__dtype__": "0", 
        "__init__": "zeros", 
        "__lr_mult__": "1.0", 
        "__shape__": "(64,)", 
        "__storage_type__": "0", 
        "__wd_mult__": "1.0"
      }, 
      "inputs": []
    }, 
    {
      "op": "null", 
      "name": "ssd0_resnetv10_stage1_batchnorm7_gamma", 
      "attrs": {
        "__dtype__": "0", 
        "__init__": "ones", 
        "__lr_mult__": "1.0", 
        "__shape__": "(0,)", 
        "__storage_type__": "0", 
        "__wd_mult__": "1.0"
      }, 
      "inputs": []
    }, 
    {
      "op": "null", 
      "name": "ssd0_resnetv10_stage1_batchnorm7_beta", 
      "attrs": {
        "__dtype__": "0", 
        "__init__": "zeros", 
        "__lr_mult__": "1.0", 
        "__shape__": "(0,)", 
        "__storage_type__": "0", 
        "__wd_mult__": "1.0"
      }, 
      "inputs": []
    }, 
    {
      "op": "null", 
      "name": "ssd0_resnetv10_stage1_batchnorm7_running_mean", 
      "attrs": {
        "__dtype__": "0", 
        "__init__": "zeros", 
        "__lr_mult__": "1.0", 
        "__shape__": "(0,)", 
        "__storage_type__": "0", 
        "__wd_mult__": "1.0"
      }, 
      "inputs": []
    }, 
    {
      "op": "null", 
      "name": "ssd0_resnetv10_stage1_batchnorm7_running_var", 
      "attrs": {
        "__dtype__": "0", 
        "__init__": "ones", 
        "__lr_mult__": "1.0", 
        "__shape__": "(0,)", 
        "__storage_type__": "0", 
        "__wd_mult__": "1.0"
      }, 
      "inputs": []
    }, 
    {
      "op": "_sg_mkldnn_conv", 
      "name": "quantized_sg_mkldnn_conv_bn_relu_8", 
      "attrs": {
        "max_calib_range": "2.742234", 
        "min_calib_range": "-0.000000", 
        "quantized": "true", 
        "with_bn": "true", 
        "with_relu": "true"
      }, 
      "inputs": [[54, 0, 0], [55, 0, 0], [56, 0, 0], [57, 0, 0], [58, 0, 0], [59, 0, 1], [60, 0, 1], [54, 1, 0], [54, 2, 0]], 
      "subgraphs": [
        {
          "nodes": [
            {
              "op": "null", 
              "name": "sg_mkldnn_conv_bn_add_relu_7_output0", 
              "inputs": []
            }, 
            {
              "op": "null", 
              "name": "ssd0_resnetv10_stage1_conv7_weight0", 
              "inputs": []
            }, 
            {
              "op": "null", 
              "name": "ssd0_resnetv10_stage1_conv7_bias0", 
              "inputs": []
            }, 
            {
              "op": "Convolution", 
              "name": "ssd0_resnetv10_stage1_conv7_fwd", 
              "attrs": {
                "dilate": "(1, 1)", 
                "kernel": "(1, 1)", 
                "layout": "NCHW", 
                "no_bias": "False", 
                "num_filter": "64", 
                "num_group": "1", 
                "pad": "(0, 0)", 
                "stride": "(1, 1)"
              }, 
              "inputs": [[0, 0, 0], [1, 0, 0], [2, 0, 0]]
            }, 
            {
              "op": "null", 
              "name": "ssd0_resnetv10_stage1_batchnorm7_gamma0", 
              "inputs": []
            }, 
            {
              "op": "null", 
              "name": "ssd0_resnetv10_stage1_batchnorm7_beta0", 
              "inputs": []
            }, 
            {
              "op": "null", 
              "name": "ssd0_resnetv10_stage1_batchnorm7_running_mean0", 
              "inputs": []
            }, 
            {
              "op": "null", 
              "name": "ssd0_resnetv10_stage1_batchnorm7_running_var0", 
              "inputs": []
            }, 
            {
              "op": "BatchNorm", 
              "name": "ssd0_resnetv10_stage1_batchnorm7_fwd", 
              "attrs": {
                "axis": "1", 
                "eps": "1e-05", 
                "fix_gamma": "False", 
                "momentum": "0.9", 
                "use_global_stats": "False"
              }, 
              "inputs": [[3, 0, 0], [4, 0, 0], [5, 0, 0], [6, 0, 0], [7, 0, 0]]
            }, 
            {
              "op": "Activation", 
              "name": "ssd0_resnetv10_stage1_relu4_fwd", 
              "attrs": {"act_type": "relu"}, 
              "inputs": [[8, 0, 0]]
            }
          ], 
          "arg_nodes": [0, 1, 2, 4, 5, 6, 7], 
          "node_row_ptr": [
            0, 
            1, 
            2, 
            3, 
            4, 
            5, 
            6, 
            7, 
            8, 
            11, 
            12
          ], 
          "heads": [[9, 0, 0]]
        }
      ]
    }, 
    {
      "op": "null", 
      "name": "ssd0_resnetv10_stage1_conv8_weight", 
      "attrs": {
        "__dtype__": "0", 
        "__lr_mult__": "1.0", 
        "__shape__": "(64, 64, 3, 3)", 
        "__storage_type__": "0", 
        "__wd_mult__": "1.0"
      }, 
      "inputs": []
    }, 
    {
      "op": "null", 
      "name": "ssd0_resnetv10_stage1_batchnorm8_gamma", 
      "attrs": {
        "__dtype__": "0", 
        "__init__": "ones", 
        "__lr_mult__": "1.0", 
        "__shape__": "(0,)", 
        "__storage_type__": "0", 
        "__wd_mult__": "1.0"
      }, 
      "inputs": []
    }, 
    {
      "op": "null", 
      "name": "ssd0_resnetv10_stage1_batchnorm8_beta", 
      "attrs": {
        "__dtype__": "0", 
        "__init__": "zeros", 
        "__lr_mult__": "1.0", 
        "__shape__": "(0,)", 
        "__storage_type__": "0", 
        "__wd_mult__": "1.0"
      }, 
      "inputs": []
    }, 
    {
      "op": "null", 
      "name": "ssd0_resnetv10_stage1_batchnorm8_running_mean", 
      "attrs": {
        "__dtype__": "0", 
        "__init__": "zeros", 
        "__lr_mult__": "1.0", 
        "__shape__": "(0,)", 
        "__storage_type__": "0", 
        "__wd_mult__": "1.0"
      }, 
      "inputs": []
    }, 
    {
      "op": "null", 
      "name": "ssd0_resnetv10_stage1_batchnorm8_running_var", 
      "attrs": {
        "__dtype__": "0", 
        "__init__": "ones", 
        "__lr_mult__": "1.0", 
        "__shape__": "(0,)", 
        "__storage_type__": "0", 
        "__wd_mult__": "1.0"
      }, 
      "inputs": []
    }, 
    {
      "op": "_sg_mkldnn_conv", 
      "name": "quantized_sg_mkldnn_conv_bn_relu_9", 
      "attrs": {
        "max_calib_range": "4.538939", 
        "min_calib_range": "-0.000000", 
        "quantized": "true", 
        "with_bn": "true", 
        "with_relu": "true"
      }, 
      "inputs": [[61, 0, 0], [62, 0, 0], [63, 0, 0], [64, 0, 0], [65, 0, 1], [66, 0, 1], [61, 1, 0], [61, 2, 0]], 
      "subgraphs": [
        {
          "nodes": [
            {
              "op": "null", 
              "name": "sg_mkldnn_conv_bn_relu_8_output0", 
              "inputs": []
            }, 
            {
              "op": "null", 
              "name": "ssd0_resnetv10_stage1_conv8_weight0", 
              "inputs": []
            }, 
            {
              "op": "Convolution", 
              "name": "ssd0_resnetv10_stage1_conv8_fwd", 
              "attrs": {
                "dilate": "(1, 1)", 
                "kernel": "(3, 3)", 
                "layout": "NCHW", 
                "no_bias": "True", 
                "num_filter": "64", 
                "num_group": "1", 
                "pad": "(1, 1)", 
                "stride": "(1, 1)"
              }, 
              "inputs": [[0, 0, 0], [1, 0, 0]]
            }, 
            {
              "op": "null", 
              "name": "ssd0_resnetv10_stage1_batchnorm8_gamma0", 
              "inputs": []
            }, 
            {
              "op": "null", 
              "name": "ssd0_resnetv10_stage1_batchnorm8_beta0", 
              "inputs": []
            }, 
            {
              "op": "null", 
              "name": "ssd0_resnetv10_stage1_batchnorm8_running_mean0", 
              "inputs": []
            }, 
            {
              "op": "null", 
              "name": "ssd0_resnetv10_stage1_batchnorm8_running_var0", 
              "inputs": []
            }, 
            {
              "op": "BatchNorm", 
              "name": "ssd0_resnetv10_stage1_batchnorm8_fwd", 
              "attrs": {
                "axis": "1", 
                "eps": "1e-05", 
                "fix_gamma": "False", 
                "momentum": "0.9", 
                "use_global_stats": "False"
              }, 
              "inputs": [[2, 0, 0], [3, 0, 0], [4, 0, 0], [5, 0, 0], [6, 0, 0]]
            }, 
            {
              "op": "Activation", 
              "name": "ssd0_resnetv10_stage1_relu5_fwd", 
              "attrs": {"act_type": "relu"}, 
              "inputs": [[7, 0, 0]]
            }
          ], 
          "arg_nodes": [0, 1, 3, 4, 5, 6], 
          "node_row_ptr": [0, 1, 2, 3, 4, 5, 6, 7, 10, 11], 
          "heads": [[8, 0, 0]]
        }
      ]
    }, 
    {
      "op": "null", 
      "name": "ssd0_resnetv10_stage1_conv9_weight", 
      "attrs": {
        "__dtype__": "0", 
        "__lr_mult__": "1.0", 
        "__shape__": "(256, 0, 1, 1)", 
        "__storage_type__": "0", 
        "__wd_mult__": "1.0"
      }, 
      "inputs": []
    }, 
    {
      "op": "null", 
      "name": "ssd0_resnetv10_stage1_conv9_bias", 
      "attrs": {
        "__dtype__": "0", 
        "__init__": "zeros", 
        "__lr_mult__": "1.0", 
        "__shape__": "(256,)", 
        "__storage_type__": "0", 
        "__wd_mult__": "1.0"
      }, 
      "inputs": []
    }, 
    {
      "op": "null", 
      "name": "ssd0_resnetv10_stage1_batchnorm9_gamma", 
      "attrs": {
        "__dtype__": "0", 
        "__init__": "ones", 
        "__lr_mult__": "1.0", 
        "__shape__": "(0,)", 
        "__storage_type__": "0", 
        "__wd_mult__": "1.0"
      }, 
      "inputs": []
    }, 
    {
      "op": "null", 
      "name": "ssd0_resnetv10_stage1_batchnorm9_beta", 
      "attrs": {
        "__dtype__": "0", 
        "__init__": "zeros", 
        "__lr_mult__": "1.0", 
        "__shape__": "(0,)", 
        "__storage_type__": "0", 
        "__wd_mult__": "1.0"
      }, 
      "inputs": []
    }, 
    {
      "op": "null", 
      "name": "ssd0_resnetv10_stage1_batchnorm9_running_mean", 
      "attrs": {
        "__dtype__": "0", 
        "__init__": "zeros", 
        "__lr_mult__": "1.0", 
        "__shape__": "(0,)", 
        "__storage_type__": "0", 
        "__wd_mult__": "1.0"
      }, 
      "inputs": []
    }, 
    {
      "op": "null", 
      "name": "ssd0_resnetv10_stage1_batchnorm9_running_var", 
      "attrs": {
        "__dtype__": "0", 
        "__init__": "ones", 
        "__lr_mult__": "1.0", 
        "__shape__": "(0,)", 
        "__storage_type__": "0", 
        "__wd_mult__": "1.0"
      }, 
      "inputs": []
    }, 
    {
      "op": "_sg_mkldnn_conv", 
      "name": "quantized_sg_mkldnn_conv_bn_add_relu_10", 
      "attrs": {
        "max_calib_range": "3.345585", 
        "min_calib_range": "-0.000000", 
        "quantized": "true", 
        "with_bn": "true", 
        "with_postsum_relu": "true", 
        "with_sum": "true"
      }, 
      "inputs": [
        [67, 0, 0], 
        [68, 0, 0], 
        [69, 0, 0], 
        [70, 0, 0], 
        [71, 0, 0], 
        [72, 0, 1], 
        [73, 0, 1], 
        [54, 0, 0], 
        [67, 1, 0], 
        [67, 2, 0], 
        [54, 1, 0], 
        [54, 2, 0]
      ], 
      "subgraphs": [
        {
          "nodes": [
            {
              "op": "null", 
              "name": "sg_mkldnn_conv_bn_relu_9_output0", 
              "inputs": []
            }, 
            {
              "op": "null", 
              "name": "ssd0_resnetv10_stage1_conv9_weight0", 
              "inputs": []
            }, 
            {
              "op": "null", 
              "name": "ssd0_resnetv10_stage1_conv9_bias0", 
              "inputs": []
            }, 
            {
              "op": "Convolution", 
              "name": "ssd0_resnetv10_stage1_conv9_fwd", 
              "attrs": {
                "dilate": "(1, 1)", 
                "kernel": "(1, 1)", 
                "layout": "NCHW", 
                "no_bias": "False", 
                "num_filter": "256", 
                "num_group": "1", 
                "pad": "(0, 0)", 
                "stride": "(1, 1)"
              }, 
              "inputs": [[0, 0, 0], [1, 0, 0], [2, 0, 0]]
            }, 
            {
              "op": "null", 
              "name": "ssd0_resnetv10_stage1_batchnorm9_gamma0", 
              "inputs": []
            }, 
            {
              "op": "null", 
              "name": "ssd0_resnetv10_stage1_batchnorm9_beta0", 
              "inputs": []
            }, 
            {
              "op": "null", 
              "name": "ssd0_resnetv10_stage1_batchnorm9_running_mean0", 
              "inputs": []
            }, 
            {
              "op": "null", 
              "name": "ssd0_resnetv10_stage1_batchnorm9_running_var0", 
              "inputs": []
            }, 
            {
              "op": "BatchNorm", 
              "name": "ssd0_resnetv10_stage1_batchnorm9_fwd", 
              "attrs": {
                "axis": "1", 
                "eps": "1e-05", 
                "fix_gamma": "False", 
                "momentum": "0.9", 
                "use_global_stats": "False"
              }, 
              "inputs": [[3, 0, 0], [4, 0, 0], [5, 0, 0], [6, 0, 0], [7, 0, 0]]
            }, 
            {
              "op": "null", 
              "name": "sg_mkldnn_conv_bn_add_relu_7_output0", 
              "inputs": []
            }, 
            {
              "op": "elemwise_add", 
              "name": "ssd0_resnetv10_stage1__plus2", 
              "inputs": [[8, 0, 0], [9, 0, 0]]
            }, 
            {
              "op": "Activation", 
              "name": "ssd0_resnetv10_stage1_activation2", 
              "attrs": {"act_type": "relu"}, 
              "inputs": [[10, 0, 0]]
            }
          ], 
          "arg_nodes": [0, 1, 2, 4, 5, 6, 7, 9], 
          "node_row_ptr": [
            0, 
            1, 
            2, 
            3, 
            4, 
            5, 
            6, 
            7, 
            8, 
            11, 
            12, 
            13, 
            14
          ], 
          "heads": [[11, 0, 0]]
        }
      ]
    }, 
    {
      "op": "null", 
      "name": "ssd0_resnetv10_stage2_conv0_weight", 
      "attrs": {
        "__dtype__": "0", 
        "__lr_mult__": "1.0", 
        "__shape__": "(128, 0, 1, 1)", 
        "__storage_type__": "0", 
        "__wd_mult__": "1.0"
      }, 
      "inputs": []
    }, 
    {
      "op": "null", 
      "name": "ssd0_resnetv10_stage2_conv0_bias", 
      "attrs": {
        "__dtype__": "0", 
        "__init__": "zeros", 
        "__lr_mult__": "1.0", 
        "__shape__": "(128,)", 
        "__storage_type__": "0", 
        "__wd_mult__": "1.0"
      }, 
      "inputs": []
    }, 
    {
      "op": "null", 
      "name": "ssd0_resnetv10_stage2_batchnorm0_gamma", 
      "attrs": {
        "__dtype__": "0", 
        "__init__": "ones", 
        "__lr_mult__": "1.0", 
        "__shape__": "(0,)", 
        "__storage_type__": "0", 
        "__wd_mult__": "1.0"
      }, 
      "inputs": []
    }, 
    {
      "op": "null", 
      "name": "ssd0_resnetv10_stage2_batchnorm0_beta", 
      "attrs": {
        "__dtype__": "0", 
        "__init__": "zeros", 
        "__lr_mult__": "1.0", 
        "__shape__": "(0,)", 
        "__storage_type__": "0", 
        "__wd_mult__": "1.0"
      }, 
      "inputs": []
    }, 
    {
      "op": "null", 
      "name": "ssd0_resnetv10_stage2_batchnorm0_running_mean", 
      "attrs": {
        "__dtype__": "0", 
        "__init__": "zeros", 
        "__lr_mult__": "1.0", 
        "__shape__": "(0,)", 
        "__storage_type__": "0", 
        "__wd_mult__": "1.0"
      }, 
      "inputs": []
    }, 
    {
      "op": "null", 
      "name": "ssd0_resnetv10_stage2_batchnorm0_running_var", 
      "attrs": {
        "__dtype__": "0", 
        "__init__": "ones", 
        "__lr_mult__": "1.0", 
        "__shape__": "(0,)", 
        "__storage_type__": "0", 
        "__wd_mult__": "1.0"
      }, 
      "inputs": []
    }, 
    {
      "op": "_sg_mkldnn_conv", 
      "name": "quantized_sg_mkldnn_conv_bn_relu_11", 
      "attrs": {
        "max_calib_range": "1.899835", 
        "min_calib_range": "-0.000000", 
        "quantized": "true", 
        "with_bn": "true", 
        "with_relu": "true"
      }, 
      "inputs": [[74, 0, 0], [75, 0, 0], [76, 0, 0], [77, 0, 0], [78, 0, 0], [79, 0, 1], [80, 0, 1], [74, 1, 0], [74, 2, 0]], 
      "subgraphs": [
        {
          "nodes": [
            {
              "op": "null", 
              "name": "sg_mkldnn_conv_bn_add_relu_10_output0", 
              "inputs": []
            }, 
            {
              "op": "null", 
              "name": "ssd0_resnetv10_stage2_conv0_weight0", 
              "inputs": []
            }, 
            {
              "op": "null", 
              "name": "ssd0_resnetv10_stage2_conv0_bias0", 
              "inputs": []
            }, 
            {
              "op": "Convolution", 
              "name": "ssd0_resnetv10_stage2_conv0_fwd", 
              "attrs": {
                "dilate": "(1, 1)", 
                "kernel": "(1, 1)", 
                "layout": "NCHW", 
                "no_bias": "False", 
                "num_filter": "128", 
                "num_group": "1", 
                "pad": "(0, 0)", 
                "stride": "(2, 2)"
              }, 
              "inputs": [[0, 0, 0], [1, 0, 0], [2, 0, 0]]
            }, 
            {
              "op": "null", 
              "name": "ssd0_resnetv10_stage2_batchnorm0_gamma0", 
              "inputs": []
            }, 
            {
              "op": "null", 
              "name": "ssd0_resnetv10_stage2_batchnorm0_beta0", 
              "inputs": []
            }, 
            {
              "op": "null", 
              "name": "ssd0_resnetv10_stage2_batchnorm0_running_mean0", 
              "inputs": []
            }, 
            {
              "op": "null", 
              "name": "ssd0_resnetv10_stage2_batchnorm0_running_var0", 
              "inputs": []
            }, 
            {
              "op": "BatchNorm", 
              "name": "ssd0_resnetv10_stage2_batchnorm0_fwd", 
              "attrs": {
                "axis": "1", 
                "eps": "1e-05", 
                "fix_gamma": "False", 
                "momentum": "0.9", 
                "use_global_stats": "False"
              }, 
              "inputs": [[3, 0, 0], [4, 0, 0], [5, 0, 0], [6, 0, 0], [7, 0, 0]]
            }, 
            {
              "op": "Activation", 
              "name": "ssd0_resnetv10_stage2_relu0_fwd", 
              "attrs": {"act_type": "relu"}, 
              "inputs": [[8, 0, 0]]
            }
          ], 
          "arg_nodes": [0, 1, 2, 4, 5, 6, 7], 
          "node_row_ptr": [
            0, 
            1, 
            2, 
            3, 
            4, 
            5, 
            6, 
            7, 
            8, 
            11, 
            12
          ], 
          "heads": [[9, 0, 0]]
        }
      ]
    }, 
    {
      "op": "null", 
      "name": "ssd0_resnetv10_stage2_conv1_weight", 
      "attrs": {
        "__dtype__": "0", 
        "__lr_mult__": "1.0", 
        "__shape__": "(128, 128, 3, 3)", 
        "__storage_type__": "0", 
        "__wd_mult__": "1.0"
      }, 
      "inputs": []
    }, 
    {
      "op": "null", 
      "name": "ssd0_resnetv10_stage2_batchnorm1_gamma", 
      "attrs": {
        "__dtype__": "0", 
        "__init__": "ones", 
        "__lr_mult__": "1.0", 
        "__shape__": "(0,)", 
        "__storage_type__": "0", 
        "__wd_mult__": "1.0"
      }, 
      "inputs": []
    }, 
    {
      "op": "null", 
      "name": "ssd0_resnetv10_stage2_batchnorm1_beta", 
      "attrs": {
        "__dtype__": "0", 
        "__init__": "zeros", 
        "__lr_mult__": "1.0", 
        "__shape__": "(0,)", 
        "__storage_type__": "0", 
        "__wd_mult__": "1.0"
      }, 
      "inputs": []
    }, 
    {
      "op": "null", 
      "name": "ssd0_resnetv10_stage2_batchnorm1_running_mean", 
      "attrs": {
        "__dtype__": "0", 
        "__init__": "zeros", 
        "__lr_mult__": "1.0", 
        "__shape__": "(0,)", 
        "__storage_type__": "0", 
        "__wd_mult__": "1.0"
      }, 
      "inputs": []
    }, 
    {
      "op": "null", 
      "name": "ssd0_resnetv10_stage2_batchnorm1_running_var", 
      "attrs": {
        "__dtype__": "0", 
        "__init__": "ones", 
        "__lr_mult__": "1.0", 
        "__shape__": "(0,)", 
        "__storage_type__": "0", 
        "__wd_mult__": "1.0"
      }, 
      "inputs": []
    }, 
    {
      "op": "_sg_mkldnn_conv", 
      "name": "quantized_sg_mkldnn_conv_bn_relu_12", 
      "attrs": {
        "max_calib_range": "2.669875", 
        "min_calib_range": "-0.000000", 
        "quantized": "true", 
        "with_bn": "true", 
        "with_relu": "true"
      }, 
      "inputs": [[81, 0, 0], [82, 0, 0], [83, 0, 0], [84, 0, 0], [85, 0, 1], [86, 0, 1], [81, 1, 0], [81, 2, 0]], 
      "subgraphs": [
        {
          "nodes": [
            {
              "op": "null", 
              "name": "sg_mkldnn_conv_bn_relu_11_output0", 
              "inputs": []
            }, 
            {
              "op": "null", 
              "name": "ssd0_resnetv10_stage2_conv1_weight0", 
              "inputs": []
            }, 
            {
              "op": "Convolution", 
              "name": "ssd0_resnetv10_stage2_conv1_fwd", 
              "attrs": {
                "dilate": "(1, 1)", 
                "kernel": "(3, 3)", 
                "layout": "NCHW", 
                "no_bias": "True", 
                "num_filter": "128", 
                "num_group": "1", 
                "pad": "(1, 1)", 
                "stride": "(1, 1)"
              }, 
              "inputs": [[0, 0, 0], [1, 0, 0]]
            }, 
            {
              "op": "null", 
              "name": "ssd0_resnetv10_stage2_batchnorm1_gamma0", 
              "inputs": []
            }, 
            {
              "op": "null", 
              "name": "ssd0_resnetv10_stage2_batchnorm1_beta0", 
              "inputs": []
            }, 
            {
              "op": "null", 
              "name": "ssd0_resnetv10_stage2_batchnorm1_running_mean0", 
              "inputs": []
            }, 
            {
              "op": "null", 
              "name": "ssd0_resnetv10_stage2_batchnorm1_running_var0", 
              "inputs": []
            }, 
            {
              "op": "BatchNorm", 
              "name": "ssd0_resnetv10_stage2_batchnorm1_fwd", 
              "attrs": {
                "axis": "1", 
                "eps": "1e-05", 
                "fix_gamma": "False", 
                "momentum": "0.9", 
                "use_global_stats": "False"
              }, 
              "inputs": [[2, 0, 0], [3, 0, 0], [4, 0, 0], [5, 0, 0], [6, 0, 0]]
            }, 
            {
              "op": "Activation", 
              "name": "ssd0_resnetv10_stage2_relu1_fwd", 
              "attrs": {"act_type": "relu"}, 
              "inputs": [[7, 0, 0]]
            }
          ], 
          "arg_nodes": [0, 1, 3, 4, 5, 6], 
          "node_row_ptr": [0, 1, 2, 3, 4, 5, 6, 7, 10, 11], 
          "heads": [[8, 0, 0]]
        }
      ]
    }, 
    {
      "op": "null", 
      "name": "ssd0_resnetv10_stage2_conv2_weight", 
      "attrs": {
        "__dtype__": "0", 
        "__lr_mult__": "1.0", 
        "__shape__": "(512, 0, 1, 1)", 
        "__storage_type__": "0", 
        "__wd_mult__": "1.0"
      }, 
      "inputs": []
    }, 
    {
      "op": "null", 
      "name": "ssd0_resnetv10_stage2_conv2_bias", 
      "attrs": {
        "__dtype__": "0", 
        "__init__": "zeros", 
        "__lr_mult__": "1.0", 
        "__shape__": "(512,)", 
        "__storage_type__": "0", 
        "__wd_mult__": "1.0"
      }, 
      "inputs": []
    }, 
    {
      "op": "null", 
      "name": "ssd0_resnetv10_stage2_batchnorm2_gamma", 
      "attrs": {
        "__dtype__": "0", 
        "__init__": "ones", 
        "__lr_mult__": "1.0", 
        "__shape__": "(0,)", 
        "__storage_type__": "0", 
        "__wd_mult__": "1.0"
      }, 
      "inputs": []
    }, 
    {
      "op": "null", 
      "name": "ssd0_resnetv10_stage2_batchnorm2_beta", 
      "attrs": {
        "__dtype__": "0", 
        "__init__": "zeros", 
        "__lr_mult__": "1.0", 
        "__shape__": "(0,)", 
        "__storage_type__": "0", 
        "__wd_mult__": "1.0"
      }, 
      "inputs": []
    }, 
    {
      "op": "null", 
      "name": "ssd0_resnetv10_stage2_batchnorm2_running_mean", 
      "attrs": {
        "__dtype__": "0", 
        "__init__": "zeros", 
        "__lr_mult__": "1.0", 
        "__shape__": "(0,)", 
        "__storage_type__": "0", 
        "__wd_mult__": "1.0"
      }, 
      "inputs": []
    }, 
    {
      "op": "null", 
      "name": "ssd0_resnetv10_stage2_batchnorm2_running_var", 
      "attrs": {
        "__dtype__": "0", 
        "__init__": "ones", 
        "__lr_mult__": "1.0", 
        "__shape__": "(0,)", 
        "__storage_type__": "0", 
        "__wd_mult__": "1.0"
      }, 
      "inputs": []
    }, 
    {
      "op": "null", 
      "name": "ssd0_resnetv10_stage2_conv3_weight", 
      "attrs": {
        "__dtype__": "0", 
        "__lr_mult__": "1.0", 
        "__shape__": "(512, 256, 1, 1)", 
        "__storage_type__": "0", 
        "__wd_mult__": "1.0"
      }, 
      "inputs": []
    }, 
    {
      "op": "null", 
      "name": "ssd0_resnetv10_stage2_batchnorm3_gamma", 
      "attrs": {
        "__dtype__": "0", 
        "__init__": "ones", 
        "__lr_mult__": "1.0", 
        "__shape__": "(0,)", 
        "__storage_type__": "0", 
        "__wd_mult__": "1.0"
      }, 
      "inputs": []
    }, 
    {
      "op": "null", 
      "name": "ssd0_resnetv10_stage2_batchnorm3_beta", 
      "attrs": {
        "__dtype__": "0", 
        "__init__": "zeros", 
        "__lr_mult__": "1.0", 
        "__shape__": "(0,)", 
        "__storage_type__": "0", 
        "__wd_mult__": "1.0"
      }, 
      "inputs": []
    }, 
    {
      "op": "null", 
      "name": "ssd0_resnetv10_stage2_batchnorm3_running_mean", 
      "attrs": {
        "__dtype__": "0", 
        "__init__": "zeros", 
        "__lr_mult__": "1.0", 
        "__shape__": "(0,)", 
        "__storage_type__": "0", 
        "__wd_mult__": "1.0"
      }, 
      "inputs": []
    }, 
    {
      "op": "null", 
      "name": "ssd0_resnetv10_stage2_batchnorm3_running_var", 
      "attrs": {
        "__dtype__": "0", 
        "__init__": "ones", 
        "__lr_mult__": "1.0", 
        "__shape__": "(0,)", 
        "__storage_type__": "0", 
        "__wd_mult__": "1.0"
      }, 
      "inputs": []
    }, 
    {
      "op": "_sg_mkldnn_conv", 
      "name": "quantized_sg_mkldnn_conv_bn_14", 
      "attrs": {
        "max_calib_range": "1.988914", 
        "min_calib_range": "-1.961015", 
        "quantized": "true", 
        "with_bn": "true"
      }, 
      "inputs": [[74, 0, 0], [94, 0, 0], [95, 0, 0], [96, 0, 0], [97, 0, 1], [98, 0, 1], [74, 1, 0], [74, 2, 0]], 
      "subgraphs": [
        {
          "nodes": [
            {
              "op": "null", 
              "name": "sg_mkldnn_conv_bn_add_relu_10_output0", 
              "inputs": []
            }, 
            {
              "op": "null", 
              "name": "ssd0_resnetv10_stage2_conv3_weight0", 
              "inputs": []
            }, 
            {
              "op": "Convolution", 
              "name": "ssd0_resnetv10_stage2_conv3_fwd", 
              "attrs": {
                "dilate": "(1, 1)", 
                "kernel": "(1, 1)", 
                "layout": "NCHW", 
                "no_bias": "True", 
                "num_filter": "512", 
                "num_group": "1", 
                "pad": "(0, 0)", 
                "stride": "(2, 2)"
              }, 
              "inputs": [[0, 0, 0], [1, 0, 0]]
            }, 
            {
              "op": "null", 
              "name": "ssd0_resnetv10_stage2_batchnorm3_gamma0", 
              "inputs": []
            }, 
            {
              "op": "null", 
              "name": "ssd0_resnetv10_stage2_batchnorm3_beta0", 
              "inputs": []
            }, 
            {
              "op": "null", 
              "name": "ssd0_resnetv10_stage2_batchnorm3_running_mean0", 
              "inputs": []
            }, 
            {
              "op": "null", 
              "name": "ssd0_resnetv10_stage2_batchnorm3_running_var0", 
              "inputs": []
            }, 
            {
              "op": "BatchNorm", 
              "name": "ssd0_resnetv10_stage2_batchnorm3_fwd", 
              "attrs": {
                "axis": "1", 
                "eps": "1e-05", 
                "fix_gamma": "False", 
                "momentum": "0.9", 
                "use_global_stats": "False"
              }, 
              "inputs": [[2, 0, 0], [3, 0, 0], [4, 0, 0], [5, 0, 0], [6, 0, 0]]
            }
          ], 
          "arg_nodes": [0, 1, 3, 4, 5, 6], 
          "node_row_ptr": [0, 1, 2, 3, 4, 5, 6, 7, 10], 
          "heads": [[7, 0, 0]]
        }
      ]
    }, 
    {
      "op": "_sg_mkldnn_conv", 
      "name": "quantized_sg_mkldnn_conv_bn_add_relu_13", 
      "attrs": {
        "max_calib_range": "2.612540", 
        "min_calib_range": "-0.000000", 
        "quantized": "true", 
        "with_bn": "true", 
        "with_postsum_relu": "true", 
        "with_sum": "true"
      }, 
      "inputs": [
        [87, 0, 0], 
        [88, 0, 0], 
        [89, 0, 0], 
        [90, 0, 0], 
        [91, 0, 0], 
        [92, 0, 1], 
        [93, 0, 1], 
        [99, 0, 0], 
        [87, 1, 0], 
        [87, 2, 0], 
        [99, 1, 0], 
        [99, 2, 0]
      ], 
      "subgraphs": [
        {
          "nodes": [
            {
              "op": "null", 
              "name": "sg_mkldnn_conv_bn_relu_12_output0", 
              "inputs": []
            }, 
            {
              "op": "null", 
              "name": "ssd0_resnetv10_stage2_conv2_weight0", 
              "inputs": []
            }, 
            {
              "op": "null", 
              "name": "ssd0_resnetv10_stage2_conv2_bias0", 
              "inputs": []
            }, 
            {
              "op": "Convolution", 
              "name": "ssd0_resnetv10_stage2_conv2_fwd", 
              "attrs": {
                "dilate": "(1, 1)", 
                "kernel": "(1, 1)", 
                "layout": "NCHW", 
                "no_bias": "False", 
                "num_filter": "512", 
                "num_group": "1", 
                "pad": "(0, 0)", 
                "stride": "(1, 1)"
              }, 
              "inputs": [[0, 0, 0], [1, 0, 0], [2, 0, 0]]
            }, 
            {
              "op": "null", 
              "name": "ssd0_resnetv10_stage2_batchnorm2_gamma0", 
              "inputs": []
            }, 
            {
              "op": "null", 
              "name": "ssd0_resnetv10_stage2_batchnorm2_beta0", 
              "inputs": []
            }, 
            {
              "op": "null", 
              "name": "ssd0_resnetv10_stage2_batchnorm2_running_mean0", 
              "inputs": []
            }, 
            {
              "op": "null", 
              "name": "ssd0_resnetv10_stage2_batchnorm2_running_var0", 
              "inputs": []
            }, 
            {
              "op": "BatchNorm", 
              "name": "ssd0_resnetv10_stage2_batchnorm2_fwd", 
              "attrs": {
                "axis": "1", 
                "eps": "1e-05", 
                "fix_gamma": "False", 
                "momentum": "0.9", 
                "use_global_stats": "False"
              }, 
              "inputs": [[3, 0, 0], [4, 0, 0], [5, 0, 0], [6, 0, 0], [7, 0, 0]]
            }, 
            {
              "op": "null", 
              "name": "ssd0_resnetv10_stage2_batchnorm3_fwd_output0", 
              "inputs": []
            }, 
            {
              "op": "elemwise_add", 
              "name": "ssd0_resnetv10_stage2__plus0", 
              "inputs": [[8, 0, 0], [9, 0, 0]]
            }, 
            {
              "op": "Activation", 
              "name": "ssd0_resnetv10_stage2_activation0", 
              "attrs": {"act_type": "relu"}, 
              "inputs": [[10, 0, 0]]
            }
          ], 
          "arg_nodes": [0, 1, 2, 4, 5, 6, 7, 9], 
          "node_row_ptr": [
            0, 
            1, 
            2, 
            3, 
            4, 
            5, 
            6, 
            7, 
            8, 
            11, 
            12, 
            13, 
            14
          ], 
          "heads": [[11, 0, 0]]
        }
      ]
    }, 
    {
      "op": "null", 
      "name": "ssd0_resnetv10_stage2_conv4_weight", 
      "attrs": {
        "__dtype__": "0", 
        "__lr_mult__": "1.0", 
        "__shape__": "(128, 0, 1, 1)", 
        "__storage_type__": "0", 
        "__wd_mult__": "1.0"
      }, 
      "inputs": []
    }, 
    {
      "op": "null", 
      "name": "ssd0_resnetv10_stage2_conv4_bias", 
      "attrs": {
        "__dtype__": "0", 
        "__init__": "zeros", 
        "__lr_mult__": "1.0", 
        "__shape__": "(128,)", 
        "__storage_type__": "0", 
        "__wd_mult__": "1.0"
      }, 
      "inputs": []
    }, 
    {
      "op": "null", 
      "name": "ssd0_resnetv10_stage2_batchnorm4_gamma", 
      "attrs": {
        "__dtype__": "0", 
        "__init__": "ones", 
        "__lr_mult__": "1.0", 
        "__shape__": "(0,)", 
        "__storage_type__": "0", 
        "__wd_mult__": "1.0"
      }, 
      "inputs": []
    }, 
    {
      "op": "null", 
      "name": "ssd0_resnetv10_stage2_batchnorm4_beta", 
      "attrs": {
        "__dtype__": "0", 
        "__init__": "zeros", 
        "__lr_mult__": "1.0", 
        "__shape__": "(0,)", 
        "__storage_type__": "0", 
        "__wd_mult__": "1.0"
      }, 
      "inputs": []
    }, 
    {
      "op": "null", 
      "name": "ssd0_resnetv10_stage2_batchnorm4_running_mean", 
      "attrs": {
        "__dtype__": "0", 
        "__init__": "zeros", 
        "__lr_mult__": "1.0", 
        "__shape__": "(0,)", 
        "__storage_type__": "0", 
        "__wd_mult__": "1.0"
      }, 
      "inputs": []
    }, 
    {
      "op": "null", 
      "name": "ssd0_resnetv10_stage2_batchnorm4_running_var", 
      "attrs": {
        "__dtype__": "0", 
        "__init__": "ones", 
        "__lr_mult__": "1.0", 
        "__shape__": "(0,)", 
        "__storage_type__": "0", 
        "__wd_mult__": "1.0"
      }, 
      "inputs": []
    }, 
    {
      "op": "_sg_mkldnn_conv", 
      "name": "quantized_sg_mkldnn_conv_bn_relu_15", 
      "attrs": {
        "max_calib_range": "2.297476", 
        "min_calib_range": "-0.000000", 
        "quantized": "true", 
        "with_bn": "true", 
        "with_relu": "true"
      }, 
      "inputs": [[100, 0, 0], [101, 0, 0], [102, 0, 0], [103, 0, 0], [104, 0, 0], [105, 0, 1], [106, 0, 1], [100, 1, 0], [100, 2, 0]], 
      "subgraphs": [
        {
          "nodes": [
            {
              "op": "null", 
              "name": "sg_mkldnn_conv_bn_add_relu_13_output0", 
              "inputs": []
            }, 
            {
              "op": "null", 
              "name": "ssd0_resnetv10_stage2_conv4_weight0", 
              "inputs": []
            }, 
            {
              "op": "null", 
              "name": "ssd0_resnetv10_stage2_conv4_bias0", 
              "inputs": []
            }, 
            {
              "op": "Convolution", 
              "name": "ssd0_resnetv10_stage2_conv4_fwd", 
              "attrs": {
                "dilate": "(1, 1)", 
                "kernel": "(1, 1)", 
                "layout": "NCHW", 
                "no_bias": "False", 
                "num_filter": "128", 
                "num_group": "1", 
                "pad": "(0, 0)", 
                "stride": "(1, 1)"
              }, 
              "inputs": [[0, 0, 0], [1, 0, 0], [2, 0, 0]]
            }, 
            {
              "op": "null", 
              "name": "ssd0_resnetv10_stage2_batchnorm4_gamma0", 
              "inputs": []
            }, 
            {
              "op": "null", 
              "name": "ssd0_resnetv10_stage2_batchnorm4_beta0", 
              "inputs": []
            }, 
            {
              "op": "null", 
              "name": "ssd0_resnetv10_stage2_batchnorm4_running_mean0", 
              "inputs": []
            }, 
            {
              "op": "null", 
              "name": "ssd0_resnetv10_stage2_batchnorm4_running_var0", 
              "inputs": []
            }, 
            {
              "op": "BatchNorm", 
              "name": "ssd0_resnetv10_stage2_batchnorm4_fwd", 
              "attrs": {
                "axis": "1", 
                "eps": "1e-05", 
                "fix_gamma": "False", 
                "momentum": "0.9", 
                "use_global_stats": "False"
              }, 
              "inputs": [[3, 0, 0], [4, 0, 0], [5, 0, 0], [6, 0, 0], [7, 0, 0]]
            }, 
            {
              "op": "Activation", 
              "name": "ssd0_resnetv10_stage2_relu2_fwd", 
              "attrs": {"act_type": "relu"}, 
              "inputs": [[8, 0, 0]]
            }
          ], 
          "arg_nodes": [0, 1, 2, 4, 5, 6, 7], 
          "node_row_ptr": [
            0, 
            1, 
            2, 
            3, 
            4, 
            5, 
            6, 
            7, 
            8, 
            11, 
            12
          ], 
          "heads": [[9, 0, 0]]
        }
      ]
    }, 
    {
      "op": "null", 
      "name": "ssd0_resnetv10_stage2_conv5_weight", 
      "attrs": {
        "__dtype__": "0", 
        "__lr_mult__": "1.0", 
        "__shape__": "(128, 128, 3, 3)", 
        "__storage_type__": "0", 
        "__wd_mult__": "1.0"
      }, 
      "inputs": []
    }, 
    {
      "op": "null", 
      "name": "ssd0_resnetv10_stage2_batchnorm5_gamma", 
      "attrs": {
        "__dtype__": "0", 
        "__init__": "ones", 
        "__lr_mult__": "1.0", 
        "__shape__": "(0,)", 
        "__storage_type__": "0", 
        "__wd_mult__": "1.0"
      }, 
      "inputs": []
    }, 
    {
      "op": "null", 
      "name": "ssd0_resnetv10_stage2_batchnorm5_beta", 
      "attrs": {
        "__dtype__": "0", 
        "__init__": "zeros", 
        "__lr_mult__": "1.0", 
        "__shape__": "(0,)", 
        "__storage_type__": "0", 
        "__wd_mult__": "1.0"
      }, 
      "inputs": []
    }, 
    {
      "op": "null", 
      "name": "ssd0_resnetv10_stage2_batchnorm5_running_mean", 
      "attrs": {
        "__dtype__": "0", 
        "__init__": "zeros", 
        "__lr_mult__": "1.0", 
        "__shape__": "(0,)", 
        "__storage_type__": "0", 
        "__wd_mult__": "1.0"
      }, 
      "inputs": []
    }, 
    {
      "op": "null", 
      "name": "ssd0_resnetv10_stage2_batchnorm5_running_var", 
      "attrs": {
        "__dtype__": "0", 
        "__init__": "ones", 
        "__lr_mult__": "1.0", 
        "__shape__": "(0,)", 
        "__storage_type__": "0", 
        "__wd_mult__": "1.0"
      }, 
      "inputs": []
    }, 
    {
      "op": "_sg_mkldnn_conv", 
      "name": "quantized_sg_mkldnn_conv_bn_relu_16", 
      "attrs": {
        "max_calib_range": "2.287407", 
        "min_calib_range": "-0.000000", 
        "quantized": "true", 
        "with_bn": "true", 
        "with_relu": "true"
      }, 
      "inputs": [[107, 0, 0], [108, 0, 0], [109, 0, 0], [110, 0, 0], [111, 0, 1], [112, 0, 1], [107, 1, 0], [107, 2, 0]], 
      "subgraphs": [
        {
          "nodes": [
            {
              "op": "null", 
              "name": "sg_mkldnn_conv_bn_relu_15_output0", 
              "inputs": []
            }, 
            {
              "op": "null", 
              "name": "ssd0_resnetv10_stage2_conv5_weight0", 
              "inputs": []
            }, 
            {
              "op": "Convolution", 
              "name": "ssd0_resnetv10_stage2_conv5_fwd", 
              "attrs": {
                "dilate": "(1, 1)", 
                "kernel": "(3, 3)", 
                "layout": "NCHW", 
                "no_bias": "True", 
                "num_filter": "128", 
                "num_group": "1", 
                "pad": "(1, 1)", 
                "stride": "(1, 1)"
              }, 
              "inputs": [[0, 0, 0], [1, 0, 0]]
            }, 
            {
              "op": "null", 
              "name": "ssd0_resnetv10_stage2_batchnorm5_gamma0", 
              "inputs": []
            }, 
            {
              "op": "null", 
              "name": "ssd0_resnetv10_stage2_batchnorm5_beta0", 
              "inputs": []
            }, 
            {
              "op": "null", 
              "name": "ssd0_resnetv10_stage2_batchnorm5_running_mean0", 
              "inputs": []
            }, 
            {
              "op": "null", 
              "name": "ssd0_resnetv10_stage2_batchnorm5_running_var0", 
              "inputs": []
            }, 
            {
              "op": "BatchNorm", 
              "name": "ssd0_resnetv10_stage2_batchnorm5_fwd", 
              "attrs": {
                "axis": "1", 
                "eps": "1e-05", 
                "fix_gamma": "False", 
                "momentum": "0.9", 
                "use_global_stats": "False"
              }, 
              "inputs": [[2, 0, 0], [3, 0, 0], [4, 0, 0], [5, 0, 0], [6, 0, 0]]
            }, 
            {
              "op": "Activation", 
              "name": "ssd0_resnetv10_stage2_relu3_fwd", 
              "attrs": {"act_type": "relu"}, 
              "inputs": [[7, 0, 0]]
            }
          ], 
          "arg_nodes": [0, 1, 3, 4, 5, 6], 
          "node_row_ptr": [0, 1, 2, 3, 4, 5, 6, 7, 10, 11], 
          "heads": [[8, 0, 0]]
        }
      ]
    }, 
    {
      "op": "null", 
      "name": "ssd0_resnetv10_stage2_conv6_weight", 
      "attrs": {
        "__dtype__": "0", 
        "__lr_mult__": "1.0", 
        "__shape__": "(512, 0, 1, 1)", 
        "__storage_type__": "0", 
        "__wd_mult__": "1.0"
      }, 
      "inputs": []
    }, 
    {
      "op": "null", 
      "name": "ssd0_resnetv10_stage2_conv6_bias", 
      "attrs": {
        "__dtype__": "0", 
        "__init__": "zeros", 
        "__lr_mult__": "1.0", 
        "__shape__": "(512,)", 
        "__storage_type__": "0", 
        "__wd_mult__": "1.0"
      }, 
      "inputs": []
    }, 
    {
      "op": "null", 
      "name": "ssd0_resnetv10_stage2_batchnorm6_gamma", 
      "attrs": {
        "__dtype__": "0", 
        "__init__": "ones", 
        "__lr_mult__": "1.0", 
        "__shape__": "(0,)", 
        "__storage_type__": "0", 
        "__wd_mult__": "1.0"
      }, 
      "inputs": []
    }, 
    {
      "op": "null", 
      "name": "ssd0_resnetv10_stage2_batchnorm6_beta", 
      "attrs": {
        "__dtype__": "0", 
        "__init__": "zeros", 
        "__lr_mult__": "1.0", 
        "__shape__": "(0,)", 
        "__storage_type__": "0", 
        "__wd_mult__": "1.0"
      }, 
      "inputs": []
    }, 
    {
      "op": "null", 
      "name": "ssd0_resnetv10_stage2_batchnorm6_running_mean", 
      "attrs": {
        "__dtype__": "0", 
        "__init__": "zeros", 
        "__lr_mult__": "1.0", 
        "__shape__": "(0,)", 
        "__storage_type__": "0", 
        "__wd_mult__": "1.0"
      }, 
      "inputs": []
    }, 
    {
      "op": "null", 
      "name": "ssd0_resnetv10_stage2_batchnorm6_running_var", 
      "attrs": {
        "__dtype__": "0", 
        "__init__": "ones", 
        "__lr_mult__": "1.0", 
        "__shape__": "(0,)", 
        "__storage_type__": "0", 
        "__wd_mult__": "1.0"
      }, 
      "inputs": []
    }, 
    {
      "op": "_sg_mkldnn_conv", 
      "name": "quantized_sg_mkldnn_conv_bn_add_relu_17", 
      "attrs": {
        "max_calib_range": "3.371729", 
        "min_calib_range": "-0.000000", 
        "quantized": "true", 
        "with_bn": "true", 
        "with_postsum_relu": "true", 
        "with_sum": "true"
      }, 
      "inputs": [
        [113, 0, 0], 
        [114, 0, 0], 
        [115, 0, 0], 
        [116, 0, 0], 
        [117, 0, 0], 
        [118, 0, 1], 
        [119, 0, 1], 
        [100, 0, 0], 
        [113, 1, 0], 
        [113, 2, 0], 
        [100, 1, 0], 
        [100, 2, 0]
      ], 
      "subgraphs": [
        {
          "nodes": [
            {
              "op": "null", 
              "name": "sg_mkldnn_conv_bn_relu_16_output0", 
              "inputs": []
            }, 
            {
              "op": "null", 
              "name": "ssd0_resnetv10_stage2_conv6_weight0", 
              "inputs": []
            }, 
            {
              "op": "null", 
              "name": "ssd0_resnetv10_stage2_conv6_bias0", 
              "inputs": []
            }, 
            {
              "op": "Convolution", 
              "name": "ssd0_resnetv10_stage2_conv6_fwd", 
              "attrs": {
                "dilate": "(1, 1)", 
                "kernel": "(1, 1)", 
                "layout": "NCHW", 
                "no_bias": "False", 
                "num_filter": "512", 
                "num_group": "1", 
                "pad": "(0, 0)", 
                "stride": "(1, 1)"
              }, 
              "inputs": [[0, 0, 0], [1, 0, 0], [2, 0, 0]]
            }, 
            {
              "op": "null", 
              "name": "ssd0_resnetv10_stage2_batchnorm6_gamma0", 
              "inputs": []
            }, 
            {
              "op": "null", 
              "name": "ssd0_resnetv10_stage2_batchnorm6_beta0", 
              "inputs": []
            }, 
            {
              "op": "null", 
              "name": "ssd0_resnetv10_stage2_batchnorm6_running_mean0", 
              "inputs": []
            }, 
            {
              "op": "null", 
              "name": "ssd0_resnetv10_stage2_batchnorm6_running_var0", 
              "inputs": []
            }, 
            {
              "op": "BatchNorm", 
              "name": "ssd0_resnetv10_stage2_batchnorm6_fwd", 
              "attrs": {
                "axis": "1", 
                "eps": "1e-05", 
                "fix_gamma": "False", 
                "momentum": "0.9", 
                "use_global_stats": "False"
              }, 
              "inputs": [[3, 0, 0], [4, 0, 0], [5, 0, 0], [6, 0, 0], [7, 0, 0]]
            }, 
            {
              "op": "null", 
              "name": "sg_mkldnn_conv_bn_add_relu_13_output0", 
              "inputs": []
            }, 
            {
              "op": "elemwise_add", 
              "name": "ssd0_resnetv10_stage2__plus1", 
              "inputs": [[8, 0, 0], [9, 0, 0]]
            }, 
            {
              "op": "Activation", 
              "name": "ssd0_resnetv10_stage2_activation1", 
              "attrs": {"act_type": "relu"}, 
              "inputs": [[10, 0, 0]]
            }
          ], 
          "arg_nodes": [0, 1, 2, 4, 5, 6, 7, 9], 
          "node_row_ptr": [
            0, 
            1, 
            2, 
            3, 
            4, 
            5, 
            6, 
            7, 
            8, 
            11, 
            12, 
            13, 
            14
          ], 
          "heads": [[11, 0, 0]]
        }
      ]
    }, 
    {
      "op": "null", 
      "name": "ssd0_resnetv10_stage2_conv7_weight", 
      "attrs": {
        "__dtype__": "0", 
        "__lr_mult__": "1.0", 
        "__shape__": "(128, 0, 1, 1)", 
        "__storage_type__": "0", 
        "__wd_mult__": "1.0"
      }, 
      "inputs": []
    }, 
    {
      "op": "null", 
      "name": "ssd0_resnetv10_stage2_conv7_bias", 
      "attrs": {
        "__dtype__": "0", 
        "__init__": "zeros", 
        "__lr_mult__": "1.0", 
        "__shape__": "(128,)", 
        "__storage_type__": "0", 
        "__wd_mult__": "1.0"
      }, 
      "inputs": []
    }, 
    {
      "op": "null", 
      "name": "ssd0_resnetv10_stage2_batchnorm7_gamma", 
      "attrs": {
        "__dtype__": "0", 
        "__init__": "ones", 
        "__lr_mult__": "1.0", 
        "__shape__": "(0,)", 
        "__storage_type__": "0", 
        "__wd_mult__": "1.0"
      }, 
      "inputs": []
    }, 
    {
      "op": "null", 
      "name": "ssd0_resnetv10_stage2_batchnorm7_beta", 
      "attrs": {
        "__dtype__": "0", 
        "__init__": "zeros", 
        "__lr_mult__": "1.0", 
        "__shape__": "(0,)", 
        "__storage_type__": "0", 
        "__wd_mult__": "1.0"
      }, 
      "inputs": []
    }, 
    {
      "op": "null", 
      "name": "ssd0_resnetv10_stage2_batchnorm7_running_mean", 
      "attrs": {
        "__dtype__": "0", 
        "__init__": "zeros", 
        "__lr_mult__": "1.0", 
        "__shape__": "(0,)", 
        "__storage_type__": "0", 
        "__wd_mult__": "1.0"
      }, 
      "inputs": []
    }, 
    {
      "op": "null", 
      "name": "ssd0_resnetv10_stage2_batchnorm7_running_var", 
      "attrs": {
        "__dtype__": "0", 
        "__init__": "ones", 
        "__lr_mult__": "1.0", 
        "__shape__": "(0,)", 
        "__storage_type__": "0", 
        "__wd_mult__": "1.0"
      }, 
      "inputs": []
    }, 
    {
      "op": "_sg_mkldnn_conv", 
      "name": "quantized_sg_mkldnn_conv_bn_relu_18", 
      "attrs": {
        "max_calib_range": "2.269738", 
        "min_calib_range": "-0.000000", 
        "quantized": "true", 
        "with_bn": "true", 
        "with_relu": "true"
      }, 
      "inputs": [[120, 0, 0], [121, 0, 0], [122, 0, 0], [123, 0, 0], [124, 0, 0], [125, 0, 1], [126, 0, 1], [120, 1, 0], [120, 2, 0]], 
      "subgraphs": [
        {
          "nodes": [
            {
              "op": "null", 
              "name": "sg_mkldnn_conv_bn_add_relu_17_output0", 
              "inputs": []
            }, 
            {
              "op": "null", 
              "name": "ssd0_resnetv10_stage2_conv7_weight0", 
              "inputs": []
            }, 
            {
              "op": "null", 
              "name": "ssd0_resnetv10_stage2_conv7_bias0", 
              "inputs": []
            }, 
            {
              "op": "Convolution", 
              "name": "ssd0_resnetv10_stage2_conv7_fwd", 
              "attrs": {
                "dilate": "(1, 1)", 
                "kernel": "(1, 1)", 
                "layout": "NCHW", 
                "no_bias": "False", 
                "num_filter": "128", 
                "num_group": "1", 
                "pad": "(0, 0)", 
                "stride": "(1, 1)"
              }, 
              "inputs": [[0, 0, 0], [1, 0, 0], [2, 0, 0]]
            }, 
            {
              "op": "null", 
              "name": "ssd0_resnetv10_stage2_batchnorm7_gamma0", 
              "inputs": []
            }, 
            {
              "op": "null", 
              "name": "ssd0_resnetv10_stage2_batchnorm7_beta0", 
              "inputs": []
            }, 
            {
              "op": "null", 
              "name": "ssd0_resnetv10_stage2_batchnorm7_running_mean0", 
              "inputs": []
            }, 
            {
              "op": "null", 
              "name": "ssd0_resnetv10_stage2_batchnorm7_running_var0", 
              "inputs": []
            }, 
            {
              "op": "BatchNorm", 
              "name": "ssd0_resnetv10_stage2_batchnorm7_fwd", 
              "attrs": {
                "axis": "1", 
                "eps": "1e-05", 
                "fix_gamma": "False", 
                "momentum": "0.9", 
                "use_global_stats": "False"
              }, 
              "inputs": [[3, 0, 0], [4, 0, 0], [5, 0, 0], [6, 0, 0], [7, 0, 0]]
            }, 
            {
              "op": "Activation", 
              "name": "ssd0_resnetv10_stage2_relu4_fwd", 
              "attrs": {"act_type": "relu"}, 
              "inputs": [[8, 0, 0]]
            }
          ], 
          "arg_nodes": [0, 1, 2, 4, 5, 6, 7], 
          "node_row_ptr": [
            0, 
            1, 
            2, 
            3, 
            4, 
            5, 
            6, 
            7, 
            8, 
            11, 
            12
          ], 
          "heads": [[9, 0, 0]]
        }
      ]
    }, 
    {
      "op": "null", 
      "name": "ssd0_resnetv10_stage2_conv8_weight", 
      "attrs": {
        "__dtype__": "0", 
        "__lr_mult__": "1.0", 
        "__shape__": "(128, 128, 3, 3)", 
        "__storage_type__": "0", 
        "__wd_mult__": "1.0"
      }, 
      "inputs": []
    }, 
    {
      "op": "null", 
      "name": "ssd0_resnetv10_stage2_batchnorm8_gamma", 
      "attrs": {
        "__dtype__": "0", 
        "__init__": "ones", 
        "__lr_mult__": "1.0", 
        "__shape__": "(0,)", 
        "__storage_type__": "0", 
        "__wd_mult__": "1.0"
      }, 
      "inputs": []
    }, 
    {
      "op": "null", 
      "name": "ssd0_resnetv10_stage2_batchnorm8_beta", 
      "attrs": {
        "__dtype__": "0", 
        "__init__": "zeros", 
        "__lr_mult__": "1.0", 
        "__shape__": "(0,)", 
        "__storage_type__": "0", 
        "__wd_mult__": "1.0"
      }, 
      "inputs": []
    }, 
    {
      "op": "null", 
      "name": "ssd0_resnetv10_stage2_batchnorm8_running_mean", 
      "attrs": {
        "__dtype__": "0", 
        "__init__": "zeros", 
        "__lr_mult__": "1.0", 
        "__shape__": "(0,)", 
        "__storage_type__": "0", 
        "__wd_mult__": "1.0"
      }, 
      "inputs": []
    }, 
    {
      "op": "null", 
      "name": "ssd0_resnetv10_stage2_batchnorm8_running_var", 
      "attrs": {
        "__dtype__": "0", 
        "__init__": "ones", 
        "__lr_mult__": "1.0", 
        "__shape__": "(0,)", 
        "__storage_type__": "0", 
        "__wd_mult__": "1.0"
      }, 
      "inputs": []
    }, 
    {
      "op": "_sg_mkldnn_conv", 
      "name": "quantized_sg_mkldnn_conv_bn_relu_19", 
      "attrs": {
        "max_calib_range": "3.264528", 
        "min_calib_range": "-0.000000", 
        "quantized": "true", 
        "with_bn": "true", 
        "with_relu": "true"
      }, 
      "inputs": [[127, 0, 0], [128, 0, 0], [129, 0, 0], [130, 0, 0], [131, 0, 1], [132, 0, 1], [127, 1, 0], [127, 2, 0]], 
      "subgraphs": [
        {
          "nodes": [
            {
              "op": "null", 
              "name": "sg_mkldnn_conv_bn_relu_18_output0", 
              "inputs": []
            }, 
            {
              "op": "null", 
              "name": "ssd0_resnetv10_stage2_conv8_weight0", 
              "inputs": []
            }, 
            {
              "op": "Convolution", 
              "name": "ssd0_resnetv10_stage2_conv8_fwd", 
              "attrs": {
                "dilate": "(1, 1)", 
                "kernel": "(3, 3)", 
                "layout": "NCHW", 
                "no_bias": "True", 
                "num_filter": "128", 
                "num_group": "1", 
                "pad": "(1, 1)", 
                "stride": "(1, 1)"
              }, 
              "inputs": [[0, 0, 0], [1, 0, 0]]
            }, 
            {
              "op": "null", 
              "name": "ssd0_resnetv10_stage2_batchnorm8_gamma0", 
              "inputs": []
            }, 
            {
              "op": "null", 
              "name": "ssd0_resnetv10_stage2_batchnorm8_beta0", 
              "inputs": []
            }, 
            {
              "op": "null", 
              "name": "ssd0_resnetv10_stage2_batchnorm8_running_mean0", 
              "inputs": []
            }, 
            {
              "op": "null", 
              "name": "ssd0_resnetv10_stage2_batchnorm8_running_var0", 
              "inputs": []
            }, 
            {
              "op": "BatchNorm", 
              "name": "ssd0_resnetv10_stage2_batchnorm8_fwd", 
              "attrs": {
                "axis": "1", 
                "eps": "1e-05", 
                "fix_gamma": "False", 
                "momentum": "0.9", 
                "use_global_stats": "False"
              }, 
              "inputs": [[2, 0, 0], [3, 0, 0], [4, 0, 0], [5, 0, 0], [6, 0, 0]]
            }, 
            {
              "op": "Activation", 
              "name": "ssd0_resnetv10_stage2_relu5_fwd", 
              "attrs": {"act_type": "relu"}, 
              "inputs": [[7, 0, 0]]
            }
          ], 
          "arg_nodes": [0, 1, 3, 4, 5, 6], 
          "node_row_ptr": [0, 1, 2, 3, 4, 5, 6, 7, 10, 11], 
          "heads": [[8, 0, 0]]
        }
      ]
    }, 
    {
      "op": "null", 
      "name": "ssd0_resnetv10_stage2_conv9_weight", 
      "attrs": {
        "__dtype__": "0", 
        "__lr_mult__": "1.0", 
        "__shape__": "(512, 0, 1, 1)", 
        "__storage_type__": "0", 
        "__wd_mult__": "1.0"
      }, 
      "inputs": []
    }, 
    {
      "op": "null", 
      "name": "ssd0_resnetv10_stage2_conv9_bias", 
      "attrs": {
        "__dtype__": "0", 
        "__init__": "zeros", 
        "__lr_mult__": "1.0", 
        "__shape__": "(512,)", 
        "__storage_type__": "0", 
        "__wd_mult__": "1.0"
      }, 
      "inputs": []
    }, 
    {
      "op": "null", 
      "name": "ssd0_resnetv10_stage2_batchnorm9_gamma", 
      "attrs": {
        "__dtype__": "0", 
        "__init__": "ones", 
        "__lr_mult__": "1.0", 
        "__shape__": "(0,)", 
        "__storage_type__": "0", 
        "__wd_mult__": "1.0"
      }, 
      "inputs": []
    }, 
    {
      "op": "null", 
      "name": "ssd0_resnetv10_stage2_batchnorm9_beta", 
      "attrs": {
        "__dtype__": "0", 
        "__init__": "zeros", 
        "__lr_mult__": "1.0", 
        "__shape__": "(0,)", 
        "__storage_type__": "0", 
        "__wd_mult__": "1.0"
      }, 
      "inputs": []
    }, 
    {
      "op": "null", 
      "name": "ssd0_resnetv10_stage2_batchnorm9_running_mean", 
      "attrs": {
        "__dtype__": "0", 
        "__init__": "zeros", 
        "__lr_mult__": "1.0", 
        "__shape__": "(0,)", 
        "__storage_type__": "0", 
        "__wd_mult__": "1.0"
      }, 
      "inputs": []
    }, 
    {
      "op": "null", 
      "name": "ssd0_resnetv10_stage2_batchnorm9_running_var", 
      "attrs": {
        "__dtype__": "0", 
        "__init__": "ones", 
        "__lr_mult__": "1.0", 
        "__shape__": "(0,)", 
        "__storage_type__": "0", 
        "__wd_mult__": "1.0"
      }, 
      "inputs": []
    }, 
    {
      "op": "_sg_mkldnn_conv", 
      "name": "quantized_sg_mkldnn_conv_bn_add_relu_20", 
      "attrs": {
        "max_calib_range": "3.448743", 
        "min_calib_range": "-0.000000", 
        "quantized": "true", 
        "with_bn": "true", 
        "with_postsum_relu": "true", 
        "with_sum": "true"
      }, 
      "inputs": [
        [133, 0, 0], 
        [134, 0, 0], 
        [135, 0, 0], 
        [136, 0, 0], 
        [137, 0, 0], 
        [138, 0, 1], 
        [139, 0, 1], 
        [120, 0, 0], 
        [133, 1, 0], 
        [133, 2, 0], 
        [120, 1, 0], 
        [120, 2, 0]
      ], 
      "subgraphs": [
        {
          "nodes": [
            {
              "op": "null", 
              "name": "sg_mkldnn_conv_bn_relu_19_output0", 
              "inputs": []
            }, 
            {
              "op": "null", 
              "name": "ssd0_resnetv10_stage2_conv9_weight0", 
              "inputs": []
            }, 
            {
              "op": "null", 
              "name": "ssd0_resnetv10_stage2_conv9_bias0", 
              "inputs": []
            }, 
            {
              "op": "Convolution", 
              "name": "ssd0_resnetv10_stage2_conv9_fwd", 
              "attrs": {
                "dilate": "(1, 1)", 
                "kernel": "(1, 1)", 
                "layout": "NCHW", 
                "no_bias": "False", 
                "num_filter": "512", 
                "num_group": "1", 
                "pad": "(0, 0)", 
                "stride": "(1, 1)"
              }, 
              "inputs": [[0, 0, 0], [1, 0, 0], [2, 0, 0]]
            }, 
            {
              "op": "null", 
              "name": "ssd0_resnetv10_stage2_batchnorm9_gamma0", 
              "inputs": []
            }, 
            {
              "op": "null", 
              "name": "ssd0_resnetv10_stage2_batchnorm9_beta0", 
              "inputs": []
            }, 
            {
              "op": "null", 
              "name": "ssd0_resnetv10_stage2_batchnorm9_running_mean0", 
              "inputs": []
            }, 
            {
              "op": "null", 
              "name": "ssd0_resnetv10_stage2_batchnorm9_running_var0", 
              "inputs": []
            }, 
            {
              "op": "BatchNorm", 
              "name": "ssd0_resnetv10_stage2_batchnorm9_fwd", 
              "attrs": {
                "axis": "1", 
                "eps": "1e-05", 
                "fix_gamma": "False", 
                "momentum": "0.9", 
                "use_global_stats": "False"
              }, 
              "inputs": [[3, 0, 0], [4, 0, 0], [5, 0, 0], [6, 0, 0], [7, 0, 0]]
            }, 
            {
              "op": "null", 
              "name": "sg_mkldnn_conv_bn_add_relu_17_output0", 
              "inputs": []
            }, 
            {
              "op": "elemwise_add", 
              "name": "ssd0_resnetv10_stage2__plus2", 
              "inputs": [[8, 0, 0], [9, 0, 0]]
            }, 
            {
              "op": "Activation", 
              "name": "ssd0_resnetv10_stage2_activation2", 
              "attrs": {"act_type": "relu"}, 
              "inputs": [[10, 0, 0]]
            }
          ], 
          "arg_nodes": [0, 1, 2, 4, 5, 6, 7, 9], 
          "node_row_ptr": [
            0, 
            1, 
            2, 
            3, 
            4, 
            5, 
            6, 
            7, 
            8, 
            11, 
            12, 
            13, 
            14
          ], 
          "heads": [[11, 0, 0]]
        }
      ]
    }, 
    {
      "op": "null", 
      "name": "ssd0_resnetv10_stage2_conv10_weight", 
      "attrs": {
        "__dtype__": "0", 
        "__lr_mult__": "1.0", 
        "__shape__": "(128, 0, 1, 1)", 
        "__storage_type__": "0", 
        "__wd_mult__": "1.0"
      }, 
      "inputs": []
    }, 
    {
      "op": "null", 
      "name": "ssd0_resnetv10_stage2_conv10_bias", 
      "attrs": {
        "__dtype__": "0", 
        "__init__": "zeros", 
        "__lr_mult__": "1.0", 
        "__shape__": "(128,)", 
        "__storage_type__": "0", 
        "__wd_mult__": "1.0"
      }, 
      "inputs": []
    }, 
    {
      "op": "null", 
      "name": "ssd0_resnetv10_stage2_batchnorm10_gamma", 
      "attrs": {
        "__dtype__": "0", 
        "__init__": "ones", 
        "__lr_mult__": "1.0", 
        "__shape__": "(0,)", 
        "__storage_type__": "0", 
        "__wd_mult__": "1.0"
      }, 
      "inputs": []
    }, 
    {
      "op": "null", 
      "name": "ssd0_resnetv10_stage2_batchnorm10_beta", 
      "attrs": {
        "__dtype__": "0", 
        "__init__": "zeros", 
        "__lr_mult__": "1.0", 
        "__shape__": "(0,)", 
        "__storage_type__": "0", 
        "__wd_mult__": "1.0"
      }, 
      "inputs": []
    }, 
    {
      "op": "null", 
      "name": "ssd0_resnetv10_stage2_batchnorm10_running_mean", 
      "attrs": {
        "__dtype__": "0", 
        "__init__": "zeros", 
        "__lr_mult__": "1.0", 
        "__shape__": "(0,)", 
        "__storage_type__": "0", 
        "__wd_mult__": "1.0"
      }, 
      "inputs": []
    }, 
    {
      "op": "null", 
      "name": "ssd0_resnetv10_stage2_batchnorm10_running_var", 
      "attrs": {
        "__dtype__": "0", 
        "__init__": "ones", 
        "__lr_mult__": "1.0", 
        "__shape__": "(0,)", 
        "__storage_type__": "0", 
        "__wd_mult__": "1.0"
      }, 
      "inputs": []
    }, 
    {
      "op": "_sg_mkldnn_conv", 
      "name": "quantized_sg_mkldnn_conv_bn_relu_21", 
      "attrs": {
        "max_calib_range": "3.416933", 
        "min_calib_range": "-0.000000", 
        "quantized": "true", 
        "with_bn": "true", 
        "with_relu": "true"
      }, 
      "inputs": [[140, 0, 0], [141, 0, 0], [142, 0, 0], [143, 0, 0], [144, 0, 0], [145, 0, 1], [146, 0, 1], [140, 1, 0], [140, 2, 0]], 
      "subgraphs": [
        {
          "nodes": [
            {
              "op": "null", 
              "name": "sg_mkldnn_conv_bn_add_relu_20_output0", 
              "inputs": []
            }, 
            {
              "op": "null", 
              "name": "ssd0_resnetv10_stage2_conv10_weight0", 
              "inputs": []
            }, 
            {
              "op": "null", 
              "name": "ssd0_resnetv10_stage2_conv10_bias0", 
              "inputs": []
            }, 
            {
              "op": "Convolution", 
              "name": "ssd0_resnetv10_stage2_conv10_fwd", 
              "attrs": {
                "dilate": "(1, 1)", 
                "kernel": "(1, 1)", 
                "layout": "NCHW", 
                "no_bias": "False", 
                "num_filter": "128", 
                "num_group": "1", 
                "pad": "(0, 0)", 
                "stride": "(1, 1)"
              }, 
              "inputs": [[0, 0, 0], [1, 0, 0], [2, 0, 0]]
            }, 
            {
              "op": "null", 
              "name": "ssd0_resnetv10_stage2_batchnorm10_gamma0", 
              "inputs": []
            }, 
            {
              "op": "null", 
              "name": "ssd0_resnetv10_stage2_batchnorm10_beta0", 
              "inputs": []
            }, 
            {
              "op": "null", 
              "name": "ssd0_resnetv10_stage2_batchnorm10_running_mean0", 
              "inputs": []
            }, 
            {
              "op": "null", 
              "name": "ssd0_resnetv10_stage2_batchnorm10_running_var0", 
              "inputs": []
            }, 
            {
              "op": "BatchNorm", 
              "name": "ssd0_resnetv10_stage2_batchnorm10_fwd", 
              "attrs": {
                "axis": "1", 
                "eps": "1e-05", 
                "fix_gamma": "False", 
                "momentum": "0.9", 
                "use_global_stats": "False"
              }, 
              "inputs": [[3, 0, 0], [4, 0, 0], [5, 0, 0], [6, 0, 0], [7, 0, 0]]
            }, 
            {
              "op": "Activation", 
              "name": "ssd0_resnetv10_stage2_relu6_fwd", 
              "attrs": {"act_type": "relu"}, 
              "inputs": [[8, 0, 0]]
            }
          ], 
          "arg_nodes": [0, 1, 2, 4, 5, 6, 7], 
          "node_row_ptr": [
            0, 
            1, 
            2, 
            3, 
            4, 
            5, 
            6, 
            7, 
            8, 
            11, 
            12
          ], 
          "heads": [[9, 0, 0]]
        }
      ]
    }, 
    {
      "op": "null", 
      "name": "ssd0_resnetv10_stage2_conv11_weight", 
      "attrs": {
        "__dtype__": "0", 
        "__lr_mult__": "1.0", 
        "__shape__": "(128, 128, 3, 3)", 
        "__storage_type__": "0", 
        "__wd_mult__": "1.0"
      }, 
      "inputs": []
    }, 
    {
      "op": "null", 
      "name": "ssd0_resnetv10_stage2_batchnorm11_gamma", 
      "attrs": {
        "__dtype__": "0", 
        "__init__": "ones", 
        "__lr_mult__": "1.0", 
        "__shape__": "(0,)", 
        "__storage_type__": "0", 
        "__wd_mult__": "1.0"
      }, 
      "inputs": []
    }, 
    {
      "op": "null", 
      "name": "ssd0_resnetv10_stage2_batchnorm11_beta", 
      "attrs": {
        "__dtype__": "0", 
        "__init__": "zeros", 
        "__lr_mult__": "1.0", 
        "__shape__": "(0,)", 
        "__storage_type__": "0", 
        "__wd_mult__": "1.0"
      }, 
      "inputs": []
    }, 
    {
      "op": "null", 
      "name": "ssd0_resnetv10_stage2_batchnorm11_running_mean", 
      "attrs": {
        "__dtype__": "0", 
        "__init__": "zeros", 
        "__lr_mult__": "1.0", 
        "__shape__": "(0,)", 
        "__storage_type__": "0", 
        "__wd_mult__": "1.0"
      }, 
      "inputs": []
    }, 
    {
      "op": "null", 
      "name": "ssd0_resnetv10_stage2_batchnorm11_running_var", 
      "attrs": {
        "__dtype__": "0", 
        "__init__": "ones", 
        "__lr_mult__": "1.0", 
        "__shape__": "(0,)", 
        "__storage_type__": "0", 
        "__wd_mult__": "1.0"
      }, 
      "inputs": []
    }, 
    {
      "op": "_sg_mkldnn_conv", 
      "name": "quantized_sg_mkldnn_conv_bn_relu_22", 
      "attrs": {
        "max_calib_range": "3.628044", 
        "min_calib_range": "-0.000000", 
        "quantized": "true", 
        "with_bn": "true", 
        "with_relu": "true"
      }, 
      "inputs": [[147, 0, 0], [148, 0, 0], [149, 0, 0], [150, 0, 0], [151, 0, 1], [152, 0, 1], [147, 1, 0], [147, 2, 0]], 
      "subgraphs": [
        {
          "nodes": [
            {
              "op": "null", 
              "name": "sg_mkldnn_conv_bn_relu_21_output0", 
              "inputs": []
            }, 
            {
              "op": "null", 
              "name": "ssd0_resnetv10_stage2_conv11_weight0", 
              "inputs": []
            }, 
            {
              "op": "Convolution", 
              "name": "ssd0_resnetv10_stage2_conv11_fwd", 
              "attrs": {
                "dilate": "(1, 1)", 
                "kernel": "(3, 3)", 
                "layout": "NCHW", 
                "no_bias": "True", 
                "num_filter": "128", 
                "num_group": "1", 
                "pad": "(1, 1)", 
                "stride": "(1, 1)"
              }, 
              "inputs": [[0, 0, 0], [1, 0, 0]]
            }, 
            {
              "op": "null", 
              "name": "ssd0_resnetv10_stage2_batchnorm11_gamma0", 
              "inputs": []
            }, 
            {
              "op": "null", 
              "name": "ssd0_resnetv10_stage2_batchnorm11_beta0", 
              "inputs": []
            }, 
            {
              "op": "null", 
              "name": "ssd0_resnetv10_stage2_batchnorm11_running_mean0", 
              "inputs": []
            }, 
            {
              "op": "null", 
              "name": "ssd0_resnetv10_stage2_batchnorm11_running_var0", 
              "inputs": []
            }, 
            {
              "op": "BatchNorm", 
              "name": "ssd0_resnetv10_stage2_batchnorm11_fwd", 
              "attrs": {
                "axis": "1", 
                "eps": "1e-05", 
                "fix_gamma": "False", 
                "momentum": "0.9", 
                "use_global_stats": "False"
              }, 
              "inputs": [[2, 0, 0], [3, 0, 0], [4, 0, 0], [5, 0, 0], [6, 0, 0]]
            }, 
            {
              "op": "Activation", 
              "name": "ssd0_resnetv10_stage2_relu7_fwd", 
              "attrs": {"act_type": "relu"}, 
              "inputs": [[7, 0, 0]]
            }
          ], 
          "arg_nodes": [0, 1, 3, 4, 5, 6], 
          "node_row_ptr": [0, 1, 2, 3, 4, 5, 6, 7, 10, 11], 
          "heads": [[8, 0, 0]]
        }
      ]
    }, 
    {
      "op": "null", 
      "name": "ssd0_resnetv10_stage2_conv12_weight", 
      "attrs": {
        "__dtype__": "0", 
        "__lr_mult__": "1.0", 
        "__shape__": "(512, 0, 1, 1)", 
        "__storage_type__": "0", 
        "__wd_mult__": "1.0"
      }, 
      "inputs": []
    }, 
    {
      "op": "null", 
      "name": "ssd0_resnetv10_stage2_conv12_bias", 
      "attrs": {
        "__dtype__": "0", 
        "__init__": "zeros", 
        "__lr_mult__": "1.0", 
        "__shape__": "(512,)", 
        "__storage_type__": "0", 
        "__wd_mult__": "1.0"
      }, 
      "inputs": []
    }, 
    {
      "op": "null", 
      "name": "ssd0_resnetv10_stage2_batchnorm12_gamma", 
      "attrs": {
        "__dtype__": "0", 
        "__init__": "ones", 
        "__lr_mult__": "1.0", 
        "__shape__": "(0,)", 
        "__storage_type__": "0", 
        "__wd_mult__": "1.0"
      }, 
      "inputs": []
    }, 
    {
      "op": "null", 
      "name": "ssd0_resnetv10_stage2_batchnorm12_beta", 
      "attrs": {
        "__dtype__": "0", 
        "__init__": "zeros", 
        "__lr_mult__": "1.0", 
        "__shape__": "(0,)", 
        "__storage_type__": "0", 
        "__wd_mult__": "1.0"
      }, 
      "inputs": []
    }, 
    {
      "op": "null", 
      "name": "ssd0_resnetv10_stage2_batchnorm12_running_mean", 
      "attrs": {
        "__dtype__": "0", 
        "__init__": "zeros", 
        "__lr_mult__": "1.0", 
        "__shape__": "(0,)", 
        "__storage_type__": "0", 
        "__wd_mult__": "1.0"
      }, 
      "inputs": []
    }, 
    {
      "op": "null", 
      "name": "ssd0_resnetv10_stage2_batchnorm12_running_var", 
      "attrs": {
        "__dtype__": "0", 
        "__init__": "ones", 
        "__lr_mult__": "1.0", 
        "__shape__": "(0,)", 
        "__storage_type__": "0", 
        "__wd_mult__": "1.0"
      }, 
      "inputs": []
    }, 
    {
      "op": "_sg_mkldnn_conv", 
      "name": "quantized_sg_mkldnn_conv_bn_add_relu_23", 
      "attrs": {
        "max_calib_range": "4.600730", 
        "min_calib_range": "-0.000000", 
        "quantized": "true", 
        "with_bn": "true", 
        "with_postsum_relu": "true", 
        "with_sum": "true"
      }, 
      "inputs": [
        [153, 0, 0], 
        [154, 0, 0], 
        [155, 0, 0], 
        [156, 0, 0], 
        [157, 0, 0], 
        [158, 0, 1], 
        [159, 0, 1], 
        [140, 0, 0], 
        [153, 1, 0], 
        [153, 2, 0], 
        [140, 1, 0], 
        [140, 2, 0]
      ], 
      "subgraphs": [
        {
          "nodes": [
            {
              "op": "null", 
              "name": "sg_mkldnn_conv_bn_relu_22_output0", 
              "inputs": []
            }, 
            {
              "op": "null", 
              "name": "ssd0_resnetv10_stage2_conv12_weight0", 
              "inputs": []
            }, 
            {
              "op": "null", 
              "name": "ssd0_resnetv10_stage2_conv12_bias0", 
              "inputs": []
            }, 
            {
              "op": "Convolution", 
              "name": "ssd0_resnetv10_stage2_conv12_fwd", 
              "attrs": {
                "dilate": "(1, 1)", 
                "kernel": "(1, 1)", 
                "layout": "NCHW", 
                "no_bias": "False", 
                "num_filter": "512", 
                "num_group": "1", 
                "pad": "(0, 0)", 
                "stride": "(1, 1)"
              }, 
              "inputs": [[0, 0, 0], [1, 0, 0], [2, 0, 0]]
            }, 
            {
              "op": "null", 
              "name": "ssd0_resnetv10_stage2_batchnorm12_gamma0", 
              "inputs": []
            }, 
            {
              "op": "null", 
              "name": "ssd0_resnetv10_stage2_batchnorm12_beta0", 
              "inputs": []
            }, 
            {
              "op": "null", 
              "name": "ssd0_resnetv10_stage2_batchnorm12_running_mean0", 
              "inputs": []
            }, 
            {
              "op": "null", 
              "name": "ssd0_resnetv10_stage2_batchnorm12_running_var0", 
              "inputs": []
            }, 
            {
              "op": "BatchNorm", 
              "name": "ssd0_resnetv10_stage2_batchnorm12_fwd", 
              "attrs": {
                "axis": "1", 
                "eps": "1e-05", 
                "fix_gamma": "False", 
                "momentum": "0.9", 
                "use_global_stats": "False"
              }, 
              "inputs": [[3, 0, 0], [4, 0, 0], [5, 0, 0], [6, 0, 0], [7, 0, 0]]
            }, 
            {
              "op": "null", 
              "name": "sg_mkldnn_conv_bn_add_relu_20_output0", 
              "inputs": []
            }, 
            {
              "op": "elemwise_add", 
              "name": "ssd0_resnetv10_stage2__plus3", 
              "inputs": [[8, 0, 0], [9, 0, 0]]
            }, 
            {
              "op": "Activation", 
              "name": "ssd0_resnetv10_stage2_activation3", 
              "attrs": {"act_type": "relu"}, 
              "inputs": [[10, 0, 0]]
            }
          ], 
          "arg_nodes": [0, 1, 2, 4, 5, 6, 7, 9], 
          "node_row_ptr": [
            0, 
            1, 
            2, 
            3, 
            4, 
            5, 
            6, 
            7, 
            8, 
            11, 
            12, 
            13, 
            14
          ], 
          "heads": [[11, 0, 0]]
        }
      ]
    }, 
    {
      "op": "null", 
      "name": "ssd0_resnetv10_stage3_conv0_weight", 
      "attrs": {
        "__dtype__": "0", 
        "__lr_mult__": "1.0", 
        "__shape__": "(256, 0, 1, 1)", 
        "__storage_type__": "0", 
        "__wd_mult__": "1.0"
      }, 
      "inputs": []
    }, 
    {
      "op": "null", 
      "name": "ssd0_resnetv10_stage3_conv0_bias", 
      "attrs": {
        "__dtype__": "0", 
        "__init__": "zeros", 
        "__lr_mult__": "1.0", 
        "__shape__": "(256,)", 
        "__storage_type__": "0", 
        "__wd_mult__": "1.0"
      }, 
      "inputs": []
    }, 
    {
      "op": "null", 
      "name": "ssd0_resnetv10_stage3_batchnorm0_gamma", 
      "attrs": {
        "__dtype__": "0", 
        "__init__": "ones", 
        "__lr_mult__": "1.0", 
        "__shape__": "(0,)", 
        "__storage_type__": "0", 
        "__wd_mult__": "1.0"
      }, 
      "inputs": []
    }, 
    {
      "op": "null", 
      "name": "ssd0_resnetv10_stage3_batchnorm0_beta", 
      "attrs": {
        "__dtype__": "0", 
        "__init__": "zeros", 
        "__lr_mult__": "1.0", 
        "__shape__": "(0,)", 
        "__storage_type__": "0", 
        "__wd_mult__": "1.0"
      }, 
      "inputs": []
    }, 
    {
      "op": "null", 
      "name": "ssd0_resnetv10_stage3_batchnorm0_running_mean", 
      "attrs": {
        "__dtype__": "0", 
        "__init__": "zeros", 
        "__lr_mult__": "1.0", 
        "__shape__": "(0,)", 
        "__storage_type__": "0", 
        "__wd_mult__": "1.0"
      }, 
      "inputs": []
    }, 
    {
      "op": "null", 
      "name": "ssd0_resnetv10_stage3_batchnorm0_running_var", 
      "attrs": {
        "__dtype__": "0", 
        "__init__": "ones", 
        "__lr_mult__": "1.0", 
        "__shape__": "(0,)", 
        "__storage_type__": "0", 
        "__wd_mult__": "1.0"
      }, 
      "inputs": []
    }, 
    {
      "op": "_sg_mkldnn_conv", 
      "name": "quantized_sg_mkldnn_conv_bn_relu_24", 
      "attrs": {
        "max_calib_range": "1.802472", 
        "min_calib_range": "-0.000000", 
        "quantized": "true", 
        "with_bn": "true", 
        "with_relu": "true"
      }, 
      "inputs": [[160, 0, 0], [161, 0, 0], [162, 0, 0], [163, 0, 0], [164, 0, 0], [165, 0, 1], [166, 0, 1], [160, 1, 0], [160, 2, 0]], 
      "subgraphs": [
        {
          "nodes": [
            {
              "op": "null", 
              "name": "sg_mkldnn_conv_bn_add_relu_23_output0", 
              "inputs": []
            }, 
            {
              "op": "null", 
              "name": "ssd0_resnetv10_stage3_conv0_weight0", 
              "inputs": []
            }, 
            {
              "op": "null", 
              "name": "ssd0_resnetv10_stage3_conv0_bias0", 
              "inputs": []
            }, 
            {
              "op": "Convolution", 
              "name": "ssd0_resnetv10_stage3_conv0_fwd", 
              "attrs": {
                "dilate": "(1, 1)", 
                "kernel": "(1, 1)", 
                "layout": "NCHW", 
                "no_bias": "False", 
                "num_filter": "256", 
                "num_group": "1", 
                "pad": "(0, 0)", 
                "stride": "(2, 2)"
              }, 
              "inputs": [[0, 0, 0], [1, 0, 0], [2, 0, 0]]
            }, 
            {
              "op": "null", 
              "name": "ssd0_resnetv10_stage3_batchnorm0_gamma0", 
              "inputs": []
            }, 
            {
              "op": "null", 
              "name": "ssd0_resnetv10_stage3_batchnorm0_beta0", 
              "inputs": []
            }, 
            {
              "op": "null", 
              "name": "ssd0_resnetv10_stage3_batchnorm0_running_mean0", 
              "inputs": []
            }, 
            {
              "op": "null", 
              "name": "ssd0_resnetv10_stage3_batchnorm0_running_var0", 
              "inputs": []
            }, 
            {
              "op": "BatchNorm", 
              "name": "ssd0_resnetv10_stage3_batchnorm0_fwd", 
              "attrs": {
                "axis": "1", 
                "eps": "1e-05", 
                "fix_gamma": "False", 
                "momentum": "0.9", 
                "use_global_stats": "False"
              }, 
              "inputs": [[3, 0, 0], [4, 0, 0], [5, 0, 0], [6, 0, 0], [7, 0, 0]]
            }, 
            {
              "op": "Activation", 
              "name": "ssd0_resnetv10_stage3_relu0_fwd", 
              "attrs": {"act_type": "relu"}, 
              "inputs": [[8, 0, 0]]
            }
          ], 
          "arg_nodes": [0, 1, 2, 4, 5, 6, 7], 
          "node_row_ptr": [
            0, 
            1, 
            2, 
            3, 
            4, 
            5, 
            6, 
            7, 
            8, 
            11, 
            12
          ], 
          "heads": [[9, 0, 0]]
        }
      ]
    }, 
    {
      "op": "null", 
      "name": "ssd0_resnetv10_stage3_conv1_weight", 
      "attrs": {
        "__dtype__": "0", 
        "__lr_mult__": "1.0", 
        "__shape__": "(256, 256, 3, 3)", 
        "__storage_type__": "0", 
        "__wd_mult__": "1.0"
      }, 
      "inputs": []
    }, 
    {
      "op": "null", 
      "name": "ssd0_resnetv10_stage3_batchnorm1_gamma", 
      "attrs": {
        "__dtype__": "0", 
        "__init__": "ones", 
        "__lr_mult__": "1.0", 
        "__shape__": "(0,)", 
        "__storage_type__": "0", 
        "__wd_mult__": "1.0"
      }, 
      "inputs": []
    }, 
    {
      "op": "null", 
      "name": "ssd0_resnetv10_stage3_batchnorm1_beta", 
      "attrs": {
        "__dtype__": "0", 
        "__init__": "zeros", 
        "__lr_mult__": "1.0", 
        "__shape__": "(0,)", 
        "__storage_type__": "0", 
        "__wd_mult__": "1.0"
      }, 
      "inputs": []
    }, 
    {
      "op": "null", 
      "name": "ssd0_resnetv10_stage3_batchnorm1_running_mean", 
      "attrs": {
        "__dtype__": "0", 
        "__init__": "zeros", 
        "__lr_mult__": "1.0", 
        "__shape__": "(0,)", 
        "__storage_type__": "0", 
        "__wd_mult__": "1.0"
      }, 
      "inputs": []
    }, 
    {
      "op": "null", 
      "name": "ssd0_resnetv10_stage3_batchnorm1_running_var", 
      "attrs": {
        "__dtype__": "0", 
        "__init__": "ones", 
        "__lr_mult__": "1.0", 
        "__shape__": "(0,)", 
        "__storage_type__": "0", 
        "__wd_mult__": "1.0"
      }, 
      "inputs": []
    }, 
    {
      "op": "_sg_mkldnn_conv", 
      "name": "quantized_sg_mkldnn_conv_bn_relu_25", 
      "attrs": {
        "max_calib_range": "1.549805", 
        "min_calib_range": "-0.000000", 
        "quantized": "true", 
        "with_bn": "true", 
        "with_relu": "true"
      }, 
      "inputs": [[167, 0, 0], [168, 0, 0], [169, 0, 0], [170, 0, 0], [171, 0, 1], [172, 0, 1], [167, 1, 0], [167, 2, 0]], 
      "subgraphs": [
        {
          "nodes": [
            {
              "op": "null", 
              "name": "sg_mkldnn_conv_bn_relu_24_output0", 
              "inputs": []
            }, 
            {
              "op": "null", 
              "name": "ssd0_resnetv10_stage3_conv1_weight0", 
              "inputs": []
            }, 
            {
              "op": "Convolution", 
              "name": "ssd0_resnetv10_stage3_conv1_fwd", 
              "attrs": {
                "dilate": "(1, 1)", 
                "kernel": "(3, 3)", 
                "layout": "NCHW", 
                "no_bias": "True", 
                "num_filter": "256", 
                "num_group": "1", 
                "pad": "(1, 1)", 
                "stride": "(1, 1)"
              }, 
              "inputs": [[0, 0, 0], [1, 0, 0]]
            }, 
            {
              "op": "null", 
              "name": "ssd0_resnetv10_stage3_batchnorm1_gamma0", 
              "inputs": []
            }, 
            {
              "op": "null", 
              "name": "ssd0_resnetv10_stage3_batchnorm1_beta0", 
              "inputs": []
            }, 
            {
              "op": "null", 
              "name": "ssd0_resnetv10_stage3_batchnorm1_running_mean0", 
              "inputs": []
            }, 
            {
              "op": "null", 
              "name": "ssd0_resnetv10_stage3_batchnorm1_running_var0", 
              "inputs": []
            }, 
            {
              "op": "BatchNorm", 
              "name": "ssd0_resnetv10_stage3_batchnorm1_fwd", 
              "attrs": {
                "axis": "1", 
                "eps": "1e-05", 
                "fix_gamma": "False", 
                "momentum": "0.9", 
                "use_global_stats": "False"
              }, 
              "inputs": [[2, 0, 0], [3, 0, 0], [4, 0, 0], [5, 0, 0], [6, 0, 0]]
            }, 
            {
              "op": "Activation", 
              "name": "ssd0_resnetv10_stage3_relu1_fwd", 
              "attrs": {"act_type": "relu"}, 
              "inputs": [[7, 0, 0]]
            }
          ], 
          "arg_nodes": [0, 1, 3, 4, 5, 6], 
          "node_row_ptr": [0, 1, 2, 3, 4, 5, 6, 7, 10, 11], 
          "heads": [[8, 0, 0]]
        }
      ]
    }, 
    {
      "op": "null", 
      "name": "ssd0_resnetv10_stage3_conv2_weight", 
      "attrs": {
        "__dtype__": "0", 
        "__lr_mult__": "1.0", 
        "__shape__": "(1024, 0, 1, 1)", 
        "__storage_type__": "0", 
        "__wd_mult__": "1.0"
      }, 
      "inputs": []
    }, 
    {
      "op": "null", 
      "name": "ssd0_resnetv10_stage3_conv2_bias", 
      "attrs": {
        "__dtype__": "0", 
        "__init__": "zeros", 
        "__lr_mult__": "1.0", 
        "__shape__": "(1024,)", 
        "__storage_type__": "0", 
        "__wd_mult__": "1.0"
      }, 
      "inputs": []
    }, 
    {
      "op": "null", 
      "name": "ssd0_resnetv10_stage3_batchnorm2_gamma", 
      "attrs": {
        "__dtype__": "0", 
        "__init__": "ones", 
        "__lr_mult__": "1.0", 
        "__shape__": "(0,)", 
        "__storage_type__": "0", 
        "__wd_mult__": "1.0"
      }, 
      "inputs": []
    }, 
    {
      "op": "null", 
      "name": "ssd0_resnetv10_stage3_batchnorm2_beta", 
      "attrs": {
        "__dtype__": "0", 
        "__init__": "zeros", 
        "__lr_mult__": "1.0", 
        "__shape__": "(0,)", 
        "__storage_type__": "0", 
        "__wd_mult__": "1.0"
      }, 
      "inputs": []
    }, 
    {
      "op": "null", 
      "name": "ssd0_resnetv10_stage3_batchnorm2_running_mean", 
      "attrs": {
        "__dtype__": "0", 
        "__init__": "zeros", 
        "__lr_mult__": "1.0", 
        "__shape__": "(0,)", 
        "__storage_type__": "0", 
        "__wd_mult__": "1.0"
      }, 
      "inputs": []
    }, 
    {
      "op": "null", 
      "name": "ssd0_resnetv10_stage3_batchnorm2_running_var", 
      "attrs": {
        "__dtype__": "0", 
        "__init__": "ones", 
        "__lr_mult__": "1.0", 
        "__shape__": "(0,)", 
        "__storage_type__": "0", 
        "__wd_mult__": "1.0"
      }, 
      "inputs": []
    }, 
    {
      "op": "null", 
      "name": "ssd0_resnetv10_stage3_conv3_weight", 
      "attrs": {
        "__dtype__": "0", 
        "__lr_mult__": "1.0", 
        "__shape__": "(1024, 512, 1, 1)", 
        "__storage_type__": "0", 
        "__wd_mult__": "1.0"
      }, 
      "inputs": []
    }, 
    {
      "op": "null", 
      "name": "ssd0_resnetv10_stage3_batchnorm3_gamma", 
      "attrs": {
        "__dtype__": "0", 
        "__init__": "ones", 
        "__lr_mult__": "1.0", 
        "__shape__": "(0,)", 
        "__storage_type__": "0", 
        "__wd_mult__": "1.0"
      }, 
      "inputs": []
    }, 
    {
      "op": "null", 
      "name": "ssd0_resnetv10_stage3_batchnorm3_beta", 
      "attrs": {
        "__dtype__": "0", 
        "__init__": "zeros", 
        "__lr_mult__": "1.0", 
        "__shape__": "(0,)", 
        "__storage_type__": "0", 
        "__wd_mult__": "1.0"
      }, 
      "inputs": []
    }, 
    {
      "op": "null", 
      "name": "ssd0_resnetv10_stage3_batchnorm3_running_mean", 
      "attrs": {
        "__dtype__": "0", 
        "__init__": "zeros", 
        "__lr_mult__": "1.0", 
        "__shape__": "(0,)", 
        "__storage_type__": "0", 
        "__wd_mult__": "1.0"
      }, 
      "inputs": []
    }, 
    {
      "op": "null", 
      "name": "ssd0_resnetv10_stage3_batchnorm3_running_var", 
      "attrs": {
        "__dtype__": "0", 
        "__init__": "ones", 
        "__lr_mult__": "1.0", 
        "__shape__": "(0,)", 
        "__storage_type__": "0", 
        "__wd_mult__": "1.0"
      }, 
      "inputs": []
    }, 
    {
      "op": "_sg_mkldnn_conv", 
      "name": "quantized_sg_mkldnn_conv_bn_27", 
      "attrs": {
        "max_calib_range": "2.689998", 
        "min_calib_range": "-1.766548", 
        "quantized": "true", 
        "with_bn": "true"
      }, 
      "inputs": [[160, 0, 0], [180, 0, 0], [181, 0, 0], [182, 0, 0], [183, 0, 1], [184, 0, 1], [160, 1, 0], [160, 2, 0]], 
      "subgraphs": [
        {
          "nodes": [
            {
              "op": "null", 
              "name": "sg_mkldnn_conv_bn_add_relu_23_output0", 
              "inputs": []
            }, 
            {
              "op": "null", 
              "name": "ssd0_resnetv10_stage3_conv3_weight0", 
              "inputs": []
            }, 
            {
              "op": "Convolution", 
              "name": "ssd0_resnetv10_stage3_conv3_fwd", 
              "attrs": {
                "dilate": "(1, 1)", 
                "kernel": "(1, 1)", 
                "layout": "NCHW", 
                "no_bias": "True", 
                "num_filter": "1024", 
                "num_group": "1", 
                "pad": "(0, 0)", 
                "stride": "(2, 2)"
              }, 
              "inputs": [[0, 0, 0], [1, 0, 0]]
            }, 
            {
              "op": "null", 
              "name": "ssd0_resnetv10_stage3_batchnorm3_gamma0", 
              "inputs": []
            }, 
            {
              "op": "null", 
              "name": "ssd0_resnetv10_stage3_batchnorm3_beta0", 
              "inputs": []
            }, 
            {
              "op": "null", 
              "name": "ssd0_resnetv10_stage3_batchnorm3_running_mean0", 
              "inputs": []
            }, 
            {
              "op": "null", 
              "name": "ssd0_resnetv10_stage3_batchnorm3_running_var0", 
              "inputs": []
            }, 
            {
              "op": "BatchNorm", 
              "name": "ssd0_resnetv10_stage3_batchnorm3_fwd", 
              "attrs": {
                "axis": "1", 
                "eps": "1e-05", 
                "fix_gamma": "False", 
                "momentum": "0.9", 
                "use_global_stats": "False"
              }, 
              "inputs": [[2, 0, 0], [3, 0, 0], [4, 0, 0], [5, 0, 0], [6, 0, 0]]
            }
          ], 
          "arg_nodes": [0, 1, 3, 4, 5, 6], 
          "node_row_ptr": [0, 1, 2, 3, 4, 5, 6, 7, 10], 
          "heads": [[7, 0, 0]]
        }
      ]
    }, 
    {
      "op": "_sg_mkldnn_conv", 
      "name": "quantized_sg_mkldnn_conv_bn_add_relu_26", 
      "attrs": {
        "max_calib_range": "3.006491", 
        "min_calib_range": "-0.000000", 
        "quantized": "true", 
        "with_bn": "true", 
        "with_postsum_relu": "true", 
        "with_sum": "true"
      }, 
      "inputs": [
        [173, 0, 0], 
        [174, 0, 0], 
        [175, 0, 0], 
        [176, 0, 0], 
        [177, 0, 0], 
        [178, 0, 1], 
        [179, 0, 1], 
        [185, 0, 0], 
        [173, 1, 0], 
        [173, 2, 0], 
        [185, 1, 0], 
        [185, 2, 0]
      ], 
      "subgraphs": [
        {
          "nodes": [
            {
              "op": "null", 
              "name": "sg_mkldnn_conv_bn_relu_25_output0", 
              "inputs": []
            }, 
            {
              "op": "null", 
              "name": "ssd0_resnetv10_stage3_conv2_weight0", 
              "inputs": []
            }, 
            {
              "op": "null", 
              "name": "ssd0_resnetv10_stage3_conv2_bias0", 
              "inputs": []
            }, 
            {
              "op": "Convolution", 
              "name": "ssd0_resnetv10_stage3_conv2_fwd", 
              "attrs": {
                "dilate": "(1, 1)", 
                "kernel": "(1, 1)", 
                "layout": "NCHW", 
                "no_bias": "False", 
                "num_filter": "1024", 
                "num_group": "1", 
                "pad": "(0, 0)", 
                "stride": "(1, 1)"
              }, 
              "inputs": [[0, 0, 0], [1, 0, 0], [2, 0, 0]]
            }, 
            {
              "op": "null", 
              "name": "ssd0_resnetv10_stage3_batchnorm2_gamma0", 
              "inputs": []
            }, 
            {
              "op": "null", 
              "name": "ssd0_resnetv10_stage3_batchnorm2_beta0", 
              "inputs": []
            }, 
            {
              "op": "null", 
              "name": "ssd0_resnetv10_stage3_batchnorm2_running_mean0", 
              "inputs": []
            }, 
            {
              "op": "null", 
              "name": "ssd0_resnetv10_stage3_batchnorm2_running_var0", 
              "inputs": []
            }, 
            {
              "op": "BatchNorm", 
              "name": "ssd0_resnetv10_stage3_batchnorm2_fwd", 
              "attrs": {
                "axis": "1", 
                "eps": "1e-05", 
                "fix_gamma": "False", 
                "momentum": "0.9", 
                "use_global_stats": "False"
              }, 
              "inputs": [[3, 0, 0], [4, 0, 0], [5, 0, 0], [6, 0, 0], [7, 0, 0]]
            }, 
            {
              "op": "null", 
              "name": "ssd0_resnetv10_stage3_batchnorm3_fwd_output0", 
              "inputs": []
            }, 
            {
              "op": "elemwise_add", 
              "name": "ssd0_resnetv10_stage3__plus0", 
              "inputs": [[8, 0, 0], [9, 0, 0]]
            }, 
            {
              "op": "Activation", 
              "name": "ssd0_resnetv10_stage3_activation0", 
              "attrs": {"act_type": "relu"}, 
              "inputs": [[10, 0, 0]]
            }
          ], 
          "arg_nodes": [0, 1, 2, 4, 5, 6, 7, 9], 
          "node_row_ptr": [
            0, 
            1, 
            2, 
            3, 
            4, 
            5, 
            6, 
            7, 
            8, 
            11, 
            12, 
            13, 
            14
          ], 
          "heads": [[11, 0, 0]]
        }
      ]
    }, 
    {
      "op": "null", 
      "name": "ssd0_resnetv10_stage3_conv4_weight", 
      "attrs": {
        "__dtype__": "0", 
        "__lr_mult__": "1.0", 
        "__shape__": "(256, 0, 1, 1)", 
        "__storage_type__": "0", 
        "__wd_mult__": "1.0"
      }, 
      "inputs": []
    }, 
    {
      "op": "null", 
      "name": "ssd0_resnetv10_stage3_conv4_bias", 
      "attrs": {
        "__dtype__": "0", 
        "__init__": "zeros", 
        "__lr_mult__": "1.0", 
        "__shape__": "(256,)", 
        "__storage_type__": "0", 
        "__wd_mult__": "1.0"
      }, 
      "inputs": []
    }, 
    {
      "op": "null", 
      "name": "ssd0_resnetv10_stage3_batchnorm4_gamma", 
      "attrs": {
        "__dtype__": "0", 
        "__init__": "ones", 
        "__lr_mult__": "1.0", 
        "__shape__": "(0,)", 
        "__storage_type__": "0", 
        "__wd_mult__": "1.0"
      }, 
      "inputs": []
    }, 
    {
      "op": "null", 
      "name": "ssd0_resnetv10_stage3_batchnorm4_beta", 
      "attrs": {
        "__dtype__": "0", 
        "__init__": "zeros", 
        "__lr_mult__": "1.0", 
        "__shape__": "(0,)", 
        "__storage_type__": "0", 
        "__wd_mult__": "1.0"
      }, 
      "inputs": []
    }, 
    {
      "op": "null", 
      "name": "ssd0_resnetv10_stage3_batchnorm4_running_mean", 
      "attrs": {
        "__dtype__": "0", 
        "__init__": "zeros", 
        "__lr_mult__": "1.0", 
        "__shape__": "(0,)", 
        "__storage_type__": "0", 
        "__wd_mult__": "1.0"
      }, 
      "inputs": []
    }, 
    {
      "op": "null", 
      "name": "ssd0_resnetv10_stage3_batchnorm4_running_var", 
      "attrs": {
        "__dtype__": "0", 
        "__init__": "ones", 
        "__lr_mult__": "1.0", 
        "__shape__": "(0,)", 
        "__storage_type__": "0", 
        "__wd_mult__": "1.0"
      }, 
      "inputs": []
    }, 
    {
      "op": "_sg_mkldnn_conv", 
      "name": "quantized_sg_mkldnn_conv_bn_relu_28", 
      "attrs": {
        "max_calib_range": "1.235364", 
        "min_calib_range": "-0.000000", 
        "quantized": "true", 
        "with_bn": "true", 
        "with_relu": "true"
      }, 
      "inputs": [[186, 0, 0], [187, 0, 0], [188, 0, 0], [189, 0, 0], [190, 0, 0], [191, 0, 1], [192, 0, 1], [186, 1, 0], [186, 2, 0]], 
      "subgraphs": [
        {
          "nodes": [
            {
              "op": "null", 
              "name": "sg_mkldnn_conv_bn_add_relu_26_output0", 
              "inputs": []
            }, 
            {
              "op": "null", 
              "name": "ssd0_resnetv10_stage3_conv4_weight0", 
              "inputs": []
            }, 
            {
              "op": "null", 
              "name": "ssd0_resnetv10_stage3_conv4_bias0", 
              "inputs": []
            }, 
            {
              "op": "Convolution", 
              "name": "ssd0_resnetv10_stage3_conv4_fwd", 
              "attrs": {
                "dilate": "(1, 1)", 
                "kernel": "(1, 1)", 
                "layout": "NCHW", 
                "no_bias": "False", 
                "num_filter": "256", 
                "num_group": "1", 
                "pad": "(0, 0)", 
                "stride": "(1, 1)"
              }, 
              "inputs": [[0, 0, 0], [1, 0, 0], [2, 0, 0]]
            }, 
            {
              "op": "null", 
              "name": "ssd0_resnetv10_stage3_batchnorm4_gamma0", 
              "inputs": []
            }, 
            {
              "op": "null", 
              "name": "ssd0_resnetv10_stage3_batchnorm4_beta0", 
              "inputs": []
            }, 
            {
              "op": "null", 
              "name": "ssd0_resnetv10_stage3_batchnorm4_running_mean0", 
              "inputs": []
            }, 
            {
              "op": "null", 
              "name": "ssd0_resnetv10_stage3_batchnorm4_running_var0", 
              "inputs": []
            }, 
            {
              "op": "BatchNorm", 
              "name": "ssd0_resnetv10_stage3_batchnorm4_fwd", 
              "attrs": {
                "axis": "1", 
                "eps": "1e-05", 
                "fix_gamma": "False", 
                "momentum": "0.9", 
                "use_global_stats": "False"
              }, 
              "inputs": [[3, 0, 0], [4, 0, 0], [5, 0, 0], [6, 0, 0], [7, 0, 0]]
            }, 
            {
              "op": "Activation", 
              "name": "ssd0_resnetv10_stage3_relu2_fwd", 
              "attrs": {"act_type": "relu"}, 
              "inputs": [[8, 0, 0]]
            }
          ], 
          "arg_nodes": [0, 1, 2, 4, 5, 6, 7], 
          "node_row_ptr": [
            0, 
            1, 
            2, 
            3, 
            4, 
            5, 
            6, 
            7, 
            8, 
            11, 
            12
          ], 
          "heads": [[9, 0, 0]]
        }
      ]
    }, 
    {
      "op": "null", 
      "name": "ssd0_resnetv10_stage3_conv5_weight", 
      "attrs": {
        "__dtype__": "0", 
        "__lr_mult__": "1.0", 
        "__shape__": "(256, 256, 3, 3)", 
        "__storage_type__": "0", 
        "__wd_mult__": "1.0"
      }, 
      "inputs": []
    }, 
    {
      "op": "null", 
      "name": "ssd0_resnetv10_stage3_batchnorm5_gamma", 
      "attrs": {
        "__dtype__": "0", 
        "__init__": "ones", 
        "__lr_mult__": "1.0", 
        "__shape__": "(0,)", 
        "__storage_type__": "0", 
        "__wd_mult__": "1.0"
      }, 
      "inputs": []
    }, 
    {
      "op": "null", 
      "name": "ssd0_resnetv10_stage3_batchnorm5_beta", 
      "attrs": {
        "__dtype__": "0", 
        "__init__": "zeros", 
        "__lr_mult__": "1.0", 
        "__shape__": "(0,)", 
        "__storage_type__": "0", 
        "__wd_mult__": "1.0"
      }, 
      "inputs": []
    }, 
    {
      "op": "null", 
      "name": "ssd0_resnetv10_stage3_batchnorm5_running_mean", 
      "attrs": {
        "__dtype__": "0", 
        "__init__": "zeros", 
        "__lr_mult__": "1.0", 
        "__shape__": "(0,)", 
        "__storage_type__": "0", 
        "__wd_mult__": "1.0"
      }, 
      "inputs": []
    }, 
    {
      "op": "null", 
      "name": "ssd0_resnetv10_stage3_batchnorm5_running_var", 
      "attrs": {
        "__dtype__": "0", 
        "__init__": "ones", 
        "__lr_mult__": "1.0", 
        "__shape__": "(0,)", 
        "__storage_type__": "0", 
        "__wd_mult__": "1.0"
      }, 
      "inputs": []
    }, 
    {
      "op": "_sg_mkldnn_conv", 
      "name": "quantized_sg_mkldnn_conv_bn_relu_29", 
      "attrs": {
        "max_calib_range": "1.995211", 
        "min_calib_range": "-0.000000", 
        "quantized": "true", 
        "with_bn": "true", 
        "with_relu": "true"
      }, 
      "inputs": [[193, 0, 0], [194, 0, 0], [195, 0, 0], [196, 0, 0], [197, 0, 1], [198, 0, 1], [193, 1, 0], [193, 2, 0]], 
      "subgraphs": [
        {
          "nodes": [
            {
              "op": "null", 
              "name": "sg_mkldnn_conv_bn_relu_28_output0", 
              "inputs": []
            }, 
            {
              "op": "null", 
              "name": "ssd0_resnetv10_stage3_conv5_weight0", 
              "inputs": []
            }, 
            {
              "op": "Convolution", 
              "name": "ssd0_resnetv10_stage3_conv5_fwd", 
              "attrs": {
                "dilate": "(1, 1)", 
                "kernel": "(3, 3)", 
                "layout": "NCHW", 
                "no_bias": "True", 
                "num_filter": "256", 
                "num_group": "1", 
                "pad": "(1, 1)", 
                "stride": "(1, 1)"
              }, 
              "inputs": [[0, 0, 0], [1, 0, 0]]
            }, 
            {
              "op": "null", 
              "name": "ssd0_resnetv10_stage3_batchnorm5_gamma0", 
              "inputs": []
            }, 
            {
              "op": "null", 
              "name": "ssd0_resnetv10_stage3_batchnorm5_beta0", 
              "inputs": []
            }, 
            {
              "op": "null", 
              "name": "ssd0_resnetv10_stage3_batchnorm5_running_mean0", 
              "inputs": []
            }, 
            {
              "op": "null", 
              "name": "ssd0_resnetv10_stage3_batchnorm5_running_var0", 
              "inputs": []
            }, 
            {
              "op": "BatchNorm", 
              "name": "ssd0_resnetv10_stage3_batchnorm5_fwd", 
              "attrs": {
                "axis": "1", 
                "eps": "1e-05", 
                "fix_gamma": "False", 
                "momentum": "0.9", 
                "use_global_stats": "False"
              }, 
              "inputs": [[2, 0, 0], [3, 0, 0], [4, 0, 0], [5, 0, 0], [6, 0, 0]]
            }, 
            {
              "op": "Activation", 
              "name": "ssd0_resnetv10_stage3_relu3_fwd", 
              "attrs": {"act_type": "relu"}, 
              "inputs": [[7, 0, 0]]
            }
          ], 
          "arg_nodes": [0, 1, 3, 4, 5, 6], 
          "node_row_ptr": [0, 1, 2, 3, 4, 5, 6, 7, 10, 11], 
          "heads": [[8, 0, 0]]
        }
      ]
    }, 
    {
      "op": "null", 
      "name": "ssd0_resnetv10_stage3_conv6_weight", 
      "attrs": {
        "__dtype__": "0", 
        "__lr_mult__": "1.0", 
        "__shape__": "(1024, 0, 1, 1)", 
        "__storage_type__": "0", 
        "__wd_mult__": "1.0"
      }, 
      "inputs": []
    }, 
    {
      "op": "null", 
      "name": "ssd0_resnetv10_stage3_conv6_bias", 
      "attrs": {
        "__dtype__": "0", 
        "__init__": "zeros", 
        "__lr_mult__": "1.0", 
        "__shape__": "(1024,)", 
        "__storage_type__": "0", 
        "__wd_mult__": "1.0"
      }, 
      "inputs": []
    }, 
    {
      "op": "null", 
      "name": "ssd0_resnetv10_stage3_batchnorm6_gamma", 
      "attrs": {
        "__dtype__": "0", 
        "__init__": "ones", 
        "__lr_mult__": "1.0", 
        "__shape__": "(0,)", 
        "__storage_type__": "0", 
        "__wd_mult__": "1.0"
      }, 
      "inputs": []
    }, 
    {
      "op": "null", 
      "name": "ssd0_resnetv10_stage3_batchnorm6_beta", 
      "attrs": {
        "__dtype__": "0", 
        "__init__": "zeros", 
        "__lr_mult__": "1.0", 
        "__shape__": "(0,)", 
        "__storage_type__": "0", 
        "__wd_mult__": "1.0"
      }, 
      "inputs": []
    }, 
    {
      "op": "null", 
      "name": "ssd0_resnetv10_stage3_batchnorm6_running_mean", 
      "attrs": {
        "__dtype__": "0", 
        "__init__": "zeros", 
        "__lr_mult__": "1.0", 
        "__shape__": "(0,)", 
        "__storage_type__": "0", 
        "__wd_mult__": "1.0"
      }, 
      "inputs": []
    }, 
    {
      "op": "null", 
      "name": "ssd0_resnetv10_stage3_batchnorm6_running_var", 
      "attrs": {
        "__dtype__": "0", 
        "__init__": "ones", 
        "__lr_mult__": "1.0", 
        "__shape__": "(0,)", 
        "__storage_type__": "0", 
        "__wd_mult__": "1.0"
      }, 
      "inputs": []
    }, 
    {
      "op": "_sg_mkldnn_conv", 
      "name": "quantized_sg_mkldnn_conv_bn_add_relu_30", 
      "attrs": {
        "max_calib_range": "2.863562", 
        "min_calib_range": "-0.000000", 
        "quantized": "true", 
        "with_bn": "true", 
        "with_postsum_relu": "true", 
        "with_sum": "true"
      }, 
      "inputs": [
        [199, 0, 0], 
        [200, 0, 0], 
        [201, 0, 0], 
        [202, 0, 0], 
        [203, 0, 0], 
        [204, 0, 1], 
        [205, 0, 1], 
        [186, 0, 0], 
        [199, 1, 0], 
        [199, 2, 0], 
        [186, 1, 0], 
        [186, 2, 0]
      ], 
      "subgraphs": [
        {
          "nodes": [
            {
              "op": "null", 
              "name": "sg_mkldnn_conv_bn_relu_29_output0", 
              "inputs": []
            }, 
            {
              "op": "null", 
              "name": "ssd0_resnetv10_stage3_conv6_weight0", 
              "inputs": []
            }, 
            {
              "op": "null", 
              "name": "ssd0_resnetv10_stage3_conv6_bias0", 
              "inputs": []
            }, 
            {
              "op": "Convolution", 
              "name": "ssd0_resnetv10_stage3_conv6_fwd", 
              "attrs": {
                "dilate": "(1, 1)", 
                "kernel": "(1, 1)", 
                "layout": "NCHW", 
                "no_bias": "False", 
                "num_filter": "1024", 
                "num_group": "1", 
                "pad": "(0, 0)", 
                "stride": "(1, 1)"
              }, 
              "inputs": [[0, 0, 0], [1, 0, 0], [2, 0, 0]]
            }, 
            {
              "op": "null", 
              "name": "ssd0_resnetv10_stage3_batchnorm6_gamma0", 
              "inputs": []
            }, 
            {
              "op": "null", 
              "name": "ssd0_resnetv10_stage3_batchnorm6_beta0", 
              "inputs": []
            }, 
            {
              "op": "null", 
              "name": "ssd0_resnetv10_stage3_batchnorm6_running_mean0", 
              "inputs": []
            }, 
            {
              "op": "null", 
              "name": "ssd0_resnetv10_stage3_batchnorm6_running_var0", 
              "inputs": []
            }, 
            {
              "op": "BatchNorm", 
              "name": "ssd0_resnetv10_stage3_batchnorm6_fwd", 
              "attrs": {
                "axis": "1", 
                "eps": "1e-05", 
                "fix_gamma": "False", 
                "momentum": "0.9", 
                "use_global_stats": "False"
              }, 
              "inputs": [[3, 0, 0], [4, 0, 0], [5, 0, 0], [6, 0, 0], [7, 0, 0]]
            }, 
            {
              "op": "null", 
              "name": "sg_mkldnn_conv_bn_add_relu_26_output0", 
              "inputs": []
            }, 
            {
              "op": "elemwise_add", 
              "name": "ssd0_resnetv10_stage3__plus1", 
              "inputs": [[8, 0, 0], [9, 0, 0]]
            }, 
            {
              "op": "Activation", 
              "name": "ssd0_resnetv10_stage3_activation1", 
              "attrs": {"act_type": "relu"}, 
              "inputs": [[10, 0, 0]]
            }
          ], 
          "arg_nodes": [0, 1, 2, 4, 5, 6, 7, 9], 
          "node_row_ptr": [
            0, 
            1, 
            2, 
            3, 
            4, 
            5, 
            6, 
            7, 
            8, 
            11, 
            12, 
            13, 
            14
          ], 
          "heads": [[11, 0, 0]]
        }
      ]
    }, 
    {
      "op": "null", 
      "name": "ssd0_resnetv10_stage3_conv7_weight", 
      "attrs": {
        "__dtype__": "0", 
        "__lr_mult__": "1.0", 
        "__shape__": "(256, 0, 1, 1)", 
        "__storage_type__": "0", 
        "__wd_mult__": "1.0"
      }, 
      "inputs": []
    }, 
    {
      "op": "null", 
      "name": "ssd0_resnetv10_stage3_conv7_bias", 
      "attrs": {
        "__dtype__": "0", 
        "__init__": "zeros", 
        "__lr_mult__": "1.0", 
        "__shape__": "(256,)", 
        "__storage_type__": "0", 
        "__wd_mult__": "1.0"
      }, 
      "inputs": []
    }, 
    {
      "op": "null", 
      "name": "ssd0_resnetv10_stage3_batchnorm7_gamma", 
      "attrs": {
        "__dtype__": "0", 
        "__init__": "ones", 
        "__lr_mult__": "1.0", 
        "__shape__": "(0,)", 
        "__storage_type__": "0", 
        "__wd_mult__": "1.0"
      }, 
      "inputs": []
    }, 
    {
      "op": "null", 
      "name": "ssd0_resnetv10_stage3_batchnorm7_beta", 
      "attrs": {
        "__dtype__": "0", 
        "__init__": "zeros", 
        "__lr_mult__": "1.0", 
        "__shape__": "(0,)", 
        "__storage_type__": "0", 
        "__wd_mult__": "1.0"
      }, 
      "inputs": []
    }, 
    {
      "op": "null", 
      "name": "ssd0_resnetv10_stage3_batchnorm7_running_mean", 
…
                "dilate": "(1, 1)", 
                "kernel": "(3, 3)", 
                "layout": "NCHW", 
                "no_bias": "False", 
                "num_filter": "16", 
                "num_group": "1", 
                "pad": "(1, 1)", 
                "stride": "(1, 1)"
              }, 
              "inputs": [[0, 0, 0], [1, 0, 0], [2, 0, 0]]
            }
          ], 
          "arg_nodes": [0, 1, 2], 
          "node_row_ptr": [0, 1, 2, 3, 4], 
          "heads": [[3, 0, 0]]
        }
      ]
    }, 
    {
      "op": "_contrib_dequantize", 
      "name": "sg_mkldnn_conv_67_dequantize", 
      "inputs": [[474, 0, 0], [474, 1, 0], [474, 2, 0]]
    }, 
    {
      "op": "transpose", 
      "name": "ssd0_transpose6", 
      "attrs": {"axes": "(0, 2, 3, 1)"}, 
      "inputs": [[475, 0, 0]]
    }, 
    {
      "op": "Flatten", 
      "name": "ssd0_flatten6", 
      "inputs": [[476, 0, 0]]
    }, 
    {
      "op": "null", 
      "name": "ssd0_convpredictor3_conv0_weight", 
      "attrs": {
        "__dtype__": "0", 
        "__init__": "[\"xavier\", {\"rnd_type\": \"uniform\", \"factor_type\": \"avg\", \"magnitude\": 2}]", 
        "__lr_mult__": "1.0", 
        "__shape__": "(24, 2048, 3, 3)", 
        "__storage_type__": "0", 
        "__wd_mult__": "1.0"
      }, 
      "inputs": []
    }, 
    {
      "op": "null", 
      "name": "ssd0_convpredictor3_conv0_bias", 
      "attrs": {
        "__dtype__": "0", 
        "__init__": "zeros", 
        "__lr_mult__": "1.0", 
        "__shape__": "(24,)", 
        "__storage_type__": "0", 
        "__wd_mult__": "1.0"
      }, 
      "inputs": []
    }, 
    {
      "op": "_sg_mkldnn_conv", 
      "name": "quantized_sg_mkldnn_conv_68", 
      "attrs": {
        "max_calib_range": "4.540250", 
        "min_calib_range": "-4.375725", 
        "quantized": "true"
      }, 
      "inputs": [[358, 0, 0], [478, 0, 0], [479, 0, 0], [358, 1, 0], [358, 2, 0]], 
      "subgraphs": [
        {
          "nodes": [
            {
              "op": "null", 
              "name": "sg_mkldnn_conv_bn_add_relu_53_output0", 
              "inputs": []
            }, 
            {
              "op": "null", 
              "name": "ssd0_convpredictor3_conv0_weight0", 
              "inputs": []
            }, 
            {
              "op": "null", 
              "name": "ssd0_convpredictor3_conv0_bias0", 
              "inputs": []
            }, 
            {
              "op": "Convolution", 
              "name": "ssd0_convpredictor3_conv0_fwd", 
              "attrs": {
                "dilate": "(1, 1)", 
                "kernel": "(3, 3)", 
                "layout": "NCHW", 
                "no_bias": "False", 
                "num_filter": "24", 
                "num_group": "1", 
                "pad": "(1, 1)", 
                "stride": "(1, 1)"
              }, 
              "inputs": [[0, 0, 0], [1, 0, 0], [2, 0, 0]]
            }
          ], 
          "arg_nodes": [0, 1, 2], 
          "node_row_ptr": [0, 1, 2, 3, 4], 
          "heads": [[3, 0, 0]]
        }
      ]
    }, 
    {
      "op": "_contrib_dequantize", 
      "name": "sg_mkldnn_conv_68_dequantize", 
      "inputs": [[480, 0, 0], [480, 1, 0], [480, 2, 0]]
    }, 
    {
      "op": "transpose", 
      "name": "ssd0_transpose7", 
      "attrs": {"axes": "(0, 2, 3, 1)"}, 
      "inputs": [[481, 0, 0]]
    }, 
    {
      "op": "Flatten", 
      "name": "ssd0_flatten7", 
      "inputs": [[482, 0, 0]]
    }, 
    {
      "op": "null", 
      "name": "ssd0_convpredictor5_conv0_weight", 
      "attrs": {
        "__dtype__": "0", 
        "__init__": "[\"xavier\", {\"rnd_type\": \"uniform\", \"factor_type\": \"avg\", \"magnitude\": 2}]", 
        "__lr_mult__": "1.0", 
        "__shape__": "(24, 512, 3, 3)", 
        "__storage_type__": "0", 
        "__wd_mult__": "1.0"
      }, 
      "inputs": []
    }, 
    {
      "op": "null", 
      "name": "ssd0_convpredictor5_conv0_bias", 
      "attrs": {
        "__dtype__": "0", 
        "__init__": "zeros", 
        "__lr_mult__": "1.0", 
        "__shape__": "(24,)", 
        "__storage_type__": "0", 
        "__wd_mult__": "1.0"
      }, 
      "inputs": []
    }, 
    {
      "op": "_sg_mkldnn_conv", 
      "name": "quantized_sg_mkldnn_conv_69", 
      "attrs": {
        "max_calib_range": "4.226004", 
        "min_calib_range": "-3.978005", 
        "quantized": "true"
      }, 
      "inputs": [[376, 0, 0], [484, 0, 0], [485, 0, 0], [376, 1, 0], [376, 2, 0]], 
      "subgraphs": [
        {
          "nodes": [
            {
              "op": "null", 
              "name": "sg_mkldnn_conv_bn_relu_56_output0", 
              "inputs": []
            }, 
            {
              "op": "null", 
              "name": "ssd0_convpredictor5_conv0_weight0", 
              "inputs": []
            }, 
            {
              "op": "null", 
              "name": "ssd0_convpredictor5_conv0_bias0", 
              "inputs": []
            }, 
            {
              "op": "Convolution", 
              "name": "ssd0_convpredictor5_conv0_fwd", 
              "attrs": {
                "dilate": "(1, 1)", 
                "kernel": "(3, 3)", 
                "layout": "NCHW", 
                "no_bias": "False", 
                "num_filter": "24", 
                "num_group": "1", 
                "pad": "(1, 1)", 
                "stride": "(1, 1)"
              }, 
              "inputs": [[0, 0, 0], [1, 0, 0], [2, 0, 0]]
            }
          ], 
          "arg_nodes": [0, 1, 2], 
          "node_row_ptr": [0, 1, 2, 3, 4], 
          "heads": [[3, 0, 0]]
        }
      ]
    }, 
    {
      "op": "_contrib_dequantize", 
      "name": "sg_mkldnn_conv_69_dequantize", 
      "inputs": [[486, 0, 0], [486, 1, 0], [486, 2, 0]]
    }, 
    {
      "op": "transpose", 
      "name": "ssd0_transpose8", 
      "attrs": {"axes": "(0, 2, 3, 1)"}, 
      "inputs": [[487, 0, 0]]
    }, 
    {
      "op": "Flatten", 
      "name": "ssd0_flatten8", 
      "inputs": [[488, 0, 0]]
    }, 
    {
      "op": "null", 
      "name": "ssd0_convpredictor7_conv0_weight", 
      "attrs": {
        "__dtype__": "0", 
        "__init__": "[\"xavier\", {\"rnd_type\": \"uniform\", \"factor_type\": \"avg\", \"magnitude\": 2}]", 
        "__lr_mult__": "1.0", 
        "__shape__": "(24, 512, 3, 3)", 
        "__storage_type__": "0", 
        "__wd_mult__": "1.0"
      }, 
      "inputs": []
    }, 
    {
      "op": "null", 
      "name": "ssd0_convpredictor7_conv0_bias", 
      "attrs": {
        "__dtype__": "0", 
        "__init__": "zeros", 
        "__lr_mult__": "1.0", 
        "__shape__": "(24,)", 
        "__storage_type__": "0", 
        "__wd_mult__": "1.0"
      }, 
      "inputs": []
    }, 
    {
      "op": "_sg_mkldnn_conv", 
      "name": "quantized_sg_mkldnn_conv_70", 
      "attrs": {
        "max_calib_range": "4.201579", 
        "min_calib_range": "-3.761112", 
        "quantized": "true"
      }, 
      "inputs": [[394, 0, 0], [490, 0, 0], [491, 0, 0], [394, 1, 0], [394, 2, 0]], 
      "subgraphs": [
        {
          "nodes": [
            {
              "op": "null", 
              "name": "sg_mkldnn_conv_bn_relu_59_output0", 
              "inputs": []
            }, 
            {
              "op": "null", 
              "name": "ssd0_convpredictor7_conv0_weight0", 
              "inputs": []
            }, 
            {
              "op": "null", 
              "name": "ssd0_convpredictor7_conv0_bias0", 
              "inputs": []
            }, 
            {
              "op": "Convolution", 
              "name": "ssd0_convpredictor7_conv0_fwd", 
              "attrs": {
                "dilate": "(1, 1)", 
                "kernel": "(3, 3)", 
                "layout": "NCHW", 
                "no_bias": "False", 
                "num_filter": "24", 
                "num_group": "1", 
                "pad": "(1, 1)", 
                "stride": "(1, 1)"
              }, 
              "inputs": [[0, 0, 0], [1, 0, 0], [2, 0, 0]]
            }
          ], 
          "arg_nodes": [0, 1, 2], 
          "node_row_ptr": [0, 1, 2, 3, 4], 
          "heads": [[3, 0, 0]]
        }
      ]
    }, 
    {
      "op": "_contrib_dequantize", 
      "name": "sg_mkldnn_conv_70_dequantize", 
      "inputs": [[492, 0, 0], [492, 1, 0], [492, 2, 0]]
    }, 
    {
      "op": "transpose", 
      "name": "ssd0_transpose9", 
      "attrs": {"axes": "(0, 2, 3, 1)"}, 
      "inputs": [[493, 0, 0]]
    }, 
    {
      "op": "Flatten", 
      "name": "ssd0_flatten9", 
      "inputs": [[494, 0, 0]]
    }, 
    {
      "op": "null", 
      "name": "ssd0_convpredictor9_conv0_weight", 
      "attrs": {
        "__dtype__": "0", 
        "__init__": "[\"xavier\", {\"rnd_type\": \"uniform\", \"factor_type\": \"avg\", \"magnitude\": 2}]", 
        "__lr_mult__": "1.0", 
        "__shape__": "(16, 256, 3, 3)", 
        "__storage_type__": "0", 
        "__wd_mult__": "1.0"
      }, 
      "inputs": []
    }, 
    {
      "op": "null", 
      "name": "ssd0_convpredictor9_conv0_bias", 
      "attrs": {
        "__dtype__": "0", 
        "__init__": "zeros", 
        "__lr_mult__": "1.0", 
        "__shape__": "(16,)", 
        "__storage_type__": "0", 
        "__wd_mult__": "1.0"
      }, 
      "inputs": []
    }, 
    {
      "op": "_sg_mkldnn_conv", 
      "name": "quantized_sg_mkldnn_conv_71", 
      "attrs": {
        "max_calib_range": "2.977773", 
        "min_calib_range": "-2.896950", 
        "quantized": "true"
      }, 
      "inputs": [[412, 0, 0], [496, 0, 0], [497, 0, 0], [412, 1, 0], [412, 2, 0]], 
      "subgraphs": [
        {
          "nodes": [
            {
              "op": "null", 
              "name": "sg_mkldnn_conv_bn_relu_62_output0", 
              "inputs": []
            }, 
            {
              "op": "null", 
              "name": "ssd0_convpredictor9_conv0_weight0", 
              "inputs": []
            }, 
            {
              "op": "null", 
              "name": "ssd0_convpredictor9_conv0_bias0", 
              "inputs": []
            }, 
            {
              "op": "Convolution", 
              "name": "ssd0_convpredictor9_conv0_fwd", 
              "attrs": {
                "dilate": "(1, 1)", 
                "kernel": "(3, 3)", 
                "layout": "NCHW", 
                "no_bias": "False", 
                "num_filter": "16", 
                "num_group": "1", 
                "pad": "(1, 1)", 
                "stride": "(1, 1)"
              }, 
              "inputs": [[0, 0, 0], [1, 0, 0], [2, 0, 0]]
            }
          ], 
          "arg_nodes": [0, 1, 2], 
          "node_row_ptr": [0, 1, 2, 3, 4], 
          "heads": [[3, 0, 0]]
        }
      ]
    }, 
    {
      "op": "_contrib_dequantize", 
      "name": "sg_mkldnn_conv_71_dequantize", 
      "inputs": [[498, 0, 0], [498, 1, 0], [498, 2, 0]]
    }, 
    {
      "op": "transpose", 
      "name": "ssd0_transpose10", 
      "attrs": {"axes": "(0, 2, 3, 1)"}, 
      "inputs": [[499, 0, 0]]
    }, 
    {
      "op": "Flatten", 
      "name": "ssd0_flatten10", 
      "inputs": [[500, 0, 0]]
    }, 
    {
      "op": "null", 
      "name": "ssd0_convpredictor11_conv0_weight", 
      "attrs": {
        "__dtype__": "0", 
        "__init__": "[\"xavier\", {\"rnd_type\": \"uniform\", \"factor_type\": \"avg\", \"magnitude\": 2}]", 
        "__lr_mult__": "1.0", 
        "__shape__": "(16, 256, 3, 3)", 
        "__storage_type__": "0", 
        "__wd_mult__": "1.0"
      }, 
      "inputs": []
    }, 
    {
      "op": "null", 
      "name": "ssd0_convpredictor11_conv0_bias", 
      "attrs": {
        "__dtype__": "0", 
        "__init__": "zeros", 
        "__lr_mult__": "1.0", 
        "__shape__": "(16,)", 
        "__storage_type__": "0", 
        "__wd_mult__": "1.0"
      }, 
      "inputs": []
    }, 
    {
      "op": "_sg_mkldnn_conv", 
      "name": "quantized_sg_mkldnn_conv_72", 
      "attrs": {
        "max_calib_range": "2.902189", 
        "min_calib_range": "-3.171603", 
        "quantized": "true"
      }, 
      "inputs": [[430, 0, 0], [502, 0, 0], [503, 0, 0], [430, 1, 0], [430, 2, 0]], 
      "subgraphs": [
        {
          "nodes": [
            {
              "op": "null", 
              "name": "sg_mkldnn_conv_bn_relu_65_output0", 
              "inputs": []
            }, 
            {
              "op": "null", 
              "name": "ssd0_convpredictor11_conv0_weight0", 
              "inputs": []
            }, 
            {
              "op": "null", 
              "name": "ssd0_convpredictor11_conv0_bias0", 
              "inputs": []
            }, 
            {
              "op": "Convolution", 
              "name": "ssd0_convpredictor11_conv0_fwd", 
              "attrs": {
                "dilate": "(1, 1)", 
                "kernel": "(3, 3)", 
                "layout": "NCHW", 
                "no_bias": "False", 
                "num_filter": "16", 
                "num_group": "1", 
                "pad": "(1, 1)", 
                "stride": "(1, 1)"
              }, 
              "inputs": [[0, 0, 0], [1, 0, 0], [2, 0, 0]]
            }
          ], 
          "arg_nodes": [0, 1, 2], 
          "node_row_ptr": [0, 1, 2, 3, 4], 
          "heads": [[3, 0, 0]]
        }
      ]
    }, 
    {
      "op": "_contrib_dequantize", 
      "name": "sg_mkldnn_conv_72_dequantize", 
      "inputs": [[504, 0, 0], [504, 1, 0], [504, 2, 0]]
    }, 
    {
      "op": "transpose", 
      "name": "ssd0_transpose11", 
      "attrs": {"axes": "(0, 2, 3, 1)"}, 
      "inputs": [[505, 0, 0]]
    }, 
    {
      "op": "Flatten", 
      "name": "ssd0_flatten11", 
      "inputs": [[506, 0, 0]]
    }, 
    {
      "op": "Concat", 
      "name": "ssd0_concat1", 
      "attrs": {
        "dim": "1", 
        "num_args": "6"
      }, 
      "inputs": [[477, 0, 0], [483, 0, 0], [489, 0, 0], [495, 0, 0], [501, 0, 0], [507, 0, 0]]
    }, 
    {
      "op": "Reshape", 
      "name": "ssd0_reshape7", 
      "attrs": {"shape": "(0, -1, 4)"}, 
      "inputs": [[508, 0, 0]]
    }, 
    {
      "op": "SliceChannel", 
      "name": "ssd0_normalizedboxcenterdecoder0_split1", 
      "attrs": {
        "axis": "-1", 
        "num_outputs": "4"
      }, 
      "inputs": [[509, 0, 0]]
    }, 
    {
      "op": "_mul_scalar", 
      "name": "ssd0_normalizedboxcenterdecoder0__mulscalar0", 
      "attrs": {"scalar": "0.1"}, 
      "inputs": [[510, 0, 0]]
    }, 
    {
      "op": "_plus_scalar", 
      "name": "ssd0_normalizedboxcenterdecoder0__plusscalar0", 
      "attrs": {"scalar": "0.0"}, 
      "inputs": [[511, 0, 0]]
    }, 
    {
      "op": "null", 
      "name": "ssd0_ssdanchorgenerator0_anchor_0", 
      "attrs": {
        "__dtype__": "0", 
        "__init__": "Constant_ssd0_ssdanchorgenerator0_anchor_0_140333853976112", 
        "__lr_mult__": "1.0", 
        "__shape__": "(1, 1, 128, 128, 16)", 
        "__storage_type__": "0", 
        "__wd_mult__": "1.0"
      }, 
      "inputs": []
    }, 
    {
      "op": "_contrib_dequantize", 
      "name": "sg_mkldnn_conv_bn_add_relu_42_dequantize", 
      "inputs": [[286, 0, 0], [286, 1, 0], [286, 2, 0]]
    }, 
    {
      "op": "_mul_scalar", 
      "name": "ssd0_ssdanchorgenerator0__mulscalar0", 
      "attrs": {"scalar": "0"}, 
      "inputs": [[514, 0, 0]]
    }, 
    {
      "op": "slice_like", 
      "name": "ssd0_ssdanchorgenerator0_slice_like0", 
      "attrs": {"axes": "(2, 3)"}, 
      "inputs": [[513, 0, 0], [515, 0, 0]]
    }, 
    {
      "op": "Reshape", 
      "name": "ssd0_ssdanchorgenerator0_reshape0", 
      "attrs": {"shape": "(1, -1, 4)"}, 
      "inputs": [[516, 0, 0]]
    }, 
    {
      "op": "Reshape", 
      "name": "ssd0_ssdanchorgenerator0_reshape1", 
      "attrs": {"shape": "(1, -1, 4)"}, 
      "inputs": [[517, 0, 0]]
    }, 
    {
      "op": "Reshape", 
      "name": "ssd0_reshape0", 
      "attrs": {"shape": "(1, -1)"}, 
      "inputs": [[518, 0, 0]]
    }, 
    {
      "op": "null", 
      "name": "ssd0_ssdanchorgenerator1_anchor_1", 
      "attrs": {
        "__dtype__": "0", 
        "__init__": "Constant_ssd0_ssdanchorgenerator1_anchor_1_140333953868520", 
        "__lr_mult__": "1.0", 
        "__shape__": "(1, 1, 64, 64, 24)", 
        "__storage_type__": "0", 
        "__wd_mult__": "1.0"
      }, 
      "inputs": []
    }, 
    {
      "op": "_contrib_dequantize", 
      "name": "sg_mkldnn_conv_bn_add_relu_53_dequantize", 
      "inputs": [[358, 0, 0], [358, 1, 0], [358, 2, 0]]
    }, 
    {
      "op": "_mul_scalar", 
      "name": "ssd0_ssdanchorgenerator1__mulscalar0", 
      "attrs": {"scalar": "0"}, 
      "inputs": [[521, 0, 0]]
    }, 
    {
      "op": "slice_like", 
      "name": "ssd0_ssdanchorgenerator1_slice_like0", 
      "attrs": {"axes": "(2, 3)"}, 
      "inputs": [[520, 0, 0], [522, 0, 0]]
    }, 
    {
      "op": "Reshape", 
      "name": "ssd0_ssdanchorgenerator1_reshape0", 
      "attrs": {"shape": "(1, -1, 4)"}, 
      "inputs": [[523, 0, 0]]
    }, 
    {
      "op": "Reshape", 
      "name": "ssd0_ssdanchorgenerator1_reshape1", 
      "attrs": {"shape": "(1, -1, 4)"}, 
      "inputs": [[524, 0, 0]]
    }, 
    {
      "op": "Reshape", 
      "name": "ssd0_reshape1", 
      "attrs": {"shape": "(1, -1)"}, 
      "inputs": [[525, 0, 0]]
    }, 
    {
      "op": "null", 
      "name": "ssd0_ssdanchorgenerator2_anchor_2", 
      "attrs": {
        "__dtype__": "0", 
        "__init__": "Constant_ssd0_ssdanchorgenerator2_anchor_2_140333853893296", 
        "__lr_mult__": "1.0", 
        "__shape__": "(1, 1, 32, 32, 24)", 
        "__storage_type__": "0", 
        "__wd_mult__": "1.0"
      }, 
      "inputs": []
    }, 
    {
      "op": "_contrib_dequantize", 
      "name": "sg_mkldnn_conv_bn_relu_56_dequantize", 
      "inputs": [[376, 0, 0], [376, 1, 0], [376, 2, 0]]
    }, 
    {
      "op": "_mul_scalar", 
      "name": "ssd0_ssdanchorgenerator2__mulscalar0", 
      "attrs": {"scalar": "0"}, 
      "inputs": [[528, 0, 0]]
    }, 
    {
      "op": "slice_like", 
      "name": "ssd0_ssdanchorgenerator2_slice_like0", 
      "attrs": {"axes": "(2, 3)"}, 
      "inputs": [[527, 0, 0], [529, 0, 0]]
    }, 
    {
      "op": "Reshape", 
      "name": "ssd0_ssdanchorgenerator2_reshape0", 
      "attrs": {"shape": "(1, -1, 4)"}, 
      "inputs": [[530, 0, 0]]
    }, 
    {
      "op": "Reshape", 
      "name": "ssd0_ssdanchorgenerator2_reshape1", 
      "attrs": {"shape": "(1, -1, 4)"}, 
      "inputs": [[531, 0, 0]]
    }, 
    {
      "op": "Reshape", 
      "name": "ssd0_reshape2", 
      "attrs": {"shape": "(1, -1)"}, 
      "inputs": [[532, 0, 0]]
    }, 
    {
      "op": "null", 
      "name": "ssd0_ssdanchorgenerator3_anchor_3", 
      "attrs": {
        "__dtype__": "0", 
        "__init__": "Constant_ssd0_ssdanchorgenerator3_anchor_3_140333853894416", 
        "__lr_mult__": "1.0", 
        "__shape__": "(1, 1, 16, 16, 24)", 
        "__storage_type__": "0", 
        "__wd_mult__": "1.0"
      }, 
      "inputs": []
    }, 
    {
      "op": "_contrib_dequantize", 
      "name": "sg_mkldnn_conv_bn_relu_59_dequantize", 
      "inputs": [[394, 0, 0], [394, 1, 0], [394, 2, 0]]
    }, 
    {
      "op": "_mul_scalar", 
      "name": "ssd0_ssdanchorgenerator3__mulscalar0", 
      "attrs": {"scalar": "0"}, 
      "inputs": [[535, 0, 0]]
    }, 
    {
      "op": "slice_like", 
      "name": "ssd0_ssdanchorgenerator3_slice_like0", 
      "attrs": {"axes": "(2, 3)"}, 
      "inputs": [[534, 0, 0], [536, 0, 0]]
    }, 
    {
      "op": "Reshape", 
      "name": "ssd0_ssdanchorgenerator3_reshape0", 
      "attrs": {"shape": "(1, -1, 4)"}, 
      "inputs": [[537, 0, 0]]
    }, 
    {
      "op": "Reshape", 
      "name": "ssd0_ssdanchorgenerator3_reshape1", 
      "attrs": {"shape": "(1, -1, 4)"}, 
      "inputs": [[538, 0, 0]]
    }, 
    {
      "op": "Reshape", 
      "name": "ssd0_reshape3", 
      "attrs": {"shape": "(1, -1)"}, 
      "inputs": [[539, 0, 0]]
    }, 
    {
      "op": "null", 
      "name": "ssd0_ssdanchorgenerator4_anchor_4", 
      "attrs": {
        "__dtype__": "0", 
        "__init__": "Constant_ssd0_ssdanchorgenerator4_anchor_4_140333853851320", 
        "__lr_mult__": "1.0", 
        "__shape__": "(1, 1, 16, 16, 16)", 
        "__storage_type__": "0", 
        "__wd_mult__": "1.0"
      }, 
      "inputs": []
    }, 
    {
      "op": "_contrib_dequantize", 
      "name": "sg_mkldnn_conv_bn_relu_62_dequantize", 
      "inputs": [[412, 0, 0], [412, 1, 0], [412, 2, 0]]
    }, 
    {
      "op": "_mul_scalar", 
      "name": "ssd0_ssdanchorgenerator4__mulscalar0", 
      "attrs": {"scalar": "0"}, 
      "inputs": [[542, 0, 0]]
    }, 
    {
      "op": "slice_like", 
      "name": "ssd0_ssdanchorgenerator4_slice_like0", 
      "attrs": {"axes": "(2, 3)"}, 
      "inputs": [[541, 0, 0], [543, 0, 0]]
    }, 
    {
      "op": "Reshape", 
      "name": "ssd0_ssdanchorgenerator4_reshape0", 
      "attrs": {"shape": "(1, -1, 4)"}, 
      "inputs": [[544, 0, 0]]
    }, 
    {
      "op": "Reshape", 
      "name": "ssd0_ssdanchorgenerator4_reshape1", 
      "attrs": {"shape": "(1, -1, 4)"}, 
      "inputs": [[545, 0, 0]]
    }, 
    {
      "op": "Reshape", 
      "name": "ssd0_reshape4", 
      "attrs": {"shape": "(1, -1)"}, 
      "inputs": [[546, 0, 0]]
    }, 
    {
      "op": "null", 
      "name": "ssd0_ssdanchorgenerator5_anchor_5", 
      "attrs": {
        "__dtype__": "0", 
        "__init__": "Constant_ssd0_ssdanchorgenerator5_anchor_5_140333854295320", 
        "__lr_mult__": "1.0", 
        "__shape__": "(1, 1, 16, 16, 16)", 
        "__storage_type__": "0", 
        "__wd_mult__": "1.0"
      }, 
      "inputs": []
    }, 
    {
      "op": "_contrib_dequantize", 
      "name": "sg_mkldnn_conv_bn_relu_65_dequantize", 
      "inputs": [[430, 0, 0], [430, 1, 0], [430, 2, 0]]
    }, 
    {
      "op": "_mul_scalar", 
      "name": "ssd0_ssdanchorgenerator5__mulscalar0", 
      "attrs": {"scalar": "0"}, 
      "inputs": [[549, 0, 0]]
    }, 
    {
      "op": "slice_like", 
      "name": "ssd0_ssdanchorgenerator5_slice_like0", 
      "attrs": {"axes": "(2, 3)"}, 
      "inputs": [[548, 0, 0], [550, 0, 0]]
    }, 
    {
      "op": "Reshape", 
      "name": "ssd0_ssdanchorgenerator5_reshape0", 
      "attrs": {"shape": "(1, -1, 4)"}, 
      "inputs": [[551, 0, 0]]
    }, 
    {
      "op": "Reshape", 
      "name": "ssd0_ssdanchorgenerator5_reshape1", 
      "attrs": {"shape": "(1, -1, 4)"}, 
      "inputs": [[552, 0, 0]]
    }, 
    {
      "op": "Reshape", 
      "name": "ssd0_reshape5", 
      "attrs": {"shape": "(1, -1)"}, 
      "inputs": [[553, 0, 0]]
    }, 
    {
      "op": "Concat", 
      "name": "ssd0_concat2", 
      "attrs": {
        "dim": "1", 
        "num_args": "6"
      }, 
      "inputs": [[519, 0, 0], [526, 0, 0], [533, 0, 0], [540, 0, 0], [547, 0, 0], [554, 0, 0]]
    }, 
    {
      "op": "Reshape", 
      "name": "ssd0_reshape8", 
      "attrs": {"shape": "(1, -1, 4)"}, 
      "inputs": [[555, 0, 0]]
    }, 
    {
      "op": "SliceChannel", 
      "name": "ssd0_normalizedboxcenterdecoder0_split0", 
      "attrs": {
        "axis": "-1", 
        "num_outputs": "4"
      }, 
      "inputs": [[556, 0, 0]]
    }, 
    {
      "op": "broadcast_mul", 
      "name": "ssd0_normalizedboxcenterdecoder0_broadcast_mul0", 
      "inputs": [[512, 0, 0], [557, 2, 0]]
    }, 
    {
      "op": "broadcast_add", 
      "name": "ssd0_normalizedboxcenterdecoder0_broadcast_add0", 
      "inputs": [[558, 0, 0], [557, 0, 0]]
    }, 
    {
      "op": "_mul_scalar", 
      "name": "ssd0_normalizedboxcenterdecoder0__mulscalar2", 
      "attrs": {"scalar": "0.2"}, 
      "inputs": [[510, 2, 0]]
    }, 
    {
      "op": "_plus_scalar", 
      "name": "ssd0_normalizedboxcenterdecoder0__plusscalar2", 
      "attrs": {"scalar": "0.0"}, 
      "inputs": [[560, 0, 0]]
    }, 
    {
      "op": "exp", 
      "name": "ssd0_normalizedboxcenterdecoder0_exp0", 
      "inputs": [[561, 0, 0]]
    }, 
    {
      "op": "broadcast_mul", 
      "name": "ssd0_normalizedboxcenterdecoder0_broadcast_mul2", 
      "inputs": [[562, 0, 0], [557, 2, 0]]
    }, 
    {
      "op": "_div_scalar", 
      "name": "ssd0_normalizedboxcenterdecoder0__divscalar0", 
      "attrs": {"scalar": "2"}, 
      "inputs": [[563, 0, 0]]
    }, 
    {
      "op": "elemwise_sub", 
      "name": "ssd0_normalizedboxcenterdecoder0__minus0", 
      "inputs": [[559, 0, 0], [564, 0, 0]]
    }, 
    {
      "op": "_mul_scalar", 
      "name": "ssd0_normalizedboxcenterdecoder0__mulscalar1", 
      "attrs": {"scalar": "0.1"}, 
      "inputs": [[510, 1, 0]]
    }, 
    {
      "op": "_plus_scalar", 
      "name": "ssd0_normalizedboxcenterdecoder0__plusscalar1", 
      "attrs": {"scalar": "0.0"}, 
      "inputs": [[566, 0, 0]]
    }, 
    {
      "op": "broadcast_mul", 
      "name": "ssd0_normalizedboxcenterdecoder0_broadcast_mul1", 
      "inputs": [[567, 0, 0], [557, 3, 0]]
    }, 
    {
      "op": "broadcast_add", 
      "name": "ssd0_normalizedboxcenterdecoder0_broadcast_add1", 
      "inputs": [[568, 0, 0], [557, 1, 0]]
    }, 
    {
      "op": "_mul_scalar", 
      "name": "ssd0_normalizedboxcenterdecoder0__mulscalar3", 
      "attrs": {"scalar": "0.2"}, 
      "inputs": [[510, 3, 0]]
    }, 
    {
      "op": "_plus_scalar", 
      "name": "ssd0_normalizedboxcenterdecoder0__plusscalar3", 
      "attrs": {"scalar": "0.0"}, 
      "inputs": [[570, 0, 0]]
    }, 
    {
      "op": "exp", 
      "name": "ssd0_normalizedboxcenterdecoder0_exp1", 
      "inputs": [[571, 0, 0]]
    }, 
    {
      "op": "broadcast_mul", 
      "name": "ssd0_normalizedboxcenterdecoder0_broadcast_mul3", 
      "inputs": [[572, 0, 0], [557, 3, 0]]
    }, 
    {
      "op": "_div_scalar", 
      "name": "ssd0_normalizedboxcenterdecoder0__divscalar1", 
      "attrs": {"scalar": "2"}, 
      "inputs": [[573, 0, 0]]
    }, 
    {
      "op": "elemwise_sub", 
      "name": "ssd0_normalizedboxcenterdecoder0__minus1", 
      "inputs": [[569, 0, 0], [574, 0, 0]]
    }, 
    {
      "op": "elemwise_add", 
      "name": "ssd0_normalizedboxcenterdecoder0__plus0", 
      "inputs": [[559, 0, 0], [564, 0, 0]]
    }, 
    {
      "op": "elemwise_add", 
      "name": "ssd0_normalizedboxcenterdecoder0__plus1", 
      "inputs": [[569, 0, 0], [574, 0, 0]]
    }, 
    {
      "op": "Concat", 
      "name": "ssd0_normalizedboxcenterdecoder0_concat0", 
      "attrs": {
        "dim": "-1", 
        "num_args": "4"
      }, 
      "inputs": [[565, 0, 0], [575, 0, 0], [576, 0, 0], [577, 0, 0]]
    }, 
    {
      "op": "Concat", 
      "name": "ssd0_concat3", 
      "attrs": {
        "dim": "-1", 
        "num_args": "3"
      }, 
      "inputs": [[468, 0, 0], [471, 0, 0], [578, 0, 0]]
    }, 
    {
      "op": "slice_axis", 
      "name": "ssd0_slice_axis2", 
      "attrs": {
        "axis": "-1", 
        "begin": "1", 
        "end": "2"
      }, 
      "inputs": [[467, 0, 0]]
    }, 
    {
      "op": "slice_axis", 
      "name": "ssd0_slice_axis3", 
      "attrs": {
        "axis": "-1", 
        "begin": "1", 
        "end": "2"
      }, 
      "inputs": [[470, 0, 0]]
    }, 
    {
      "op": "Concat", 
      "name": "ssd0_concat4", 
      "attrs": {
        "dim": "-1", 
        "num_args": "3"
      }, 
      "inputs": [[580, 0, 0], [581, 0, 0], [578, 0, 0]]
    }, 
    {
      "op": "slice_axis", 
      "name": "ssd0_slice_axis4", 
      "attrs": {
        "axis": "-1", 
        "begin": "2", 
        "end": "3"
      }, 
      "inputs": [[467, 0, 0]]
    }, 
    {
      "op": "slice_axis", 
      "name": "ssd0_slice_axis5", 
      "attrs": {
        "axis": "-1", 
        "begin": "2", 
        "end": "3"
      }, 
      "inputs": [[470, 0, 0]]
    }, 
    {
      "op": "Concat", 
      "name": "ssd0_concat5", 
      "attrs": {
        "dim": "-1", 
        "num_args": "3"
      }, 
      "inputs": [[583, 0, 0], [584, 0, 0], [578, 0, 0]]
    }, 
    {
      "op": "slice_axis", 
      "name": "ssd0_slice_axis6", 
      "attrs": {
        "axis": "-1", 
        "begin": "3", 
        "end": "4"
      }, 
      "inputs": [[467, 0, 0]]
    }, 
    {
      "op": "slice_axis", 
      "name": "ssd0_slice_axis7", 
      "attrs": {
        "axis": "-1", 
        "begin": "3", 
        "end": "4"
      }, 
      "inputs": [[470, 0, 0]]
    }, 
    {
      "op": "Concat", 
      "name": "ssd0_concat6", 
      "attrs": {
        "dim": "-1", 
        "num_args": "3"
      }, 
      "inputs": [[586, 0, 0], [587, 0, 0], [578, 0, 0]]
    }, 
    {
      "op": "slice_axis", 
      "name": "ssd0_slice_axis8", 
      "attrs": {
        "axis": "-1", 
        "begin": "4", 
        "end": "5"
      }, 
      "inputs": [[467, 0, 0]]
    }, 
    {
      "op": "slice_axis", 
      "name": "ssd0_slice_axis9", 
      "attrs": {
        "axis": "-1", 
        "begin": "4", 
        "end": "5"
      }, 
      "inputs": [[470, 0, 0]]
    }, 
    {
      "op": "Concat", 
      "name": "ssd0_concat7", 
      "attrs": {
        "dim": "-1", 
        "num_args": "3"
      }, 
      "inputs": [[589, 0, 0], [590, 0, 0], [578, 0, 0]]
    }, 
    {
      "op": "slice_axis", 
      "name": "ssd0_slice_axis10", 
      "attrs": {
        "axis": "-1", 
        "begin": "5", 
        "end": "6"
      }, 
      "inputs": [[467, 0, 0]]
    }, 
    {
      "op": "slice_axis", 
      "name": "ssd0_slice_axis11", 
      "attrs": {
        "axis": "-1", 
        "begin": "5", 
        "end": "6"
      }, 
      "inputs": [[470, 0, 0]]
    }, 
    {
      "op": "Concat", 
      "name": "ssd0_concat8", 
      "attrs": {
        "dim": "-1", 
        "num_args": "3"
      }, 
      "inputs": [[592, 0, 0], [593, 0, 0], [578, 0, 0]]
    }, 
    {
      "op": "slice_axis", 
      "name": "ssd0_slice_axis12", 
      "attrs": {
        "axis": "-1", 
        "begin": "6", 
        "end": "7"
      }, 
      "inputs": [[467, 0, 0]]
    }, 
    {
      "op": "slice_axis", 
      "name": "ssd0_slice_axis13", 
      "attrs": {
        "axis": "-1", 
        "begin": "6", 
        "end": "7"
      }, 
      "inputs": [[470, 0, 0]]
    }, 
    {
      "op": "Concat", 
      "name": "ssd0_concat9", 
      "attrs": {
        "dim": "-1", 
        "num_args": "3"
      }, 
      "inputs": [[595, 0, 0], [596, 0, 0], [578, 0, 0]]
    }, 
    {
      "op": "slice_axis", 
      "name": "ssd0_slice_axis14", 
      "attrs": {
        "axis": "-1", 
        "begin": "7", 
        "end": "8"
      }, 
      "inputs": [[467, 0, 0]]
    }, 
    {
      "op": "slice_axis", 
      "name": "ssd0_slice_axis15", 
      "attrs": {
        "axis": "-1", 
        "begin": "7", 
        "end": "8"
      }, 
      "inputs": [[470, 0, 0]]
    }, 
    {
      "op": "Concat", 
      "name": "ssd0_concat10", 
      "attrs": {
        "dim": "-1", 
        "num_args": "3"
      }, 
      "inputs": [[598, 0, 0], [599, 0, 0], [578, 0, 0]]
    }, 
    {
      "op": "slice_axis", 
      "name": "ssd0_slice_axis16", 
      "attrs": {
        "axis": "-1", 
        "begin": "8", 
        "end": "9"
      }, 
      "inputs": [[467, 0, 0]]
    }, 
    {
      "op": "slice_axis", 
      "name": "ssd0_slice_axis17", 
      "attrs": {
        "axis": "-1", 
        "begin": "8", 
        "end": "9"
      }, 
      "inputs": [[470, 0, 0]]
    }, 
    {
      "op": "Concat", 
      "name": "ssd0_concat11", 
      "attrs": {
        "dim": "-1", 
        "num_args": "3"
      }, 
      "inputs": [[601, 0, 0], [602, 0, 0], [578, 0, 0]]
    }, 
    {
      "op": "slice_axis", 
      "name": "ssd0_slice_axis18", 
      "attrs": {
        "axis": "-1", 
        "begin": "9", 
        "end": "10"
      }, 
      "inputs": [[467, 0, 0]]
    }, 
    {
      "op": "slice_axis", 
      "name": "ssd0_slice_axis19", 
      "attrs": {
        "axis": "-1", 
        "begin": "9", 
        "end": "10"
      }, 
      "inputs": [[470, 0, 0]]
    }, 
    {
      "op": "Concat", 
      "name": "ssd0_concat12", 
      "attrs": {
        "dim": "-1", 
        "num_args": "3"
      }, 
      "inputs": [[604, 0, 0], [605, 0, 0], [578, 0, 0]]
    }, 
    {
      "op": "slice_axis", 
      "name": "ssd0_slice_axis20", 
      "attrs": {
        "axis": "-1", 
        "begin": "10", 
        "end": "11"
      }, 
      "inputs": [[467, 0, 0]]
    }, 
    {
      "op": "slice_axis", 
      "name": "ssd0_slice_axis21", 
      "attrs": {
        "axis": "-1", 
        "begin": "10", 
        "end": "11"
      }, 
      "inputs": [[470, 0, 0]]
    }, 
    {
      "op": "Concat", 
      "name": "ssd0_concat13", 
      "attrs": {
        "dim": "-1", 
        "num_args": "3"
      }, 
      "inputs": [[607, 0, 0], [608, 0, 0], [578, 0, 0]]
    }, 
    {
      "op": "slice_axis", 
      "name": "ssd0_slice_axis22", 
      "attrs": {
        "axis": "-1", 
        "begin": "11", 
        "end": "12"
      }, 
      "inputs": [[467, 0, 0]]
    }, 
    {
      "op": "slice_axis", 
      "name": "ssd0_slice_axis23", 
      "attrs": {
        "axis": "-1", 
        "begin": "11", 
        "end": "12"
      }, 
      "inputs": [[470, 0, 0]]
    }, 
    {
      "op": "Concat", 
      "name": "ssd0_concat14", 
      "attrs": {
        "dim": "-1", 
        "num_args": "3"
      }, 
      "inputs": [[610, 0, 0], [611, 0, 0], [578, 0, 0]]
    }, 
    {
      "op": "slice_axis", 
      "name": "ssd0_slice_axis24", 
      "attrs": {
        "axis": "-1", 
        "begin": "12", 
        "end": "13"
      }, 
      "inputs": [[467, 0, 0]]
    }, 
    {
      "op": "slice_axis", 
      "name": "ssd0_slice_axis25", 
      "attrs": {
        "axis": "-1", 
        "begin": "12", 
        "end": "13"
      }, 
      "inputs": [[470, 0, 0]]
    }, 
    {
      "op": "Concat", 
      "name": "ssd0_concat15", 
      "attrs": {
        "dim": "-1", 
        "num_args": "3"
      }, 
      "inputs": [[613, 0, 0], [614, 0, 0], [578, 0, 0]]
    }, 
    {
      "op": "slice_axis", 
      "name": "ssd0_slice_axis26", 
      "attrs": {
        "axis": "-1", 
        "begin": "13", 
        "end": "14"
      }, 
      "inputs": [[467, 0, 0]]
    }, 
    {
      "op": "slice_axis", 
      "name": "ssd0_slice_axis27", 
      "attrs": {
        "axis": "-1", 
        "begin": "13", 
        "end": "14"
      }, 
      "inputs": [[470, 0, 0]]
    }, 
    {
      "op": "Concat", 
      "name": "ssd0_concat16", 
      "attrs": {
        "dim": "-1", 
        "num_args": "3"
      }, 
      "inputs": [[616, 0, 0], [617, 0, 0], [578, 0, 0]]
    }, 
    {
      "op": "slice_axis", 
      "name": "ssd0_slice_axis28", 
      "attrs": {
        "axis": "-1", 
        "begin": "14", 
        "end": "15"
      }, 
      "inputs": [[467, 0, 0]]
    }, 
    {
      "op": "slice_axis", 
      "name": "ssd0_slice_axis29", 
      "attrs": {
        "axis": "-1", 
        "begin": "14", 
        "end": "15"
      }, 
      "inputs": [[470, 0, 0]]
    }, 
    {
      "op": "Concat", 
      "name": "ssd0_concat17", 
      "attrs": {
        "dim": "-1", 
        "num_args": "3"
      }, 
      "inputs": [[619, 0, 0], [620, 0, 0], [578, 0, 0]]
    }, 
    {
      "op": "slice_axis", 
      "name": "ssd0_slice_axis30", 
      "attrs": {
        "axis": "-1", 
        "begin": "15", 
        "end": "16"
      }, 
      "inputs": [[467, 0, 0]]
    }, 
    {
      "op": "slice_axis", 
      "name": "ssd0_slice_axis31", 
      "attrs": {
        "axis": "-1", 
        "begin": "15", 
        "end": "16"
      }, 
      "inputs": [[470, 0, 0]]
    }, 
    {
      "op": "Concat", 
      "name": "ssd0_concat18", 
      "attrs": {
        "dim": "-1", 
        "num_args": "3"
      }, 
      "inputs": [[622, 0, 0], [623, 0, 0], [578, 0, 0]]
    }, 
    {
      "op": "slice_axis", 
      "name": "ssd0_slice_axis32", 
      "attrs": {
        "axis": "-1", 
        "begin": "16", 
        "end": "17"
      }, 
      "inputs": [[467, 0, 0]]
    }, 
    {
      "op": "slice_axis", 
      "name": "ssd0_slice_axis33", 
      "attrs": {
        "axis": "-1", 
        "begin": "16", 
        "end": "17"
      }, 
      "inputs": [[470, 0, 0]]
    }, 
    {
      "op": "Concat", 
      "name": "ssd0_concat19", 
      "attrs": {
        "dim": "-1", 
        "num_args": "3"
      }, 
      "inputs": [[625, 0, 0], [626, 0, 0], [578, 0, 0]]
    }, 
    {
      "op": "slice_axis", 
      "name": "ssd0_slice_axis34", 
      "attrs": {
        "axis": "-1", 
        "begin": "17", 
        "end": "18"
      }, 
      "inputs": [[467, 0, 0]]
    }, 
    {
      "op": "slice_axis", 
      "name": "ssd0_slice_axis35", 
      "attrs": {
        "axis": "-1", 
        "begin": "17", 
        "end": "18"
      }, 
      "inputs": [[470, 0, 0]]
    }, 
    {
      "op": "Concat", 
      "name": "ssd0_concat20", 
      "attrs": {
        "dim": "-1", 
        "num_args": "3"
      }, 
      "inputs": [[628, 0, 0], [629, 0, 0], [578, 0, 0]]
    }, 
    {
      "op": "slice_axis", 
      "name": "ssd0_slice_axis36", 
      "attrs": {
        "axis": "-1", 
        "begin": "18", 
        "end": "19"
      }, 
      "inputs": [[467, 0, 0]]
    }, 
    {
      "op": "slice_axis", 
      "name": "ssd0_slice_axis37", 
      "attrs": {
        "axis": "-1", 
        "begin": "18", 
        "end": "19"
      }, 
      "inputs": [[470, 0, 0]]
    }, 
    {
      "op": "Concat", 
      "name": "ssd0_concat21", 
      "attrs": {
        "dim": "-1", 
        "num_args": "3"
      }, 
      "inputs": [[631, 0, 0], [632, 0, 0], [578, 0, 0]]
    }, 
    {
      "op": "slice_axis", 
      "name": "ssd0_slice_axis38", 
      "attrs": {
        "axis": "-1", 
        "begin": "19", 
        "end": "20"
      }, 
      "inputs": [[467, 0, 0]]
    }, 
    {
      "op": "slice_axis", 
      "name": "ssd0_slice_axis39", 
      "attrs": {
        "axis": "-1", 
        "begin": "19", 
        "end": "20"
      }, 
      "inputs": [[470, 0, 0]]
    }, 
    {
      "op": "Concat", 
      "name": "ssd0_concat22", 
      "attrs": {
        "dim": "-1", 
        "num_args": "3"
      }, 
      "inputs": [[634, 0, 0], [635, 0, 0], [578, 0, 0]]
    }, 
    {
      "op": "Concat", 
      "name": "ssd0_concat23", 
      "attrs": {
        "dim": "1", 
        "num_args": "20"
      }, 
      "inputs": [
        [579, 0, 0], 
        [582, 0, 0], 
        [585, 0, 0], 
        [588, 0, 0], 
        [591, 0, 0], 
        [594, 0, 0], 
        [597, 0, 0], 
        [600, 0, 0], 
        [603, 0, 0], 
        [606, 0, 0], 
        [609, 0, 0], 
        [612, 0, 0], 
        [615, 0, 0], 
        [618, 0, 0], 
        [621, 0, 0], 
        [624, 0, 0], 
        [627, 0, 0], 
        [630, 0, 0], 
        [633, 0, 0], 
        [636, 0, 0]
      ]
    }, 
    {
      "op": "_contrib_box_nms", 
      "name": "ssd0_box_nms0", 
      "attrs": {
        "coord_start": "2", 
        "force_suppress": "False", 
        "id_index": "0", 
        "overlap_thresh": "0.45", 
        "score_index": "1", 
        "topk": "200", 
        "valid_thresh": "0.01"
      }, 
      "inputs": [[637, 0, 0]]
    }, 
    {
      "op": "slice_axis", 
      "name": "ssd0_slice_axis40", 
      "attrs": {
        "axis": "1", 
        "begin": "0", 
        "end": "100"
      }, 
      "inputs": [[638, 0, 0]]
    }, 
    {
      "op": "slice_axis", 
      "name": "ssd0_slice_axis41", 
      "attrs": {
        "axis": "2", 
        "begin": "0", 
        "end": "1"
      }, 
      "inputs": [[639, 0, 0]]
    }, 
    {
      "op": "slice_axis", 
      "name": "ssd0_slice_axis42", 
      "attrs": {
        "axis": "2", 
        "begin": "1", 
        "end": "2"
      }, 
      "inputs": [[639, 0, 0]]
    }, 
    {
      "op": "slice_axis", 
      "name": "ssd0_slice_axis43", 
      "attrs": {
        "axis": "2", 
        "begin": "2", 
        "end": "6"
      }, 
      "inputs": [[639, 0, 0]]
    }
  ], 
  "arg_nodes": [
    0, 
    2, 
    3, 
    4, 
    5, 
    6, 
    9, 
    10, 
    11, 
    12, 
    13, 
    14, 
    16, 
    17, 
    18, 
    19, 
    20, 
    22, 
    23, 
    24, 
    25, 
    26, 
    27, 
    28, 
    29, 
    30, 
    31, 
    32, 
    35, 
    36, 
    37, 
    38, 
    39, 
    40, 
    42, 
    43, 
    44, 
    45, 
    46, 
    48, 
    49, 
    50, 
    51, 
    52, 
    53, 
    55, 
    56, 
    57, 
    58, 
    59, 
    60, 
    62, 
    63, 
    64, 
    65, 
    66, 
    68, 
    69, 
    70, 
    71, 
    72, 
    73, 
    75, 
    76, 
    77, 
    78, 
    79, 
    80, 
    82, 
    83, 
    84, 
    85, 
    86, 
    88, 
    89, 
    90, 
    91, 
    92, 
    93, 
    94, 
    95, 
    96, 
    97, 
    98, 
    101, 
    102, 
    103, 
    104, 
    105, 
    106, 
    108, 
    109, 
    110, 
    111, 
    112, 
    114, 
    115, 
    116, 
    117, 
    118, 
    119, 
    121, 
    122, 
    123, 
    124, 
    125, 
    126, 
    128, 
    129, 
    130, 
    131, 
    132, 
    134, 
    135, 
    136, 
    137, 
    138, 
    139, 
    141, 
    142, 
    143, 
    144, 
    145, 
    146, 
    148, 
    149, 
    150, 
    151, 
    152, 
    154, 
    155, 
    156, 
    157, 
    158, 
    159, 
    161, 
    162, 
    163, 
    164, 
    165, 
    166, 
    168, 
    169, 
    170, 
    171, 
    172, 
    174, 
    175, 
    176, 
    177, 
    178, 
    179, 
    180, 
    181, 
    182, 
    183, 
    184, 
    187, 
    188, 
    189, 
    190, 
    191, 
    192, 
    194, 
    195, 
    196, 
    197, 
    198, 
    200, 
    201, 
    202, 
    203, 
    204, 
    205, 
    207, 
    208, 
    209, 
    210, 
    211, 
    212, 
    214, 
    215, 
    216, 
    217, 
    218, 
    220, 
    221, 
    222, 
    223, 
    224, 
    225, 
    227, 
    228, 
    229, 
    230, 
    231, 
    232, 
    234, 
    235, 
    236, 
    237, 
    238, 
    240, 
    241, 
    242, 
    243, 
    244, 
    245, 
    247, 
    248, 
    249, 
    250, 
    251, 
    252, 
    254, 
    255, 
    256, 
    257, 
    258, 
    260, 
    261, 
    262, 
    263, 
    264, 
    265, 
    267, 
    268, 
    269, 
    270, 
    271, 
    272, 
    274, 
    275, 
    276, 
    277, 
    278, 
    280, 
    281, 
    282, 
    283, 
    284, 
    285, 
    287, 
    288, 
    293, 
    294, 
    295, 
    296, 
    297, 
    298, 
    300, 
    301, 
    302, 
    303, 
    304, 
    306, 
    307, 
    308, 
    309, 
    310, 
    311, 
    312, 
    313, 
    314, 
    315, 
    316, 
    319, 
    320, 
    321, 
    322, 
    323, 
    324, 
    326, 
    327, 
    328, 
    329, 
    330, 
    332, 
    333, 
    334, 
    335, 
    336, 
    337, 
    339, 
    340, 
    341, 
    342, 
    343, 
    344, 
    346, 
    347, 
    348, 
    349, 
    350, 
    352, 
    353, 
    354, 
    355, 
    356, 
    357, 
    359, 
    360, 
    365, 
    366, 
    367, 
    368, 
    369, 
    371, 
    372, 
    373, 
    374, 
    375, 
    377, 
    378, 
    383, 
    384, 
    385, 
    386, 
    387, 
    389, 
    390, 
    391, 
    392, 
    393, 
    395, 
    396, 
    401, 
    402, 
    403, 
    404, 
    405, 
    407, 
    408, 
    409, 
    410, 
    411, 
    413, 
    414, 
    419, 
    420, 
    421, 
    422, 
    423, 
    425, 
    426, 
    427, 
    428, 
    429, 
    431, 
    432, 
    472, 
    473, 
    478, 
    479, 
    484, 
    485, 
    490, 
    491, 
    496, 
    497, 
    502, 
    503, 
    513, 
    520, 
    527, 
    534, 
    541, 
    548
  ], 
  "node_row_ptr": [
    0, 
    1, 
    4, 
    5, 
    6, 
    7, 
    8, 
    9, 
    12, 
    15, 
    16, 
    17, 
    18, 
    19, 
    20, 
    21, 
    24, 
    25, 
    26, 
    27, 
    28, 
    29, 
    32, 
    33, 
    34, 
    35, 
    36, 
    37, 
    38, 
    39, 
    40, 
    41, 
    42, 
    43, 
    46, 
    49, 
    50, 
    51, 
    52, 
    53, 
    54, 
    55, 
    58, 
    59, 
    60, 
    61, 
    62, 
    63, 
    66, 
    67, 
    68, 
    69, 
    70, 
    71, 
    72, 
    75, 
    76, 
    77, 
    78, 
    79, 
    80, 
    81, 
    84, 
    85, 
    86, 
    87, 
    88, 
    89, 
    92, 
    93, 
    94, 
    95, 
    96, 
    97, 
    98, 
    101, 
    102, 
    103, 
    104, 
    105, 
    106, 
    107, 
    110, 
    111, 
    112, 
    113, 
    114, 
    115, 
    118, 
    119, 
    120, 
    121, 
    122, 
    123, 
    124, 
    125, 
    126, 
    127, 
    128, 
    129, 
    132, 
    135, 
    136, 
    137, 
    138, 
    139, 
    140, 
    141, 
    144, 
    145, 
    146, 
    147, 
    148, 
    149, 
    152, 
    153, 
    154, 
    155, 
    156, 
    157, 
    158, 
    161, 
    162, 
    163, 
    164, 
    165, 
    166, 
    167, 
    170, 
    171, 
    172, 
    173, 
    174, 
    175, 
    178, 
    179, 
    180, 
    181, 
    182, 
    183, 
    184, 
    187, 
    188, 
    189, 
    190, 
    191, 
    192, 
    193, 
    196, 
    197, 
    198, 
    199, 
    200, 
    201, 
    204, 
    205, 
    206, 
    207, 
    208, 
    209, 
    210, 
    213, 
    214, 
    215, 
    216, 
    217, 
    218, 
    219, 
    222, 
    223, 
    224, 
    225, 
    226, 
    227, 
    230, 
    231, 
    232, 
    233, 
    234, 
    235, 
    236, 
    237, 
    238, 
    239, 
    240, 
    241, 
    244, 
    247, 
    248, 
    249, 
    250, 
    251, 
    252, 
    253, 
    256, 
    257, 
    258, 
    259, 
    260, 
    261, 
    264, 
    265, 
    266, 
    267, 
    268, 
    269, 
    270, 
    273, 
    274, 
    275, 
    276, 
    277, 
    278, 
    279, 
    282, 
    283, 
    284, 
    285, 
    286, 
    287, 
    290, 
    291, 
    292, 
    293, 
    294, 
    295, 
    296, 
    299, 
    300, 
    301, 
    302, 
    303, 
    304, 
    305, 
    308, 
    309, 
    310, 
    311, 
    312, 
    313, 
    316, 
    317, 
    318, 
    319, 
    320, 
    321, 
    322, 
    325, 
    326, 
    327, 
    328, 
    329, 
    330, 
    331, 
    334, 
    335, 
    336, 
    337, 
    338, 
    339, 
    342, 
    343, 
    344, 
    345, 
    346, 
    347, 
    348, 
    351, 
    352, 
    353, 
    354, 
    355, 
    356, 
    357, 
    360, 
    361, 
    362, 
    363, 
    364, 
    365, 
    368, 
    369, 
    370, 
    371, 
    372, 
    373, 
    374, 
    377, 
    378, 
    379, 
    382, 
    383, 
    384, 
    385, 
    386, 
    387, 
    388, 
    389, 
    390, 
    391, 
    394, 
    395, 
    396, 
    397, 
    398, 
    399, 
    402, 
    403, 
    404, 
    405, 
    406, 
    407, 
    408, 
    409, 
    410, 
    411, 
    412, 
    413, 
    416, 
    419, 
    420, 
    421, 
    422, 
    423, 
    424, 
    425, 
    428, 
    429, 
    430, 
    431, 
    432, 
    433, 
    436, 
    437, 
    438, 
    439, 
    440, 
    441, 
    442, 
    445, 
    446, 
    447, 
    448, 
    449, 
    450, 
    451, 
    454, 
    455, 
    456, 
    457, 
    458, 
    459, 
    462, 
    463, 
    464, 
    465, 
    466, 
    467, 
    468, 
    471, 
    472, 
    473, 
    476, 
    477, 
    478, 
    479, 
    480, 
    481, 
    482, 
    483, 
    484, 
    487, 
    488, 
    489, 
    490, 
    491, 
    492, 
    495, 
    496, 
    497, 
    500, 
    501, 
    502, 
    503, 
    504, 
    505, 
    506, 
    507, 
    508, 
    511, 
    512, 
    513, 
    514, 
    515, 
    516, 
    519, 
    520, 
    521, 
    524, 
    525, 
    526, 
    527, 
    528, 
    529, 
    530, 
    531, 
    532, 
    535, 
    536, 
    537, 
    538, 
    539, 
    540, 
    543, 
    544, 
    545, 
    548, 
    549, 
    550, 
    551, 
    552, 
    553, 
    554, 
    555, 
    556, 
    559, 
    560, 
    561, 
    562, 
    563, 
    564, 
    567, 
    568, 
    569, 
    572, 
    573, 
    574, 
    575, 
    576, 
    577, 
    578, 
    579, 
    580, 
    581, 
    582, 
    583, 
    584, 
    585, 
    586, 
    587, 
    588, 
    589, 
    590, 
    591, 
    592, 
    593, 
    594, 
    595, 
    596, 
    597, 
    598, 
    599, 
    600, 
    601, 
    602, 
    603, 
    604, 
    605, 
    606, 
    607, 
    608, 
    609, 
    610, 
    611, 
    612, 
    615, 
    616, 
    617, 
    618, 
    619, 
    620, 
    623, 
    624, 
    625, 
    626, 
    627, 
    628, 
    631, 
    632, 
    633, 
    634, 
    635, 
    636, 
    639, 
    640, 
    641, 
    642, 
    643, 
    644, 
    647, 
    648, 
    649, 
    650, 
    651, 
    652, 
    655, 
    656, 
    657, 
    658, 
    659, 
    660, 
    664, 
    665, 
    666, 
    667, 
    668, 
    669, 
    670, 
    671, 
    672, 
    673, 
    674, 
    675, 
    676, 
    677, 
    678, 
    679, 
    680, 
    681, 
    682, 
    683, 
    684, 
    685, 
    686, 
    687, 
    688, 
    689, 
    690, 
    691, 
    692, 
    693, 
    694, 
    695, 
    696, 
    697, 
    698, 
    699, 
    700, 
    701, 
    702, 
    703, 
    704, 
    705, 
    706, 
    707, 
    708, 
    709, 
    710, 
    714, 
    715, 
    716, 
    717, 
    718, 
    719, 
    720, 
    721, 
    722, 
    723, 
    724, 
    725, 
    726, 
    727, 
    728, 
    729, 
    730, 
    731, 
    732, 
    733, 
    734, 
    735, 
    736, 
    737, 
    738, 
    739, 
    740, 
    741, 
    742, 
    743, 
    744, 
    745, 
    746, 
    747, 
    748, 
    749, 
    750, 
    751, 
    752, 
    753, 
    754, 
    755, 
    756, 
    757, 
    758, 
    759, 
    760, 
    761, 
    762, 
    763, 
    764, 
    765, 
    766, 
    767, 
    768, 
    769, 
    770, 
    771, 
    772, 
    773, 
    774, 
    775, 
    776, 
    777, 
    778, 
    779, 
    780, 
    781, 
    782, 
    783, 
    784, 
    785, 
    786, 
    787, 
    788, 
    789, 
    790, 
    791, 
    792, 
    793, 
    794, 
    796, 
    797, 
    798, 
    799, 
    800
  ], 
  "heads": [[640, 0, 0], [641, 0, 0], [642, 0, 0]], 
  "attrs": {"mxnet_version": ["int", 10500]}
}